api/app/ml/models/model_1h.pt (torch, 222421 bytes, 10 tensors)

lstm.weight_ih_l0 f4 [256, 16]
000000 03 ce 03 3c a1 b0 3b bd b4 15 36 bd 8e 46 d9 3d
       0.0080447225 -0.045822743 -0.04445429 0.1060916
000010 6c 01 be 3d d2 9e ea 3d ee 20 1a bd 46 e3 08 bd
       0.09277615 0.11456074 -0.03762906 -0.03341987
000020 4f 30 9d 3d ce b2 ee 3d e0 6a ab 3d 52 b2 1b 3d
       0.0767523 0.11655198 0.08369994 0.038011856
000030 bd 2b f8 3d e3 6a 59 3d 45 7b 00 3e 18 e4 e2 3d
       0.121177174 0.05308045 0.12547024 0.11078662
000040 56 3e a1 3d a1 ca a7 bc 34 8d b7 bd 99 31 74 3c
       0.07873218 -0.020482363 -0.08962479 0.014904403
000050 8d 16 73 3d 08 aa d9 3d 9b 47 fa 3b c9 df 14 3d
       0.059347678 0.10628134 0.0076379306 0.03634623
000060 9a 3e 38 3d 83 88 89 bd b5 8a 8d bd 1d 9b 01 be
       0.044981577 -0.06715491 -0.06911222 -0.12656827
000070 38 ac e0 3d 2c 0b 5c 3d f5 f2 e0 3c 17 d4 d9 bd
       0.10970348 0.05372159 0.027459601 -0.10636156
000080 19 c8 96 3c 85 6b 81 bd 46 e5 ce 3d 33 fc a1 bd
       0.01840596 -0.06319336 0.10102324 -0.07909431
000090 7f 38 8a bd db ae 8a bd 25 3c 55 3d c9 70 00 3d
       -0.06749057 -0.06771632 0.05205931 0.03135756
0000a0 3d 49 b8 bd 93 5c bf 3c af b5 6d bd e0 5b 83 3d
       -0.08998344 0.023359573 -0.058034595 0.06414008
0000b0 5b 2f d0 bd 5b 9f a5 3d 65 09 94 3d 6d aa 98 3d
       -0.10165282 0.08087035 0.07228354 0.07454381
0000c0 a0 0b 5f 3d 43 93 02 be 1a 27 83 3c 29 e7 af bd
       0.054454446 -0.12751488 0.016009856 -0.08589012
0000d0 f4 5e ed 3d 1c c8 96 bd 0c a2 ea 3c b0 f3 a5 3c
       0.115903765 -0.073623866 0.028641723 0.0202578
0000e0 94 f5 b8 3d a2 1e 08 3e cd f2 90 bd 8f 96 e3 bd
       0.09031215 0.13292935 -0.070775606 -0.11112701
0000f0 b9 6a 83 bd 94 d7 b7 bd ef 28 0e 3d 76 cf 78 3d
       -0.0641684 -0.08976665 0.034707006 0.060744725
000100 82 0d da bc 11 e5 b3 bd 73 f4 c7 3d 57 de c5 3d
       -0.02661777 -0.08783925 0.09763422 0.096615486
000110 b1 38 e8 3d bf bf 87 bc 7d 53 b6 3d 9f cc d5 3d
       0.11338938 -0.016570924 0.08902643 0.10439419
000120 16 ad 9c 3d fa ab 16 3d 6d ef 5a 3c 96 69 32 3d
       0.07650201 0.036785103 0.013362748 0.043557726
000130 b8 cb a3 bc d2 aa 7d bd fd e2 af bd 50 b4 bd bd
       -0.019994602 -0.061930485 -0.085882165 -0.092629075
000140 e1 19 20 3d d7 c1 8a 3a 65 53 cd bd 3f fe ae 3d
       0.03908718 0.0010586333 -0.10025672 0.08544587
000150 16 65 f8 3b 68 05 de 3d 89 ca 0d bd cf 04 83 3d
       0.0075804098 0.10840875 -0.03461698 0.063974015
000160 3f d2 91 ba 72 a2 25 3c 68 73 a6 3d 20 09 7c bd
       -0.001112528 0.010109531 0.08127481 -0.06153214
000170 ba 51 c7 3d 39 57 29 3c 92 6e a5 bd a2 7e 02 3e
       0.09732385 0.010335737 -0.0807773 0.12743619
000180 1a 39 c7 3d 75 b0 65 bd 37 9b 7a bd 91 9c 4b 3d
       0.09727688 -0.056076486 -0.06118318 0.04970986
000190 58 1d bb bd 04 80 90 bc f6 f8 af bc a5 03 70 3d
       -0.09136456 -0.017639168 -0.021481019 0.058597226
0001a0 ed 77 76 3d 00 db 96 bd 08 6c 95 3d aa 35 d5 bd
       0.060172964 -0.0736599 0.07295996 -0.10410626
0001b0 9c e3 e3 bd c1 ca fc 3c ce fe c6 3c 37 15 b4 3a
       -0.111273974 0.0308584 0.024291422 0.0013739233
0001c0 52 56 e4 bd 99 62 cf 3d 03 9b 81 3d 6f 23 39 3d
       -0.11149277 0.10126228 0.06328394 0.045199808
0001d0 70 01 96 3d be f3 a3 bd 86 e0 68 bd 17 fd e2 3d
       0.07324493 -0.080054745 -0.056854747 0.11083429
0001e0 a4 0b 13 bd 35 30 ea 3c 6e 57 6c 3d e7 00 06 be
       -0.035899773 0.02858744 0.057700567 -0.13086282
0001f0 b1 92 e3 bc 83 5c bd bd b9 5c d4 bd ac fa 06 3e
       -0.027779909 -0.09246161 -0.10369248 0.13181561
000200 e9 f4 2d 3d e8 31 cc bb 13 42 8a bd aa b5 db 3d
       0.042469893 -0.006231535 -0.06750884 0.10728009
000210 8e 56 c6 3d cd ba a2 3d d9 5e df 3d 8f 56 d5 bd
       0.09684478 0.07945786 0.10906763 -0.104169
000220 7b 17 de bd 04 70 1a bd 52 37 6e bc 3a f4 b3 bb
       -0.10844322 -0.037704483 -0.014539557 -0.0054917606
000230 79 c4 89 bb 3f 44 b8 bd 39 e2 be bd 0b 2b 66 3d
       -0.0042043296 -0.08997392 -0.09320492 0.056193393
000240 72 ba d2 3d be d7 a5 bc b3 30 7f 3d bc b4 a7 bd
       0.10289468 -0.020244475 0.062302303 -0.08188769
000250 d1 78 66 bd 1d c3 1f 3c 13 fb a7 3d 43 88 8f 3d
       -0.056267563 0.0097511085 0.082021855 0.07008412
000260 e0 e5 03 bd ed 6a df bd ab 0a 05 be 5f 27 bd 3d
       -0.032201648 -0.10909066 -0.12992351 0.09236025
000270 0e d9 e7 bc 53 46 ea bd 64 54 74 3d d4 2e a9 bd
       -0.028301742 -0.114391945 0.059650794 -0.08260885
000280 62 8f 7e bd ba 30 f2 bd ae 96 56 ba 5e 2f 9c bc
       -0.06214846 -0.118257 -0.0008185905 -0.019065555
000290 ec 49 c5 3d c8 ff a0 bd c1 44 d3 bd 50 16 19 3d
       0.0963324 -0.078612864 -0.10315848 0.037374794
0002a0 99 9c 9b 3d ee eb 02 bd 68 5b bd 3d e8 97 ff 3c
       0.07598228 -0.03196328 0.0924595 0.031200364
0002b0 00 08 b4 bd 72 6e 0a bc 79 81 d2 bd 12 43 20 3d
       -0.087905884 -0.008449184 -0.10278601 0.039126463
0002c0 57 12 f4 bb 7f 58 3b bc e0 c8 65 3d d0 38 bc bd
       -0.0074484753 -0.011434673 0.056099772 -0.091905236
0002d0 af 07 0e 3d 35 0c d4 bd f4 a6 c9 3d 44 6d 01 3b
       0.034675296 -0.10353891 0.09846297 0.0019748965
0002e0 f8 ad 8d 3d b3 e9 44 3d e4 aa b7 bd 07 5e e1 bd
       0.069179475 0.048074435 -0.08968142 -0.110042624
0002f0 a6 3c ef 3d e8 0f ea bd 3b cf 08 3c 58 9a e3 3d
       0.1168149 -0.11428815 0.008350189 0.11113423
000300 e8 9a bf bd ae 70 17 3c 7a 45 94 bd 1e ba db 3d
       -0.09355718 0.0092431735 -0.07239814 0.107288584
000310 f9 57 dc 3c 89 d2 ff 3d 61 98 33 3c 01 45 92 bc
       0.026897417 0.12491328 0.010961623 -0.01785517
000320 71 00 b5 3c 8a 54 09 3e b9 dd 74 3d 1b 13 bf bc
       0.022094937 0.13411155 0.059781764 -0.02332454
000330 16 10 fb 3d 67 04 96 3d 57 e6 2a bd c9 34 08 bd
       0.122589275 0.073250584 -0.041723575 -0.033253465
000340 f5 dd d5 bd 10 22 2d 3d 82 dd 3a 3d cf 1b ca bd
       -0.104427256 0.042268813 0.045621403 -0.09868585
000350 2a 7c cd 3d aa 97 67 3d 31 4e 9e bd a6 4e 92 bc
       0.10033448 0.056541122 -0.077297576 -0.017859768
000360 13 2d 25 3d 1a 0a f8 bc 3d 5c 89 bd dc 73 8f 3d
       0.04032619 -0.030278254 -0.06707046 0.0700452
000370 89 bd 19 bc 59 07 9f bd 72 90 cd 3d b7 49 42 3d
       -0.009383568 -0.07765073 0.100373164 0.04743358
000380 40 48 81 3d 86 33 f0 bd b8 96 ba 3d a7 1a 95 3d
       0.06312609 -0.11728577 0.091107786 0.07280474
000390 5e 37 be bd 04 59 5b 3d f3 b6 cf 3d 68 0f 61 bd
       -0.09287904 0.05355169 0.10142317 -0.054946333
0003a0 6f e0 00 3e a1 d6 64 bd 76 da c5 3d 30 e0 e0 39
       0.12585615 -0.05586875 0.09660809 0.00042891642
0003b0 a9 30 a4 bd b2 5f d6 3d c8 d6 04 bc 08 10 b5 bc
       -0.08017094 0.10467471 -0.008107848 -0.02210237
0003c0 8c 22 84 3c 2d 27 b9 3d c8 0b c7 3c 46 9b 5c 3d
       0.016129754 0.09040675 0.02429761 0.053859018
0003d0 57 9c cb 3d 57 83 d7 3d c4 e6 80 3d 07 6b f0 3d
       0.09941929 0.10523098 0.06294015 0.11739164
0003e0 eb cc 88 3d 38 70 5b 3c 45 a4 11 3d 01 fa 45 bd
       0.0667971 0.013393454 0.03555705 -0.048334125
0003f0 c6 e1 23 3d ca cd 11 bd 5d 04 bb bd 12 74 99 3a
       0.040010236 -0.035596646 -0.091316916 0.0011707565

lstm.weight_hh_l0 f4 [256, 64]
000000 76 e5 f9 3d 42 2d 8d bd d7 6e e9 bd 8f a7 94 3d
       0.12201969 -0.06893398 -0.11398094 0.07258522
000010 7b 13 8a 3b 84 0b 6a 3c 9d f6 84 bd 7a 41 d9 bb
       0.004213748 0.014284972 -0.0649235 -0.00663012
000020 26 71 b3 bd 25 2c 7d 3d ac 14 83 3d 5b 9f dc bd
       -0.08761816 0.061809678 0.06400427 -0.10772582
000030 76 5e d7 bd 5e f6 c5 bb f2 51 ce bd b2 14 3d bd
       -0.10516064 -0.006041332 -0.100742236 -0.046162315
000040 d0 f9 aa bc 03 cd e3 3d f2 c1 ce bd 51 5a 4d 3c
       -0.020871073 0.11123087 -0.10095586 0.01253374
000050 a0 ed 23 bd 8c f0 1c 3d 86 93 74 bd e9 a9 3d bd
       -0.04002154 0.03831534 -0.059711 -0.046304617
000060 be d3 37 bd 68 d8 e1 3d e5 34 8a bd 29 a1 bf 3c
       -0.044879667 0.11027604 -0.0674837 0.023392277
000070 d4 ac 72 3d 39 1a fe 3d 1c f1 0f 3d 0b 92 f4 bd
       0.059246853 0.12407345 0.03514205 -0.11941918
000080 5c d7 c2 bd ab 94 83 3d 52 85 cd 3d 25 b6 47 3d
       -0.09513733 0.064248405 0.100351945 0.04875769
000090 fa fb 75 3d 91 2b 4e 3d 4a 9d 83 3c 23 06 fb bd
       0.060054757 0.050334517 0.016066212 -0.1225703
0000a0 a9 bc e3 bd 00 13 a0 3d 64 33 53 bd 7b c7 b6 3d
       -0.111199684 0.07816124 -0.05156268 0.08924767
0000b0 9e 40 0a 3d 96 d2 b7 3c 92 64 d1 bc c0 b8 86 3d
       0.03375303 0.022439282 -0.025560651 0.06578207
0000c0 83 18 72 bd ac 3a e7 3d f1 a7 49 bd d7 af e3 bd
       -0.059105407 0.11290488 -0.049232427 -0.11117523
0000d0 4e c6 c2 3d 9e 66 b2 3b ad 5b f1 3d d0 3d 4e bd
       0.0951048 0.005444362 0.11785064 -0.050351918
0000e0 ea bc 50 3d 0e 2d d7 bd ed a1 f5 bc e8 fe 4b bb
       0.050961412 -0.105066404 -0.029984439 -0.0031127278
0000f0 68 65 e4 bd 6e f4 2c bd 2c 46 1e 3d 77 8a b8 3c
       -0.11152154 -0.042225294 0.03864114 0.022526963
000100 e7 05 bf bd 95 04 99 3d d1 dc da 3d 33 c6 df 3d
       -0.09327298 0.07471577 0.10686649 0.109264754
000110 a4 4a a4 bc 5e cc 00 3e 52 dc c8 3d 16 c9 14 bd
       -0.020055123 0.1257796 0.09807648 -0.036324583
000120 45 36 33 bd 25 b7 5d 3d b1 57 90 bc bd 54 fe bc
       -0.043752927 0.05412974 -0.01761994 -0.031046266
000130 61 3f 5b 3d 67 bf 8b bd 40 ee 02 3d ad fa c1 bc
       0.05352724 -0.068236165 0.031965494 -0.023679102
000140 38 8f dd 3d 57 cb 5f bd 84 43 02 3e ae a8 b8 bd
       0.108183324 -0.05463728 0.12721068 -0.09016548
000150 38 41 66 bd 2f c0 cc 3c 44 85 89 bd b9 f1 83 3d
       -0.05621454 0.024993984 -0.067148715 0.06442589
000160 42 92 88 3d 56 93 5d 3c 35 03 ed bd 60 cd b9 bd
       0.066685215 0.013523897 -0.11572877 -0.09072375
000170 2d 24 56 bc 0e 50 07 3e f2 16 94 bd b4 d4 13 bd
       -0.013070148 0.13214132 -0.07230939 -0.03609152
000180 6e d1 72 3d 49 26 bc 3c 21 a0 43 bd 76 ae 42 bc
       0.05928176 0.022967475 -0.047760133 -0.011882415
000190 54 5f 86 3c 8d 3c ca 3d fa 3b 0a 3d 2e d6 aa bd
       0.016402878 0.098748304 0.033748604 -0.08341633
0001a0 1a fd b5 bd 30 79 b7 bd bf a5 d6 bd 46 e0 c8 bd
       -0.08886166 -0.089586616 -0.10480832 -0.09808402
0001b0 12 54 21 bd 24 c0 9e 3d 7a 98 da 3c 1d fd d1 3d
       -0.039386816 0.07751492 0.026684035 0.10253356
0001c0 a8 3a 3a 3d 48 af a1 3a e2 7a 0c 3d 60 35 ea bd
       0.045466095 0.0012335563 0.034296878 -0.11435962
0001d0 5f 33 c0 bd 00 38 1b 3d a9 68 d9 bc 78 df ea bd
       -0.09384798 0.037895203 -0.026539164 -0.114684045
0001e0 ee 38 01 bd 6b 33 4d 3d 22 c1 4c 3c 52 1f da 3b
       -0.031548433 0.050097864 0.012497218 0.0066565657
0001f0 b4 64 4e 3d c4 a4 e4 3c 75 9c 6a bd 25 02 19 bc
       0.050389007 0.027910598 -0.057278115 -0.00933889
000200 bf 70 bd 3d d4 d3 06 3c 13 86 27 bc 9d 0c b5 bd
       0.0925002 0.008229215 -0.010224837 -0.088402964
000210 2e 65 93 bd 4e 59 81 bc 2d bd 9f 3c e7 1c bd bd
       -0.07197033 -0.015789654 0.019499386 -0.09234028
000220 c7 9d ea bc 39 ac 67 bc 3f 9c 04 3e f2 bb c9 3d
       -0.028639687 -0.014140182 0.12950228 0.09850301
000230 b9 b6 e9 bc 0a dc cb bd ec aa 23 3d 4b 2a 08 be
       -0.028529512 -0.099540785 0.039957926 -0.13297383
000240 70 fa 87 bd 33 2f 00 3d aa 51 d7 3d 53 a2 86 bd
       -0.06639564 0.031295013 0.10513623 -0.0657393
000250 91 59 99 bd 4e ac 4b 3d 75 7e f0 3d ee 42 ff bc
       -0.074877866 0.04972487 0.1174287 -0.031159844
000260 47 8d b2 bd 27 8e 79 3d ee ec be 3d 1b 2c be 3d
       -0.08718353 0.060926583 0.093225345 0.09285756
000270 e3 a2 95 3c 53 92 be bd 7a 59 6c 3d f4 cc 30 bd
       0.018266147 -0.09305253 0.05770252 -0.04316421
000280 4b 29 8c bd 9e a1 c1 3c a5 af 1a bd f0 a9 a3 bd
       -0.068438135 0.023636635 -0.037765164 -0.079913974
000290 6f 8f ba 3d e7 4a 59 bc 90 52 52 3d 2a 94 61 3d
       0.09109389 -0.013262487 0.05134827 0.05507294
0002a0 ae b8 17 bd 64 cb d3 3d e6 6a ec 3d 74 49 c8 3d
       -0.03704136 0.10341528 0.11543827 0.09779635
0002b0 a1 4e c2 bd 23 9b ba bd e6 4e af 3d 86 54 44 bd
       -0.094876535 -0.09111621 0.085599706 -0.04793217
0002c0 82 bb d0 bd bc 40 90 3d ba 1b d3 bd 64 e0 df bd
       -0.10192014 0.07043597 -0.10308023 -0.10931471
0002d0 ea 26 9d bd 76 ec 88 3d 95 71 72 3d a2 0a e3 3d
       -0.07673438 0.06685726 0.05919035 0.110860124
0002e0 7c b6 db 3d 36 51 b1 3d 7d 0b b2 3d 96 0a 8a bd
       0.107281655 0.08658068 0.086935975 -0.067403
0002f0 67 5e 97 bd 1a b9 05 be db 5e d7 3c 2b de 84 bd
       -0.07391053 -0.13058892 0.026290348 -0.06487688
000300 48 7a 92 bb c8 88 9a 3d 67 a4 91 3d 8c de aa 3d
       -0.0044701435 0.0754562 0.071114354 0.08343229
000310 d6 95 e5 3d 56 84 a3 3a ae 38 ad bc e5 c7 84 3c
       0.112102196 0.0012475352 -0.021145191 0.016208598
000320 f9 22 e9 3d 7d 7d f7 3c cb e9 e7 bb 56 f2 d6 bd
       0.11383624 0.030211205 -0.007077431 -0.10495441
000330 5a 9f 82 3d ca f8 75 3d a4 d7 8a 3a a2 a8 9a bc
       0.0637805 0.060051717 0.001059283 -0.018879239
000340 32 d8 c1 3d eb 56 b5 bd 7a 5c b7 3d c1 7c 98 3d
       0.09465064 -0.08854469 0.089531854 0.0744567
000350 aa 27 27 bd d1 5e 19 bc 8b ac bb 3d 68 5a d2 bd
       -0.04080931 -0.009360985 0.09163769 -0.1027115
000360 b0 34 84 3d 48 85 56 bc 8c 31 d0 bd 5c 53 61 3d
       0.06455362 -0.0130933 -0.101657 0.05501114
000370 4a 90 aa 3c a9 c3 bb 3d 01 51 51 3c 1f ef 5b bc
       0.020820756 0.091681786 0.0127756605 -0.01342371
000380 0a 0d 2a 3d 65 e0 ab 3d b1 15 c6 bd 8d 82 50 3d
       0.04151634 0.08392409 -0.09672106 0.050905753
000390 27 bf 9b bd 68 6b 81 b9 0e 10 f3 3d 67 f6 5e 3d
       -0.07604819 -0.0002468482 0.118682966 0.054434206
0003a0 0f f3 00 3d 30 fe 88 bc 1e 7d 56 bd 84 b3 96 bd
       0.0314818 -0.016722769 -0.052365415 -0.07358459
0003b0 be 3e e5 bd 4e 52 f6 3b d0 a6 70 ba ff 4b 98 bc
       -0.11193608 0.0075171357 -0.00091801304 -0.018590925
0003c0 69 bc 1a bc c5 79 21 3d 6b b1 cd 3d c7 b8 89 3d
       -0.009444335 0.03942277 0.100436054 0.067246966
0003d0 3f 7a c4 bd 6f a4 44 3d fb 33 d7 3d 6b 40 d8 bd
       -0.09593629 0.04800838 0.10507961 -0.10559162
0003e0 18 5a e6 bc 04 00 30 3c 4f 1e ef 3d 34 95 a9 3d
       -0.028119132 0.010742191 0.11675703 0.08280411
0003f0 d4 f7 59 3b 4d 78 e7 3c b4 d2 33 3d a6 e5 e5 bd
       0.003325929 0.028255606 0.043902114 -0.112254426

lstm.bias_ih_l0 f4 [256]
000000 b6 75 56 bd 10 26 45 bd 1c 92 63 bd 20 55 e8 3d
       -0.05235835 -0.048132002 -0.055559263 0.11344361
000010 64 1a 56 bc 89 a6 72 bc 27 1a e0 bd e2 2f 1a 3c
       -0.013067815 -0.014810213 -0.10942488 0.00941083
000020 4f b1 37 bc e4 09 63 3d c1 66 22 3d 1a 37 e1 ba
       -0.011211707 0.055429354 0.039648775 -0.0017182559
000030 29 dc 44 3c 30 9b 1c bc 45 82 07 3d 94 24 e8 3c
       0.012015381 -0.009558484 0.03308322 0.028337754
000040 b9 1b 82 bd 18 05 e0 3d a0 8d a9 bd fd e9 b4 bd
       -0.06352944 0.109384716 -0.08278966 -0.08833692
000050 b8 20 d0 3d 34 4f 1c 3d 0b d2 d8 3d 90 97 3a 3d
       0.101624906 0.03816147 0.105869375 0.045554698
000060 4b bb 32 bd 42 62 3f 3d 06 f5 14 3d 0d 26 52 bd
       -0.043635648 0.046724565 0.036366485 -0.05130582
000070 d6 79 af 3c 5c 88 cb 3d 20 9d 6a bd a1 57 71 bd
       0.0214204 0.09938118 -0.057278752 -0.05892146
000080 e2 72 58 3d 11 0b 89 bd 80 43 40 bc c1 2d e4 3a
       0.052843936 -0.06691564 -0.011734843 0.0017408655
000090 40 0a c2 3c 0a 61 17 bd c8 aa a0 3d 0f 06 3f bc
       0.023686528 -0.036957778 0.07845074 -0.011659159
0000a0 c2 57 28 bd af 6c c4 3d 4c 60 aa 3d e4 9f cf bd
       -0.041099317 0.09591042 0.083191484 -0.101379186
0000b0 01 2a d0 3d d2 d0 05 3c e8 e5 05 3e 98 ca eb bd
       0.101642616 0.008167462 0.13075984 -0.11513251
0000c0 25 96 e4 3d 35 35 4d 3d 03 4f 31 3c 35 76 93 bc
       0.1116145 0.05009957 0.0108220605 -0.018000701
0000d0 a9 31 7a bd a0 ea ca bd 1e 92 dc bd 9d c1 de 3c
       -0.061082516 -0.099080324 -0.10770057 0.027191931
0000e0 1d 88 ee 3d 90 5c ce 3c 44 0d ac 3b 7f a9 81 bd
       0.11647055 0.025190622 0.005250605 -0.06331157
0000f0 d4 12 59 3d bf ca ef 3d b6 2d 42 3c e3 f4 20 3d
       0.05299647 0.117085926 0.011851719 0.039296042
000100 a2 de 23 bd 14 36 45 bd fa 81 a7 3d d9 a6 29 3d
       -0.04000724 -0.048147276 0.08179088 0.041418884
000110 39 8e 75 3d 94 33 a2 3d 3a 12 22 bd 3e dd b8 3d
       0.059950087 0.07919994 -0.039568163 0.090265736
000120 3b 15 b0 3d bd d9 9f bd 09 ac 55 bc 11 8b ec bd
       0.085977994 -0.07805202 -0.013041505 -0.11549962
000130 03 ba 67 3d a7 f1 53 3a 1d e4 46 3d ca d0 ad bd
       0.05657388 0.000808502 0.04855739 -0.08487089
000140 73 dd a5 bd 8b 79 1f bd 5a f7 1b bd 48 19 8e bd
       -0.08098879 -0.03893427 -0.03807769 -0.06938416
000150 9d 68 1b 3d 7e d8 95 3c f2 d4 ef 3c 4b c9 53 bd
       0.037941564 0.018291708 0.029276345 -0.05170564
000160 43 53 40 bd 2a 48 01 3e 13 3d 20 3d b8 1b 06 bd
       -0.046954405 0.12625185 0.039120745 -0.03274128
000170 04 b5 0f 3d 82 cc d9 bc f4 fc 22 3b f6 0a db bd
       0.03508474 -0.026586775 0.002487001 -0.1069545
000180 ff f7 58 bd 74 f9 9d bd bf b7 88 bd 5c 59 35 3d
       -0.052970883 -0.07713595 -0.06675672 0.044274673
000190 60 d7 9a bd af ca 74 3d 92 0e e6 bd 74 2e 8f bc
       -0.07560611 0.059763607 -0.11233248 -0.017478205
0001a0 9b e7 d7 3c 5e 81 3b 3c e4 c2 ea 3d 07 35 ef 3c
       0.026355555 0.011444418 0.11462954 0.02920009
0001b0 6f 4e 97 bc ba e1 56 bd 4a e1 ef bd 4d 82 9c bd
       -0.018470017 -0.052461363 -0.11712892 -0.076420404
0001c0 e8 da 85 bb 45 50 8b bd 5f 7d a2 bc 26 f3 09 3c
       -0.0040849335 -0.068024196 -0.019835172 0.0084197875
0001d0 ce 0e f5 3c 5b c2 87 3d e8 eb 01 be fa 38 9d bd
       0.029914286 0.06628867 -0.12687647 -0.07676883
0001e0 06 69 7f bd c2 33 00 bc 5f ec 96 bd ed ad 2d 3d
       -0.062356018 -0.00782484 -0.07369303 0.042402197
0001f0 d9 e1 ba 3c 09 86 1a bc 37 da cb bd 2d 58 28 3d
       0.02281277 -0.0094313705 -0.099537306 0.041099716
000200 ce d9 41 bc f7 2a 81 bd 95 c5 03 3e ef 47 0c bc
       -0.011831714 -0.06307023 0.1286834 -0.008562072
000210 e6 7b 98 3d c0 29 a4 bc 31 e8 97 3d e2 b1 bb 3b
       0.07445507 -0.02003944 0.07417334 0.0057279924
000220 1a 0b 9c 3d ff 35 47 3d 63 ee d9 3d 1f bc 96 bd
       0.07619305 0.04863548 0.10641172 -0.073601
000230 1a 35 1e bc de de 50 3c b3 13 8c bc cd 2b 8b 3c
       -0.009656215 0.012748448 -0.017099237 0.01698866
000240 92 72 61 3d e7 36 9d 3b e7 ba 08 bd dc 7b 25 bd
       0.055040903 0.0047978046 -0.03338137 -0.040401325
000250 20 27 6c 3b 0c 38 c2 3d 13 f4 b7 bc a8 6d 53 3d
       0.0036034063 0.09483346 -0.02245525 0.05161825
000260 48 9f 38 bb 58 0e 20 3d b8 f5 ac bd 42 9b 91 bd
       -0.002817111 0.03907618 -0.08445305 -0.07109691
000270 1c 92 e2 bd 54 d3 d0 3d 56 0b 4e bd 46 32 f9 bc
       -0.110630244 0.10196558 -0.05030378 -0.03041948
000280 93 b8 c6 bd 63 b4 7d bc d2 08 b5 bd 92 8b ec bc
       -0.097031735 -0.015484902 -0.08839573 -0.028875146
000290 8f 0f 3d 3d 3a 49 29 3c 2c 90 e6 bd 47 ac 39 3d
       0.046157416 0.0103324 -0.11257967 0.045330312
0002a0 be 5f bf 3a b6 aa e3 3d a2 92 b8 bb f0 84 b3 3c
       0.0014600677 0.11116545 -0.0056327144 0.021913975
0002b0 e1 4a cf bc 84 f9 26 3d d6 73 4a bc a5 a0 0a 3d
       -0.02530426 0.0407653 -0.012356719 0.03384461
0002c0 7c b1 86 bd 5f d4 c1 3c 09 64 ad bd 6c e9 be 3d
       -0.06576821 0.023660837 -0.08466346 0.093218654
0002d0 36 dc c4 3d 42 23 e8 3d 4a 47 7f bd 8a cd a0 bd
       0.096123144 0.1133485 -0.062323846 -0.078517035
0002e0 20 02 93 bd a2 93 f3 bd ee 3e 91 3d fb 05 28 ba
       -0.0717814 -0.11893393 0.07092081 -0.00064095826
0002f0 cc e1 ec bc 4e f0 90 bc 9f 0d f1 3d f7 9b 58 bd
       -0.028916262 -0.017692711 0.11770176 -0.052883115
000300 af b2 d4 bd be d9 e4 bd e4 05 84 bd 4c d7 f8 3d
       -0.10385644 -0.111743435 -0.06446436 0.121504396
000310 f0 7c 8a bd 4d 66 25 bd 61 1e 13 bd 80 21 8b 3b
       -0.06762111 -0.040380765 -0.035917643 0.004245937
000320 20 ec 57 3d d5 3a dd bc e3 95 9e 3d aa 66 b0 bb
       0.05271542 -0.027005592 0.077434324 -0.0053833323
000330 71 69 e6 bd c5 e4 d8 3d 0c 8e 12 bd a3 3d f8 3d
       -0.1125058 0.10590509 -0.035779998 0.12121131
000340 a3 1b 8e bc d9 31 76 3d 5f 08 3b bd 39 7e 01 be
       -0.017347163 0.060106132 -0.04566228 -0.12645806
000350 ef 3a ac bd 13 f1 44 bc 23 b4 93 3d 84 b9 bc bd
       -0.08409678 -0.012020367 0.07212093 -0.09215072
000360 d3 df f3 bd 61 99 ee 3d 5b 94 ef 3d 31 65 15 bd
       -0.119079255 0.116503485 0.116982184 -0.036473457
000370 7f 78 68 3d 25 d8 dc bd 54 36 8a bd 27 cd 50 3d
       0.05675554 -0.10783414 -0.067486435 0.0509769
000380 8b 95 1d 3d ab 65 03 3e 69 6d c4 bd 02 ac 1a 3d
       0.038472693 0.12831752 -0.09591181 0.037761696
000390 45 4c ba 3d e1 b7 8d bd cf 74 c0 3d 5a 48 f8 bc
       0.090965785 -0.06919838 0.093972795 -0.030307937
0003a0 8c b3 72 3c 57 5e a9 3d 3b e2 7c bc 00 60 cb bd
       0.014813315 0.08269947 -0.015434797 -0.0993042
0003b0 3e 89 56 3d a3 32 a6 bd bd 44 61 bd 9d 7d 8b bd
       0.052376978 -0.08115127 -0.054997195 -0.06811068
0003c0 6d 6d 89 3d 03 66 81 bd 11 3f 48 bd 60 fd 29 bd
       0.067103244 -0.06318285 -0.04888827 -0.041501403
0003d0 01 00 ba bd 39 15 ef 3d 92 1b 27 bd 0e d5 89 3d
       -0.09082032 0.1167397 -0.040797777 0.0673009
0003e0 df b3 8c 3c b2 05 e0 3d 2b 1b 54 bc 92 3c a6 3a
       0.017175613 0.10938586 -0.0129459305 0.0012682846
0003f0 ac c1 1b bd 56 5e 77 3d dd 7b db 3d f7 f3 2f 3d
       -0.038026497 0.0603927 0.107169844 0.042957272

lstm.bias_hh_l0 f4 [256]
000000 40 91 84 bd f8 0b 5e bd ae b9 47 3c ea 4d e4 bd
       -0.06473017 -0.054210633 0.012190266 -0.111476734
000010 a5 99 e6 3d 5f 47 40 bd 59 a1 c8 3c 41 a7 fa 3c
       0.11259774 -0.046943065 0.024490999 0.030597331
000020 da 08 b7 bd a4 4d ba 3d 79 23 2d 3d 7e 51 e0 bd
       -0.08937235 0.0909684 0.042270157 -0.109530434
000030 85 f3 83 3c e8 da 8f bd 7e 48 95 bd 26 7a db bd
       0.01610733 -0.07024175 -0.072892174 -0.10716657
000040 2c b3 85 3c 22 5a cf 3d b0 ff bd 3d 1d a3 1e bd
       0.016320787 0.10124613 0.09277284 -0.038729776
000050 3e 37 02 3d d4 66 51 bd da ab 8b bc d5 3e fc bd
       0.031790964 -0.051123455 -0.017049719 -0.12316672
000060 ac 5e e9 bd 8d 17 fe bc 6e fc 65 bd e7 e4 14 3d
       -0.1139501 -0.03101709 -0.05614894 0.03635111
000070 5f 0f 00 3e c9 dd 8d 3d 1b bb c8 bb 16 83 f5 3d
       0.12505864 0.06927068 -0.0061258203 0.11987893
000080 aa a9 29 3d 10 1f 9c 3c c2 93 6c bd 96 60 e2 bd
       0.04142157 0.01905778 -0.0577581 -0.110535786
000090 1a c8 16 3d 37 fe dc bc d0 23 f0 3d 46 3e 3e 3b
       0.036811925 -0.026976688 0.11725581 0.0029028817
0000a0 33 f6 8e 3d 26 d2 5c bd fa 95 dd bd 4d 80 05 3d
       0.069805525 -0.05391135 -0.108196214 0.03259306
0000b0 fb 1b d7 bc d8 22 9b bd df 05 44 3d 5f fc 22 bd
       -0.02625846 -0.07575005 0.04785716 -0.03979146
0000c0 60 a3 99 bc 4d 5c 03 3e f8 6b 25 3d ae e7 13 bd
       -0.018754661 0.12828179 0.04038617 -0.03610962
0000d0 f3 f4 e4 bd 13 50 43 3d 26 45 c6 bd da 6c 5a 3c
       -0.11179533 0.047683787 -0.09681158 0.013331616
0000e0 db a3 56 bd f8 e3 48 3d 16 ec 94 3a 5b e0 5b 3d
       -0.05240236 0.049045533 0.0011361863 0.05368076
0000f0 18 8f 69 bc 8b a4 d0 3d a5 03 0f 3c c1 d5 e6 bd
       -0.014255308 0.10187634 0.008728896 -0.11271239
000100 ba 70 83 3d bf 43 a1 bc 56 d4 b3 3c 6f af bc bd
       0.06417985 -0.019685624 0.021951836 -0.09213149
000110 01 a6 3f 3d 16 55 02 3d 22 98 4b 3d 5e c4 d6 3d
       0.046789173 0.031819426 0.049705632 0.10486673
000120 8f d1 b5 bd 96 b3 25 bd 8d 0c e2 3b 37 a4 fb 3d
       -0.08877861 -0.04045447 0.006898469 0.12287181
000130 4f 5d 2b 3d 43 bc eb 3d cb 23 be 3d b7 a1 5f 3d
       0.041837033 0.115105174 0.09284171 0.054597583
000140 c3 a9 67 bd 36 ce 84 bd 6e 30 4d bc 5e b8 62 bd
       -0.05655838 -0.06484644 -0.012523754 -0.055351608
000150 53 19 bd bd 72 59 a2 bc 9b 08 d1 bd f3 e8 25 bd
       -0.09233346 -0.019818041 -0.102067195 -0.04050536
000160 56 dc ea bd 0b 1e a9 3d 97 d8 ac bd 94 57 4f bd
       -0.11467807 0.08257683 -0.08439749 -0.05062063
000170 5c 60 36 3d 8d dc b6 bd 9b a9 0e 3d 91 52 f6 bc
       0.04452549 -0.089287855 0.034829717 -0.030068668
000180 02 90 99 3c 14 9f ee bc 41 6f 66 ba 37 de 00 3e
       0.018745426 -0.029128589 -0.0008790382 0.12584768
000190 e0 77 bc 3b 21 2f d4 3d cd 24 5a 3d 2d 22 7d bb
       0.005751595 0.103605516 0.053257752 -0.0038625107
0001a0 7d d0 9d bc 9e fb 15 bd 64 ba 12 3c 1f fa 7f 3d
       -0.019264454 -0.036616914 0.008955572 0.062494393
0001b0 c3 74 92 3d 70 f1 02 be cc 9c 94 bd 17 a7 e5 3d
       0.07151177 -0.12787414 -0.07256469 0.112135105
0001c0 80 8f 0e 3d c0 20 03 3d ad 72 71 bd e5 59 dc 3d
       0.03480482 0.032013655 -0.058947254 0.107593335
0001d0 84 94 bf 3d 45 ad 92 3d a9 d8 f3 bd da e9 b6 39
       0.09354499 0.07161955 -0.11906559 0.00034887978
0001e0 7f 08 2a bd b2 ef cc bc 90 75 0c 3c 2a a0 81 3b
       -0.04151201 -0.02501664 0.008572951 0.0039558606
0001f0 37 ed 48 3d 55 f5 b2 3d 6f cb ad bd d7 8a 3a bd
       0.04905435 0.087381996 -0.084860675 -0.045542564
000200 b7 09 b9 bc 74 e7 45 bd 2c 9a 8d bd 94 af d1 3d
       -0.02258764 -0.048316434 -0.069141716 0.10238567
000210 ed 29 7f bd eb f7 5d bd 1f 23 b5 bd 54 00 b2 3d
       -0.062295843 -0.05419151 -0.088445894 0.08691469
000220 1c 97 e2 3d 05 7f a3 3d 5c d7 22 bd 9d f3 9f bd
       0.11063978 0.079832114 -0.039756164 -0.078101374
000230 2e 8e 2f bd 92 8d c3 bc 62 a5 8e bd 58 4b 13 bd
       -0.042860202 -0.023871217 -0.06965138 -0.035960525
000240 e7 a4 8d bd 79 5b 73 3d c9 34 47 3d d8 eb 4a bd
       -0.06916218 0.059413407 0.048634324 -0.049541324
000250 f9 ff e2 3d 54 e0 a7 bd 92 f5 db 3d c1 04 2b 3b
       0.11083979 -0.08197084 0.10740198 0.0026095363
000260 86 ab 17 bd 5c 9b a5 bd f6 53 95 bd 0f d2 01 3e
       -0.037028812 -0.08086273 -0.07291405 0.12677787
000270 66 d0 36 bd ec da b2 3d de 61 4b bd 48 82 d7 bd
       -0.044632338 0.08733162 -0.04965388 -0.10522896
000280 b6 2e 24 bc fd 1c 34 3c f6 25 18 3d 39 a6 9a bd
       -0.010020902 0.0109932395 0.037145577 -0.07551236
000290 f9 a1 fc 3b 52 59 fc 3a 66 d5 85 3d 3b 80 ed bd
       0.0077097383 0.0019252694 0.06534843 -0.11596724
0002a0 9b cb 90 3d ec e0 33 3d cb 04 55 3d cd d8 be 3d
       0.07070085 0.043915674 0.052006524 0.09318695
0002b0 17 89 69 3d 6c 4a 5e bd ef 08 87 bd ae b7 8d bd
       0.057015505 -0.054270193 -0.06593501 -0.069198
0002c0 05 6f 9f bb 35 14 f8 3d ed 1d a6 bd f9 81 e5 3b
       -0.0048655295 0.12113229 -0.08111177 0.0070040193
0002d0 ec 44 d9 bd 20 1c f1 3d d4 2e a5 bc de 41 f3 bd
       -0.10608849 0.117729425 -0.020163931 -0.118777975
0002e0 6b da 2b 3d 6c 15 d5 bd c8 69 6f bb 42 2d e2 3d
       0.041956346 -0.104044765 -0.0036531556 0.110437885
0002f0 2b 36 7f 3d 2e 53 a2 3d c1 65 f9 3d d2 f7 6c 3c
       0.062307518 0.079260215 0.12177611 0.014463382
000300 db 71 c3 3d 62 6b 1d bd 9b 1a 59 3d 1a 55 06 3d
       0.095432006 -0.038432486 0.05300389 0.032796003
000310 18 51 d0 bd 8f 04 bf 3d c6 6c dc 3c d7 cc a4 3c
       -0.101717174 0.09327041 0.026907336 0.020117206
000320 fd 92 d4 bd 7a 4c e4 bd a5 bc c6 3d be 56 c8 3d
       -0.10379598 -0.11147399 0.0970395 0.0978217
000330 ab a6 94 bd 95 ce 4b 3c b3 22 a0 3d b4 4e 50 bd
       -0.07258352 0.01243939 0.07819118 -0.050856307
000340 ae fe 8f bb b3 97 15 bd 8a bc 43 3b 7d e0 47 3d
       -0.004394374 -0.036521625 0.0029867017 0.048798073
000350 c5 a1 bc bd 49 bc be 3d db 27 99 bd a4 9a b3 3d
       -0.092105426 0.09313256 -0.07478305 0.0876973
000360 b0 b2 49 3d c1 62 27 bd 63 f0 d8 bd 24 f7 48 b9
       0.049242675 -0.040865663 -0.10592725 -0.00019165553
000370 73 62 b0 bd 5f 14 89 bd 1f 2d 07 3e 5d e3 18 bd
       -0.08612528 -0.066933386 0.13200806 -0.037326206
000380 31 35 6b bd ff aa b0 bd e8 6c db bc 34 97 8d bd
       -0.057423774 -0.08626365 -0.026785329 -0.06913605
000390 5c b9 71 bd cf 2a e6 bd 5f ce c6 3d 00 fb f8 ba
       -0.059014663 -0.11238634 0.09707331 -0.0018995702
0003a0 a1 88 72 bd 02 69 0a 3c cd f7 a3 bd 42 16 8c bd
       -0.05921233 0.008447887 -0.080062486 -0.06840183
0003b0 c2 74 d6 3c 45 f5 08 3d 23 e1 6b bd 4d 0d 2c bc
       0.026178721 0.033437032 -0.057587754 -0.010501218
0003c0 0e d1 24 bc 8b 19 ce 3d be 62 90 3d f5 7a 05 3e
       -0.010059608 0.10063466 0.070500836 0.13035186
0003d0 01 4c 96 3d 4d 9b 67 bd 8a 5c 85 bd e0 da 98 bc
       0.07338715 -0.05654459 -0.06511791 -0.018659055
0003e0 1a e1 ab bd 73 ee 61 bc 53 e5 80 3c bf c6 e6 bd
       -0.08392544 -0.013789761 0.01573435 -0.112683766
0003f0 ec 87 75 bd 6c 2f df bd 52 2c bd ba 18 df c7 bc
       -0.05994408 -0.10897717 -0.0014432764 -0.024398372

lstm.weight_ih_l1 f4 [256, 64]
000000 b3 b5 af 3d 96 41 e0 bd af 65 fd bc 03 e0 ea bd
       0.08579578 -0.109500095 -0.030932276 -0.11468508
000010 d5 9e e5 3d 31 db 07 3d 3b 69 0b 3d e2 70 22 3b
       0.112119354 0.03316802 0.034035902 0.0024786522
000020 4e 63 e4 3d bd 9b 96 bd ba d1 a7 bb 2d 23 e5 bd
       0.11151753 -0.073539235 -0.005121437 -0.1118835
000030 fd 4e 81 3d b3 99 ca bd ef 85 2d 3d 5e cc 22 bc
       0.06313894 -0.09892597 0.042364057 -0.00993642
000040 d6 ab b3 3d 0a 63 53 bd dc ea 00 3e 9c e1 aa 3d
       0.087730095 -0.051608123 0.12589592 0.08343813
000050 ea ae 4e bd a7 41 3a bd b1 9c cc 3c c9 ef 8d bd
       -0.05045978 -0.045472767 0.02497706 -0.06930501
000060 a6 cb c9 bd ef fc b9 3b 19 96 8f bd 8a 4d e1 bd
       -0.09853296 0.005675904 -0.07011051 -0.110011175
000070 d1 a8 b2 3c 41 25 a9 3d a4 e7 b9 bd de 05 b4 3c
       0.021809014 0.08259059 -0.09077385 0.021975454
000080 6c 73 ba 3d f5 f1 db bd 2b 65 d4 3d a9 e0 14 bd
       0.09104046 -0.10739509 0.10370859 -0.036347065
000090 f5 c8 ef 3d a5 47 ab bd bf 98 01 3e dc 17 eb bd
       0.117082514 -0.083632745 0.12655924 -0.1147916
0000a0 18 2a 4e 3d d1 b0 07 3c 9f 5b 34 3d 1e 22 78 bd
       0.050333112 0.008281902 0.04403269 -0.06057941
0000b0 8f ce 97 bb b0 70 40 bd e3 17 67 bc 1e 23 5c 3d
       -0.004632778 -0.046982467 -0.014104816 0.053744428
0000c0 60 53 ed 3d 46 72 87 3d ab 2d 2d bd ed d9 0f 3d
       0.11588168 0.06613593 -0.04227988 0.03511994
0000d0 ff 0b b4 3d ec ee 71 3d 28 bd 03 3e 94 10 f0 bd
       0.087913506 0.059065744 0.12865126 -0.11721912
0000e0 d7 2f 88 bd 57 73 b1 3c ab d3 df bd 4f 08 c7 bd
       -0.0664975 0.021661444 -0.10929044 -0.097183816
0000f0 20 f7 bb 3d 31 eb 12 3d 6e 82 1d 3c 7e 64 86 bd
       0.09177995 0.035868827 0.009613616 -0.06562136
000100 54 62 01 3e f2 e7 20 bd 8f 6e 1d 3d bf 83 ac bd
       0.12635165 -0.0392837 0.038435515 -0.08423566
000110 54 08 e1 bd 64 44 88 bc 8c 76 25 3d f3 8d 96 3c
       -0.109879166 -0.016634174 0.04039626 0.018378234
000120 9a 73 88 bd c9 4b f5 bd b4 01 4d bb 3e e4 7f 3d
       -0.06662674 -0.119773455 -0.0031281533 0.062473528
000130 ff 46 c7 bd a0 bf c3 3c 96 25 a8 3d 4d f9 b7 bd
       -0.09730338 0.023895085 0.08210294 -0.08983097
000140 c7 dd 91 3c 8b 4d eb bd ea c2 63 3d 07 04 61 bd
       0.017805947 -0.114893995 0.055605806 -0.05493548
000150 64 cb 92 3d e0 19 88 bb 33 82 ca bd b8 83 fc 3d
       0.071677 -0.004153475 -0.09888115 0.12329811
000160 c8 97 00 3e 64 a6 8e bd 3f 70 ec 3d bc 1b 88 3d
       0.125579 -0.0696533 0.11544847 0.06645915
000170 09 3e 5c bd 98 db 98 3d b6 d4 40 bd 74 74 82 3d
       -0.0537701 0.07463759 -0.047077857 0.06369868
000180 65 d4 c6 3a 4f b9 07 bd bd 20 bf 3c 97 ca c5 bd
       0.00151695 -0.03313571 0.02333104 -0.096577816
000190 e6 41 ac bb b4 65 e1 3c c5 a9 c5 bd 69 09 1e bd
       -0.005256879 0.027514316 -0.096515216 -0.038583193
0001a0 e8 a8 fb bd 2c b3 13 3d 68 aa 30 3c 1e 11 26 3d
       -0.12288076 0.036059543 0.0107828155 0.040543668
0001b0 cc 20 6e bb 19 96 ad bb 33 a7 de 3d d1 37 d3 bd
       -0.0036335466 -0.005297434 0.108717345 -0.103133805
0001c0 fe e5 77 bd a7 ae ba bd ab 76 3f bd 8b 1f e1 bd
       -0.060522072 -0.091153435 -0.04674403 -0.109923445
0001d0 55 bf dc 3c a0 59 94 3c b3 fb 7b 3c 2f 81 ca bd
       0.026946703 0.018109143 0.015379834 -0.09887921
0001e0 01 fd 64 bd 60 ea f9 3d 84 2a ac bd f4 9a af 3b
       -0.055905346 0.122029066 -0.08406547 0.005359048
0001f0 83 89 c9 3d 8f 96 00 3e 50 9c 08 3d da 9d 4f 3c
       0.098406814 0.12557434 0.033352196 0.012671912
000200 07 dd 35 bd aa af 5d bd 67 fc 42 3d 44 f0 c2 bd
       -0.04440024 -0.054122604 0.04760399 -0.09518483
000210 1d eb 24 3d 5b 32 f6 bd 43 67 1d 3d 9f 5d ee bd
       0.040263284 -0.12021323 0.038428556 -0.116389506
000220 1e 99 be bd e3 5e 53 3d e5 f0 5e bd 0a 58 74 3b
       -0.093065485 0.051604163 -0.054428954 0.003728392
000230 ca 55 cd 3c 78 1f c1 bd 88 23 89 bd 9f 43 c1 3d
       0.025065321 -0.0942983 -0.0669623 0.09436726
000240 52 a7 37 bd 08 3a e4 bc b1 ae c5 bd 75 c7 28 3d
       -0.044837303 -0.027859703 -0.0965246 0.041205842
000250 3a 4a 43 3d 8b 87 59 3c fc a9 c8 3c 62 96 b7 3d
       0.04767821 0.013276945 0.024495117 0.0896423
000260 7d 33 af 3d 6d 0f db 3d a9 26 af 3d 8c 91 ab bd
       0.085547425 0.106963016 0.08552296 -0.0837737
000270 53 e2 22 3c 5a 68 96 3a f9 10 20 3d d7 70 de bb
       0.009941655 0.0011475191 0.039078686 -0.006788354
000280 5b 60 d4 bd e4 56 f6 3d b9 49 2b bc 08 84 23 bc
       -0.10369941 0.12028292 -0.010454589 -0.009980209
000290 97 a2 4a 3d 1e e8 1b 3d ea f0 04 3d fb a7 44 3d
       0.049471464 0.03806316 0.032456316 0.04801176
0002a0 26 62 ba bd d6 bf f4 bd 80 55 5a 3d f1 68 fb bd
       -0.091007516 -0.11950652 0.053304195 -0.12275875
0002b0 59 3e 78 bd 16 ad 10 3d dc 46 89 3c 9f f4 c4 3d
       -0.060606334 0.035321318 0.016757421 0.0961697
0002c0 28 28 18 bd 44 96 fa 3d c9 b9 9e 3c d0 fa b5 3d
       -0.03714767 0.12235692 0.019375699 0.08885729
0002d0 f5 11 e9 bd 85 97 c7 bc e2 bb 7a bd aa e9 84 3c
       -0.11380378 -0.024364242 -0.061214335 0.016224701
0002e0 30 4a 9e bd 90 7e de 3d 0f 97 ac 3d ed 7f ac bd
       -0.07728994 0.10863984 0.0842725 -0.084228374
0002f0 aa a1 f0 3d 78 cf 46 bd 1c fe 36 bd 46 88 f1 3d
       0.11749585 -0.0485377 -0.04467593 0.1179357
000300 f8 78 45 bd 7c 5e 4d bc f0 58 3c 3c da 9e a4 3d
       -0.048211068 -0.012534734 0.011495814 0.08038111
000310 d6 6b 44 bd b5 5c ec 3d 1d 3d 4b bd 5c 30 d5 3d
       -0.047954403 0.1154112 -0.04961883 0.104096144
000320 8b 8e 5a bc 46 2e c2 3b b9 49 9e bc 43 12 82 bd
       -0.013339649 0.0059259264 -0.019322263 -0.063511394
000330 70 5f a1 bc 40 de c8 bd 44 8e c0 bc 5c 8b 50 bd
       -0.019698828 -0.09808016 -0.023505338 -0.050914153
000340 88 14 91 bd 4a 61 0e bc 66 83 c3 bd aa e4 76 3d
       -0.07083994 -0.008690188 -0.09546547 0.060276665
000350 70 4a a7 3d b9 b2 cf bd 9e b8 d1 3d ba 86 6d 3d
       0.08168495 -0.101415105 0.10240291 0.057989813
000360 6d b7 94 3d aa 9f 00 bd 1a 09 ca bc ce 49 99 bd
       0.07261548 -0.031402268 -0.024662543 -0.0748478
000370 bb 19 d0 3d 9a 95 cf bd ca 66 8b bd 7a 31 72 bd
       0.10161158 -0.10135956 -0.06806715 -0.059129216
000380 a2 63 a4 3c 6d 26 3c 3d 1c 6f e7 3d 43 18 91 3d
       0.02006704 0.045935083 0.11300489 0.07084706
000390 af ed bc 3d 69 e7 2b 3d d1 8d b5 bd 8b 9d 70 3c
       0.09225022 0.041968737 -0.0886494 0.014685999
0003a0 50 b0 95 bd ac 3c 2f bd 21 dd 2c 3c 21 9e ec 3d
       -0.073090196 -0.04278247 0.010550768 0.11553598
0003b0 95 0c c3 bd ca fd ad 3d 66 ed e8 3d 21 b1 7a 3c
       -0.09523884 0.08495672 0.11373405 0.01530102
0003c0 eb aa 9b 3d dd c1 f0 bc 20 4b 12 3d 42 43 30 bd
       0.076009594 -0.029389316 0.035716176 -0.043032892
0003d0 03 2c 22 bc 43 8e 00 3e 1d 73 96 3c a5 1d 38 3d
       -0.0098981885 0.12554269 0.018365437 0.044950146
0003e0 95 ae b8 bd 24 22 f0 3b 52 42 8c 3d 77 e6 4e bd
       -0.09017674 0.0073282886 0.06848587 -0.050512757
0003f0 da 79 82 bc 69 80 ef bd 1f 8e 18 bd 7b 45 8d bd
       -0.015927244 -0.11694414 -0.037244912 -0.06898018

lstm.weight_hh_l1 f4 [256, 64]
000000 e6 2c d8 3d 7c a6 9e bc c3 c6 b5 3c 4f ed 9a bd
       0.10555439 -0.019366495 0.022189504 -0.07564794
000010 16 7a 78 bd a8 07 b2 39 d1 99 ee 3d 2f 92 31 bd
       -0.060663305 0.0003395651 0.11650432 -0.043352302
000020 db b3 29 bd a6 ef 0b 3d a7 f1 35 3c 20 46 d4 bd
       -0.04143129 0.034164093 0.011104978 -0.10364938
000030 cb 81 c7 bc f3 f4 f7 bc 0f 22 f0 bd 8d 03 0e 3d
       -0.024353882 -0.030268168 -0.11725246 0.034671355
000040 cd 38 c3 bd be ca 56 bd ed 34 1b bd 58 38 c3 3d
       -0.09532318 -0.052439444 -0.03789227 0.09532231
000050 ae 7f df 3c 3e 1d e8 3d 81 00 37 bd b6 1f a3 3d
       0.027282562 0.113337025 -0.044678215 0.07965033
000060 1b bc 21 bd 31 d3 2b bd c8 dc f9 bc ef e6 d6 bd
       -0.039486032 -0.041949455 -0.030500785 -0.10493266
000070 57 64 81 3d 77 7a 6c 3d a6 a4 c3 3d 67 cc da 3d
       0.063179664 0.05773398 0.095528886 0.10683518
000080 de 74 84 bd d5 d5 d6 bd b9 d4 a5 3c 20 48 53 3c
       -0.06467603 -0.10490004 0.020243036 0.012895614
000090 03 dd 36 3d 1c 36 c8 3c 0d 60 35 bd d1 3a c5 3d
       0.044644367 0.024439864 -0.044281054 0.09630359
0000a0 f4 41 1b 3d e0 58 12 bd a4 3b f9 bd 18 50 b4 3c
       0.037904695 -0.03572929 -0.12169579 0.022010848
0000b0 b2 70 84 3a e1 6d 99 3d 5e a0 76 bd 79 47 68 bd
       0.0010104387 0.07491661 -0.06021153 -0.056708787
0000c0 ed 49 cf bd 12 04 c1 bd 0e 73 bb bd 2a 20 e2 3d
       -0.10121522 -0.094246045 -0.09152804 0.11041291
0000d0 a9 03 80 bd 6c 5d 95 bd 26 3e d9 3d cd 33 b6 ba
       -0.06250698 -0.072932094 0.10607557 -0.0013900936
0000e0 65 0a c0 3d b0 19 9b 3d 10 6a 2e bc 4f ca 91 3b
       0.093769826 0.07573259 -0.010645404 0.004449166
0000f0 0e 37 ae bd c3 e2 ee 3d dc 8e ca bd 09 8c 9f 3b
       -0.085065946 0.11664345 -0.098905295 0.0048689884
000100 3b 90 11 3d 42 1d 50 3c d8 ec 6d bd b6 c2 05 be
       0.03553794 0.012702288 -0.0580872 -0.13062558
000110 d3 e9 c6 bc 84 d7 5a bc 15 ff 23 3d c2 ba 40 bd
       -0.024281418 -0.013357047 0.040038187 -0.047053106
000120 0d a6 a4 3d 25 d2 ae 3d e6 40 a7 3d 06 16 80 3d
       0.08039484 0.08536176 0.08166675 0.06254201
000130 20 1b b5 3d 96 ac 25 bc 6f 21 5d 3c 5f c8 53 bd
       0.08843064 -0.0101119485 0.013496741 -0.05170476
000140 64 a1 a9 3d 1e 83 b2 bc 2b 66 ac bc 07 c1 cf bd
       0.08282736 -0.021791037 -0.021044811 -0.10144239
000150 ef 87 0c bd c6 0c d9 bd cb 06 01 be 31 aa ea bd
       -0.034309324 -0.105981395 -0.12600248 -0.11458243
000160 58 79 b0 bd 99 5f f6 bd b4 ad 76 3d 71 ca 1c 3d
       -0.086168945 -0.120299526 0.06022425 0.038279
000170 d8 a3 01 bd ed 52 6b 3d 4d 8a ed bd 49 49 c4 3d
       -0.031650394 0.05745213 -0.115986444 0.095842905
000180 f0 d6 a5 bd 83 48 dc 3d a6 36 34 3d a5 6c d9 3d
       -0.08097637 0.10756018 0.04399743 0.106164254
000190 57 fe 5b 3d eb 46 3b 3d 08 94 9d bd 6e 64 f5 3c
       0.053709354 0.04572193 -0.0769425 0.029955115
0001a0 50 c5 84 3c 56 8f bd bd 12 5b d4 3c e5 f0 9d bd
       0.016207367 -0.09255855 0.025922332 -0.077119626
0001b0 12 28 bc bd ad 4d ab bd 6c 91 f7 bd 43 ad 33 bd
       -0.0918733 -0.08364425 -0.12088284 -0.043866407
0001c0 7a 98 61 bd bd aa b0 bd 43 2a 1b 3d d5 8d 58 3d
       -0.055077054 -0.08626316 0.0378821 0.052869637
0001d0 19 68 49 3d 4d 40 4d bd 31 4b cc bd 2b ea de 3d
       0.04917154 -0.05011015 -0.09975279 0.10884508
0001e0 5b 93 42 bd 38 d3 90 bd 88 3d d5 3d a9 89 e5 bd
       -0.04750381 -0.07071537 0.10412127 -0.11207897
0001f0 87 f4 ec bc 6d c1 9d bd 00 75 6b bd bf 35 b4 3c
       -0.028925193 -0.07702909 -0.057484627 0.021998284
000200 9d d1 50 3d b5 cb d4 3d 2f a7 6e 3d 0c 1c 54 3d
       0.050981153 0.103904165 0.058264907 0.05178456
000210 98 ec d8 3d 7d 86 76 bd c6 fe 00 3d 20 f1 4c 3d
       0.10592002 -0.06018685 0.03149297 0.050034642
000220 1c ca dd 3d 17 e8 6f 3d 43 7a e1 bd d3 1e 11 bd
       0.10829565 0.058570947 -0.11009648 -0.035429787
000230 ad a5 00 be c9 b1 e3 3d 75 56 f1 bd 96 2d 3d bb
       -0.125632 0.11117894 -0.117840685 -0.0028866283
000240 6e 8d ac bd 6f bf b8 3d a9 1a dc 3c eb 1a 9c bd
       -0.08425413 0.09020888 0.026868181 -0.07622322
000250 20 03 ee 3d f2 1f a4 3d 45 c0 c9 3d b6 bd 85 3d
       0.1162169 0.080139056 0.09851126 0.06530325
000260 da 36 bd 3d 00 ae bc bc 0c 95 da bd 3e cb aa bc
       0.09238978 -0.023032188 -0.1067296 -0.020848867
000270 a5 7d ad bd 5f 1d a9 bd c7 a6 00 be 8e 77 95 bc
       -0.084712304 -0.08257555 -0.1256362 -0.018245485
000280 9d e1 0f 3b a7 fd d2 bd 4d c9 b2 3d 2a 46 06 3d
       0.0021954544 -0.103022866 0.08729801 0.032781757
000290 aa 4c e7 3d 1e 02 5f 3c 0b 41 ef bd c0 2c fe bd
       0.112939194 0.013611345 -0.11682328 -0.12410879
0002a0 49 6e ee 3c e8 56 84 bc 4c e1 f4 3d 11 12 0d 3d
       0.029105322 -0.016154721 0.119570345 0.034441058
0002b0 3c e1 26 bd 5b 8a 8e bc 8d 4b 56 3c 93 f6 88 3d
       -0.040742144 -0.017399957 0.013079536 0.06687655
0002c0 e4 05 e3 bd 5f 29 c2 bd df 5a fd 3d 37 67 b4 3d
       -0.11085108 -0.09480547 0.12370848 0.08808749
0002d0 3a 71 29 3d 01 67 b2 bd 14 df eb 3d fb 66 40 3d
       0.041367747 -0.08711053 0.11517158 0.04697321
0002e0 b2 9b e3 3d 40 ff 66 bc f0 cf a8 bd b6 4d 7c bc
       0.11113681 -0.014098942 -0.08242786 -0.015399387
0002f0 da 45 e1 bd e8 90 eb bd 2c 6a f9 bd b4 12 9f bc
       -0.10999651 -0.11502248 -0.12178454 -0.019418098
000300 1f 08 9d 3d d8 55 35 bc 56 14 4e bd 79 9d 74 bd
       0.076675646 -0.01106783 -0.050312363 -0.05972049
000310 2d c1 c0 bd fc 88 20 3c 3f fe ea bd 9f 5e 1c 3d
       -0.09411845 0.009798285 -0.11474275 0.038176175
000320 99 7f ea bd ac c1 86 3d c2 32 57 3d 23 25 15 bc
       -0.114501186 0.06579909 0.05253864 -0.009103092
000330 c6 26 9c bd fc e6 e6 bd 5e 29 a0 bd ac b7 be 3d
       -0.07624583 -0.112745255 -0.0782039 0.093123764
000340 71 42 49 bd 2a 1e f8 3d a2 27 15 bd b8 63 e7 3d
       -0.04913563 0.12115128 -0.03641475 0.11298317
000350 b3 e3 c8 3d eb c3 b5 bd 69 5b c7 3d 32 39 d4 3d
       0.09809055 -0.08875259 0.09734232 0.10362472
000360 56 61 21 3c de bb 7e bd 95 43 9d bd 2b 88 9c bd
       0.009849867 -0.062190883 -0.07678906 -0.076431595
000370 f9 c1 b4 3c bf f5 d9 3d 43 9b fa bd 9b 02 49 bd
       0.02206515 0.106425755 -0.12236645 -0.04907475
000380 2c a2 b9 3d 49 82 a4 bd d9 23 7a 3d 8b 9e 63 bd
       0.09064135 -0.080326624 0.061069343 -0.05557112
000390 fe d9 67 bc 8f c6 1a bd be 74 06 3d cf aa 71 3d
       -0.0141510945 -0.037787016 0.032826178 0.059000786
0003a0 7a 43 46 bd 0e 6a f6 bd 56 81 5e 3c 61 43 f0 bc
       -0.048404194 -0.12031947 0.013580641 -0.029329004
0003b0 2c 78 9c 3d 85 08 4e 3a 83 dd 2e bd 3a 57 c4 3d
       0.076401085 0.0007859546 -0.04269172 0.0958695
0003c0 f8 2d 01 3e 61 40 1a 3d ed 79 a0 bd e8 41 16 bd
       0.12615192 0.037659053 -0.078357555 -0.036683947
0003d0 91 b5 8e bd cf 71 85 bd 9f b6 9d bd ab c3 eb bd
       -0.06968225 -0.06515848 -0.07700848 -0.1151193
0003e0 e5 8c 2b bd 15 5a 8f 3c 3e 2e b4 3d aa 5d da 3d
       -0.041882414 0.01749901 0.087978825 0.10662396
0003f0 e6 a2 ec 3b 56 e5 c2 bc 79 84 c2 3d 2e 3e 80 3d
       0.0072215674 -0.023790997 0.094979234 0.0626186

lstm.bias_ih_l1 f4 [256]
000000 ed 65 f1 3d 4a 9e 83 bd f1 9c 73 3c c1 a0 84 3d
       0.11787019 -0.064266756 0.014868961 0.06475974
000010 cf 96 93 bb a2 48 b7 3d 01 86 ba 3c 1a d1 cf 3d
       -0.004504062 0.089494005 0.022768976 0.10147305
000020 d9 18 b2 3d 35 6c 87 bc ac d4 57 bd 81 87 bf bd
       0.086961456 -0.01653109 -0.052693054 -0.09352017
000030 8e 4a c3 bc ef e9 5b 3d b8 c4 3c bd 8a ca 41 3d
       -0.023839261 0.053689893 -0.046086043 0.047312297
000040 a7 97 d2 3c 54 b8 90 3d 05 3e df bd a6 ce f9 3d
       0.02570708 0.07066408 -0.10900501 0.12197618
000050 a6 ca 5e 3d 4c d7 98 3c 8c 27 b1 3d 69 1d 15 bd
       0.05439248 0.018657349 0.08650121 -0.036405
000060 7b 9d c1 3c e0 a6 c0 bd 16 64 02 3e 9f f2 dd 3d
       0.023634663 -0.09406829 0.12733492 0.10837292
000070 f5 c1 f4 bc c2 40 c3 3b a2 96 d3 bd 69 dd 00 3e
       -0.029877642 0.0059586475 -0.10331465 0.12584461
000080 a2 62 16 bd d3 49 26 bd ab e3 3f bd 20 36 fd 3d
       -0.036715157 -0.040597748 -0.04684798 0.12363839
000090 54 25 88 3c f2 6e ef 3d 2b f6 64 3d 8e 22 f7 3d
       0.016619362 0.11691083 0.055898827 0.12067138
0000a0 9e 80 19 bc f2 0e 96 bd b9 24 df bd 56 06 fe 3d
       -0.009369044 -0.07327069 -0.10895676 0.12403552
0000b0 7e cc a1 bd 2d 0d ca bc 1a 61 01 be c4 5c c3 bd
       -0.07900332 -0.024664486 -0.12634698 -0.09539178
0000c0 80 df 59 3d 20 fa 8e 3c f9 0c fb 3d 69 26 25 bd
       0.05319166 0.017453253 0.12258334 -0.040319834
0000d0 72 0f 16 bd 8b 97 75 3c 40 ec 94 bd db 1d 58 bd
       -0.036635824 0.014989744 -0.072716236 -0.052762847
0000e0 32 40 43 3d 7f 88 65 bd 73 be 54 3d c7 48 e6 3d
       0.047668643 -0.056038376 0.05193944 0.1124435
0000f0 45 35 e8 3d b0 b3 a5 bd 3b ea ee 3d 1d 8d 16 3d
       0.11338285 -0.08090913 0.1166577 0.03675567
000100 80 99 58 3c 62 05 a4 3d 0d fa c0 bd c0 32 01 3e
       0.013220191 0.08008839 -0.094226934 0.12617016
000110 55 20 d6 bd 24 e3 69 3d f9 4f e7 3d 67 c7 95 3d
       -0.104553856 0.057101384 0.112945504 0.073134236
000120 d1 35 e7 3d f0 52 0b 3c a2 13 07 be 78 cb 09 3b
       0.112895615 0.008503661 -0.13191083 0.0021025818
000130 bb aa 8f bd 94 c0 ac 3d ca 75 e5 bd da d2 18 bd
       -0.07014986 0.08435169 -0.11204107 -0.03731046
000140 48 61 78 3d 28 e4 95 bd e8 01 f1 bd 57 93 ed bd
       0.06063965 -0.07318908 -0.11767942 -0.116003685
000150 c8 05 47 bc 4d 49 eb 3d 4f ec c5 3c 30 b8 8b 3d
       -0.012147374 0.114885904 0.024160532 0.0682224
000160 4d 79 f0 3d 74 f6 7e 3d 59 6c f4 3d 3c 94 40 bc
       0.11741886 0.062246755 0.11934728 -0.011754092
000170 b3 2f 36 3d e0 f5 f2 3d 9c 77 a0 3a 67 0f de bd
       0.044479083 0.11863303 0.0012242678 -0.108427815
000180 6c bd 22 3d e6 3b 7b 3c 70 c2 cc bd db a6 aa 3c
       0.039731428 0.015334105 -0.099980235 0.020831516
000190 28 9b 38 3d a1 58 c6 bc a6 59 a2 bd 93 6f 78 3d
       0.045069844 -0.024212183 -0.07927255 0.06065328
0001a0 85 f6 43 3d 6a 84 38 3d bc c3 ac 3d 3c 41 8a 3d
       0.04784252 0.045048155 0.08435771 0.06750724
0001b0 f4 cd 3c 3d 07 c1 ed 3d 16 f0 ce 3d 9b b4 fd bd
       0.04609485 0.11609083 0.101043865 -0.123879634
0001c0 0f 79 e6 bd 1a 2b c0 bd ef a6 ad 3d 05 e0 36 bd
       -0.11253559 -0.09383221 0.08479106 -0.044647235
0001d0 b8 63 8b bc 5b 3b 19 bd b6 c4 90 3b 2f 70 8a 3d
       -0.017015323 -0.03741012 0.004417981 0.067596786
0001e0 32 cb 40 bc 46 ea 94 3d c6 ef cf bd 18 21 3a 3c
       -0.011767196 0.072712466 -0.10153155 0.011360429
0001f0 4a 1f 38 bd db 9b 51 3d c5 63 21 3d c5 db 37 bc
       -0.044951715 0.051174026 0.03940179 -0.011221831
000200 9c 20 39 bd 83 be 97 bc 89 20 69 3d 14 a2 b7 3d
       -0.045197114 -0.01852346 0.056915794 0.08966461
000210 03 39 99 bc e7 b3 33 bd 4d 72 56 bd d8 21 0d bd
       -0.018703943 -0.04387274 -0.0523551 -0.034456104
000220 65 da df 3d a3 1d 4a 3c 2e 94 57 bd 3f da bb bc
       0.10930327 0.0123361675 -0.05263155 -0.022931216
000230 81 f1 ef bc f5 3a dc bd f8 69 73 3d 47 13 4c 3d
       -0.029289963 -0.10753433 0.05942723 0.04982307
000240 e4 a8 c8 3c 94 80 62 3d 47 a8 c1 bd 32 5b 46 bd
       0.024494596 0.055298403 -0.094559245 -0.048426814
000250 25 46 2c bd be bc 2e bd 72 11 27 bd d5 7a 76 bd
       -0.042059083 -0.042660467 -0.04078812 -0.060175736
000260 e6 07 a3 bc 6b 92 10 3c c5 ab 21 bd d6 ba 22 bc
       -0.019901227 0.008823971 -0.039470453 -0.0099322405
000270 1c 6f 13 3d d9 7a 50 3d 41 eb 15 bd 7a c2 5f 3d
       0.035994634 0.050898407 -0.03660131 0.054628827
000280 ee a9 87 3d 8e 1c 5d bd 33 7d 4a 3d 55 55 f0 3d
       0.066242084 -0.05398231 0.049435806 0.11735026
000290 09 79 8d bd fe bb 3b bb 02 b4 99 bd 90 d4 82 3d
       -0.06907851 -0.0028645988 -0.07505037 0.06388199
0002a0 1a fa 52 bd 8f bd 66 bd 51 87 07 3e 60 40 b9 bd
       -0.051508047 -0.05633312 0.13235213 -0.09045482
0002b0 80 59 6a bc 32 e3 0c 3d 66 8e 97 3c 35 b7 a8 bc
       -0.014303565 0.034396358 0.018500518 -0.020595172
0002c0 a6 c6 80 bd 72 6f fe 3d f2 c0 b5 3c 30 f2 e8 bc
       -0.06287889 0.124236 0.02218673 -0.028435796
0002d0 66 91 8e bd 2a 72 3a bd 84 3e db bc 24 ab 8f bc
       -0.06961326 -0.04551903 -0.026763208 -0.01753766
0002e0 6c 04 d3 bd 1f ce f3 3d 44 2a 2a bd 89 c2 9b bd
       -0.10303578 0.11904549 -0.041544214 -0.07605464
0002f0 aa 0a 8b bd ac 9c 96 3c 89 fd 9f 3b 77 4b c1 3d
       -0.067891434 0.018385254 0.0048825187 0.09438222
000300 c4 65 ae bc 51 10 46 bd e2 cf 93 bd 10 9f 58 bc
       -0.02128876 -0.048355404 -0.07217385 -0.013221517
000310 0f 25 fa bc 7a 42 c5 bd d4 e2 07 3e bd 42 8e bd
       -0.030535249 -0.0963182 0.13270122 -0.06946323
000320 3e 1c b1 bd 2f f5 3c bd 60 e4 78 3d 49 b5 f2 3c
       -0.08647965 -0.046132263 0.06076467 0.02962746
000330 50 57 b1 bc 2d 39 58 bd f5 00 23 3d da 66 a7 3d
       -0.02164808 -0.052788902 0.039795835 0.08173914
000340 17 6b 19 bc 0d e8 81 bd c9 ae fa bc 4e f2 8d bd
       -0.009363911 -0.06343088 -0.030600922 -0.069309816
000350 10 58 ef bb fe 1d 27 bd c7 33 41 bb 58 f9 05 3e
       -0.007304199 -0.040800087 -0.0029480325 0.13083398
000360 99 27 bf bd 0f fb 91 3d e5 69 3a 3c 7c f8 eb 3d
       -0.093337245 0.07127964 0.011377786 0.11522004
000370 c7 b4 ea bd 78 fc bf 3d fe 32 e6 3d b2 90 e8 bd
       -0.11460262 0.093743265 0.11240195 -0.113557234
000380 02 e2 d1 3b fd ed 7a bd 13 be d7 3d eb 63 91 3d
       0.006405116 -0.06126212 0.10534301 0.07099136
000390 bf 85 a7 bc be 61 fe bc 81 51 08 3e dd 47 47 3d
       -0.020449517 -0.031052466 0.13312341 0.04865252
0003a0 a4 b9 39 3d 36 6f 75 bd be a4 e7 bd b9 d1 f3 3d
       0.045343056 -0.059920512 -0.11310719 0.11905236
0003b0 97 02 3b 3d de b3 9d bd 48 77 4f bd c5 a4 ce bd
       0.045656767 -0.077003226 -0.050650865 -0.10090021
0003c0 89 47 c2 3d 1e 82 0c bd f2 89 bc 3d 09 bc 49 bd
       0.094863005 -0.034303777 0.092059985 -0.04925159
0003d0 87 30 a6 bd 89 c5 e2 bd ac 62 09 3e 61 9f 01 bd
       -0.081147246 -0.11072833 0.13416547 -0.031646136
0003e0 d6 a5 bd bd a8 d8 ac 3c 02 ec ed 3d b0 67 12 3d
       -0.09260146 0.021099404 0.116172805 0.035743415
0003f0 d3 3c 91 bd 22 5c 89 3d ad 4f e6 bd ff 6f 37 3c
       -0.070916794 0.06707026 -0.11245666 0.011196136
