api/app/models/ASML.AS_lite.pt (torch, 218389 bytes, 10 tensors)

lstm.weight_ih_l0 f4 [256, 12]
0	0x3bf19c30	0.0073733553
1	0xbddfbdb1	-0.10924853
2	0xbde59503	-0.11210062
3	0xbc012e4c	-0.007884573
4	0xbdf6efc1	-0.12057448
5	0xbe16c875	-0.14724906
6	0xbd07b8d8	-0.033135265
7	0x3c3c4ec2	0.011493387
8	0xbdb50b61	-0.08840061
9	0xbe4772ec	-0.19477433
10	0xbbc7d05a	-0.0060978355
11	0x3bc2d9c0	0.005946368
12	0xbe0097d7	-0.12557922
13	0xbde92e9c	-0.11385843
14	0xbd8d7a51	-0.06908096
15	0xbe630304	-0.22169119
16	0x3e91c52b	0.2847074
17	0x3e5bed6d	0.2147729
18	0x3e056b08	0.1302911
19	0xbd0324a2	-0.032017358
20	0x3cbe9756	0.023265522
21	0x3e44f471	0.19233872
22	0xbe2b9bd8	-0.16758668
23	0xbe08f705	-0.1337548
24	0xbd9f3d23	-0.07775333
25	0x3be0f9c0	0.00686571
26	0xbe299d3b	-0.16563885
27	0xbd42fd0c	-0.047604606
28	0xbe628075	-0.22119315
29	0x3ea6a683	0.32548913
30	0x3e4f8665	0.20266111
31	0x3ded2235	0.1157879
32	0xbd3b80fc	-0.045777306
33	0x3ce4ce56	0.02793042
34	0xbd8cbcf7	-0.0687198
35	0xbe33d298	-0.17560804
36	0x3ca85d7e	0.020552393
37	0xbd997068	-0.07492143
38	0xbe0fce75	-0.14043601
39	0xbd267cab	-0.040646236
40	0xbe3d4f33	-0.18487243
41	0xbd1468b6	-0.036232673
42	0xbd60d278	-0.05488822
43	0x3d7f8cba	0.062390067
44	0x3d66c098	0.056336015
45	0x3da7e596	0.08198087
46	0xbe1d7bf7	-0.1537932
47	0x3b838f28	0.0040148683
48	0x3e1730e2	0.14764741
49	0xbc8b2ac9	-0.016988175
50	0x3dfd09f5	0.12355415
51	0x3e3f10e8	0.18658793
52	0x3dba8f1f	0.091093294
53	0xbd97a468	-0.07404405
54	0x3e2d59d1	0.16928793
55	0xbe8fdf1a	-0.280999
56	0x3e1cb54a	0.15303531
57	0xbdfba991	-0.122882016
58	0x3d8c9c41	0.068657406
59	0x3df62a8f	0.12019836
60	0x3ccd5751	0.02506605
61	0xbc39b89e	-0.01133552
62	0xbc9d1fb0	-0.019180149
63	0x3c9aff44	0.018920548
64	0xbe1e4446	-0.15455732
65	0x3c5b89ae	0.013399525
66	0x3d0777f1	0.03307337
67	0x3c49bbc1	0.01231283
68	0xbcc8acbf	-0.024496434
69	0xbda3d816	-0.080001995
70	0xbdbb3bd4	-0.09142271
71	0x3d4c4618	0.049871534
72	0x3bd15890	0.0063887313
73	0xbc81f3dc	-0.015863352
74	0x3d6588cc	0.056038663
75	0x3e0b2307	0.1358758
76	0x3d3cd20e	0.04609876
77	0xbd827cea	-0.06371482
78	0xbdcb52d4	-0.099279076
79	0xbd17ad1a	-0.037030317
80	0x3ddd43d9	0.108039565
81	0x3d3d60d2	0.046234913
82	0x3db23771	0.08701981
83	0x3d5d3f1c	0.054015264
84	0x3dd0fc43	0.10204365
85	0x3e159f65	0.14611585
86	0x3d811084	0.06301978
87	0x3d6433f8	0.055713624
88	0xbc8c2d9f	-0.017111598
89	0xbe1320bc	-0.14367956
90	0xbcad65e8	-0.021166757
91	0xbc88ce06	-0.016699802
92	0x3d6265c1	0.05527282
93	0x3cfb3e4c	0.030669354
94	0x3e299b1f	0.1656308
95	0x3e238d45	0.15971859
96	0xbd46745e	-0.04845082
97	0x3bd80fad	0.0065936656
98	0xbdf46307	-0.119329505
99	0x3c847d99	0.01617317
100	0xbca56675	-0.020190457
101	0x3e943047	0.28943083
102	0x3d963761	0.073347814
103	0xbcc7e1c5	-0.024399647
104	0xbce99417	-0.028512998
105	0xbd2fb580	-0.0428977
106	0xbe0225eb	-0.12709777
107	0xbd594248	-0.053041726
108	0x3d30e05a	0.04318271
109	0x3de2a7a0	0.11067128
110	0x3dc36d79	0.095423646
111	0x3d8732df	0.066015
112	0x3e415dd4	0.18883449
113	0xbd94f89a	-0.072739795
114	0x3d9eaf1a	0.07748242
115	0x3bc5b7f6	0.0060338927
116	0x3e2736dd	0.16329522
117	0x3de0778e	0.10960303
118	0x3d871168	0.06595117
119	0x3dda7b26	0.1066802
120	0xbd94a44c	-0.072579
121	0xbd204cd3	-0.039135765
122	0x3d297de2	0.041379817
123	0xbdaada14	-0.08342376
124	0x3d30c5e7	0.043157484
125	0x3cec55b0	0.028849453
126	0x3db1ff51	0.08691276
127	0xbded0c86	-0.11574654
128	0x3e22a18f	0.15881942
129	0x3e7273e3	0.2367702
130	0xbba29d59	-0.004962605
131	0xbd36e5fb	-0.04465292
132	0xbd756ca1	-0.05991805
133	0x3df06b6e	0.117392406
134	0xbd81bd46	-0.06334929
135	0x3e0f59ba	0.13999072
136	0x3df728a5	0.12068299
137	0xbd30ee0f	-0.04319578
138	0xbd4b1177	-0.049577203
139	0xbe3a3ed3	-0.18188028
140	0x3e52ff78	0.20605266
141	0x3c89dddf	0.01682943
142	0x3cf0062e	0.029299822
143	0x3da5793c	0.08079764
144	0x3dea0980	0.11427593
145	0xbc06ebe9	-0.008234956
146	0x3e0e2c9f	0.13884209
147	0xbd2e9279	-0.042620156
148	0xbdb402ab	-0.087895714
149	0x3dbcc09a	0.09216423
150	0x3d11bae0	0.03557861
151	0xbdec94bc	-0.11551806
152	0x3dfeec15	0.12447373
153	0xbd256d1d	-0.04038726
154	0x3e17cf35	0.14825137
155	0xbd6a0b8c	-0.05713992
156	0xbdc24eaa	-0.0948766
157	0xbdb763f6	-0.08954613
158	0xbd992a67	-0.07478791
159	0xbde2581e	-0.11051963
160	0xbd266260	-0.04062116
161	0x3d497743	0.049186002
162	0x3d3a6ae4	0.045512095
163	0xbcb83045	-0.022483954
164	0x3dd4e05e	0.10394357
165	0xbdd7f92a	-0.10545571
166	0xbc7aa44d	-0.015297961
167	0xbc817f46	-0.015807759
168	0x3d252af5	0.04032417
169	0xbb5f97b2	-0.0034117517
170	0x3dd16a89	0.10225398
171	0x3d0c93aa	0.03432051
172	0xbe02850f	-0.1274607
173	0x3b112d12	0.0022152108
174	0x3e181004	0.1484986
175	0xbc4be9e4	-0.012445901
176	0x3c890424	0.016725607
177	0x3ce618cc	0.028087996
178	0x3dbe84c2	0.09302665
179	0xbdb26a57	-0.08711689
180	0xbdfdc2b1	-0.1239065
181	0xbc7dbbac	-0.015486639
182	0xbe5879b6	-0.21140179
183	0xbe44ee2f	-0.19231485
184	0x3dd3b33c	0.103369206
185	0xbe8596a9	-0.26091507
186	0xbe8e7cfb	-0.27829728
187	0xbd69b70a	-0.057059325
188	0x3e4d64c6	0.20057973
189	0xbd7571d8	-0.059923023
190	0xbc421169	-0.011844971
191	0xbd7003b1	-0.05859727
192	0x3d1b991e	0.03798782
193	0xbda56350	-0.08075583
194	0x3c97825e	0.018494781
195	0xbbaac633	-0.0052116155
196	0xbe0d7d92	-0.13817433
197	0x3e07d650	0.13265347
198	0xbe1a8133	-0.15088348
199	0xbdb58dd1	-0.0886494
200	0x3d069764	0.03285922
201	0x3da0cb7d	0.07851312
202	0x3dbb4c7c	0.091454476
203	0x3d344010	0.044006407
204	0xbd52032f	-0.051272567
205	0xbddab3e4	-0.10678843
206	0xbe5062a3	-0.20350127
207	0xbdad3b80	-0.08458614
208	0xbca7d020	-0.020484984
209	0x3e4ccaae	0.19999191
210	0x3e2fe1f2	0.17176035
211	0xbd6ddd43	-0.05807234
212	0x3c01ebe6	0.007929778
213	0xbe3aad88	-0.1823026
214	0xbe5d9a0d	-0.21640797
215	0xbdc793e2	-0.09745003
216	0xbda4b692	-0.08042635
217	0x3b078e37	0.0020684132
218	0x3d88e334	0.066839606
219	0x3ae5848f	0.0017510819
220	0xbdfb4488	-0.12268931
221	0x3d561dd3	0.052274536
222	0x3e16f8e4	0.14743382
223	0x3c4f3724	0.012647424
224	0xbd7863f5	-0.0606422
225	0xbdd078bb	-0.101792775
226	0xbe26ea7e	-0.16300389
227	0xbe2f3932	-0.17111662
228	0xbd05c1bd	-0.032655466
229	0x3b89ff1e	0.0042113205
230	0x3de0c0c2	0.10974266
231	0xbd27667b	-0.040869217
232	0xbe4b0d13	-0.19829206
233	0x3dda905f	0.10672068
234	0x3e278390	0.16358781
235	0x3e9a95f0	0.30192518
236	0x3e3a1152	0.1817067
237	0xbcef85c2	-0.029238585
238	0x3d87f553	0.06638589
239	0x3d823768	0.06358224
240	0x3ce399ae	0.027783241
241	0x3d94a2d5	0.0725762
242	0xbd26e39e	-0.040744416
243	0xbe05852d	-0.13039084
244	0x3e286479	0.16444577
245	0x3d7d968c	0.06191115
246	0x3e114fb9	0.14190568
247	0xbd8b0805	-0.06788639
248	0xbd762ff2	-0.060104318
249	0x3c4486e6	0.011995053
250	0x3cd0bef6	0.025481682
251	0xbe29cbfe	-0.16581723
252	0xbb743227	-0.0037261338
253	0x3d0fa1d6	0.03506645
254	0xbe0fa6b4	-0.14028436
255	0xbcb280fe	-0.021790024

lstm.weight_hh_l0 f4 [256, 64]
0	0xbd88260a	-0.066478804
1	0x3e1165f0	0.14199042
2	0x3d5b06a7	0.05347314
3	0x3d2f2fd2	0.042770214
4	0x3da8e17b	0.08246132
5	0xbe4fc10d	-0.20288487
6	0xbe477818	-0.19479406
7	0x3c3e4a4f	0.011614396
8	0x3db1c9fc	0.086811036
9	0x3baf6343	0.005352409
10	0xbd105c9c	-0.03524457
11	0xbe02acb8	-0.127612
12	0xbc4101f6	-0.011780253
13	0xbd9a1161	-0.07522846
14	0xbc809d49	-0.0157
15	0xbd3bfc8c	-0.045895144
16	0xbe2777f4	-0.16354352
17	0x3e1dcb4f	0.15409587
18	0xbc2cd219	-0.010548138
19	0xbcbc5917	-0.0229917
20	0x3dbf64c4	0.093453914
21	0x3b65f6e5	0.0035089788
22	0x3ce8dcc0	0.028425574
23	0xbcfbf3a0	-0.030755818
24	0xbd291f51	-0.04128963
25	0x3e106ebc	0.14104742
26	0x3de03eae	0.10949455
27	0xbc2256ca	-0.009908387
28	0x3dd1ffbf	0.10253858
29	0x3c125d86	0.008933431
30	0x3dd5759e	0.10422824
31	0x3d61e5ac	0.055150673
32	0x3df49088	0.1194163
33	0xbc777f9c	-0.015106108
34	0xbdb8bbba	-0.09020181
35	0x3ca6fb8e	0.020383622
36	0x3e4dd4f7	0.20100771
37	0xbd891c6c	-0.06694874
38	0xbd628385	-0.055301208
39	0xbd970b24	-0.07375172
40	0x3d2aaa9b	0.04166661
41	0xbdf4e3a1	-0.11957479
42	0x3d95173c	0.07279822
43	0x3e259a60	0.1617217
44	0xbd6dcf58	-0.058059067
45	0xbc702c0f	-0.014658942
46	0xbe0f897b	-0.14017288
47	0x39d5f2be	0.00040807383
48	0x3d7aa3cf	0.061191376
49	0x3c40cb27	0.011767185
50	0xbe2ab62c	-0.16671056
51	0x3de033aa	0.10947354
52	0xbe361035	-0.1777962
53	0xbd52f50a	-0.05150322
54	0x3b029381	0.0019924345
55	0xbe19d789	-0.15023626
56	0xbe0c1fd1	-0.13684012
57	0xbd97d62c	-0.07413897
58	0x3c5c6dab	0.013453881
59	0xbda96e76	-0.08273022
60	0xbd934617	-0.07191103
61	0x3ddbfacd	0.10741196
62	0x3d929f84	0.071593314
63	0xbdf5d5dd	-0.12003682
64	0x3e294257	0.16529213
65	0x3da1f9ff	0.07909011
66	0xbdf415ea	-0.11918242
67	0x3c1121c7	0.008858151
68	0xbbc8195d	-0.006106539
69	0x3c8bd2f4	0.017068364
70	0x3d8a9e6b	0.06768497
71	0x3e637b00	0.2221489
72	0x3d98bbf7	0.074577264
73	0x3dda277e	0.10652064
74	0xbdad96bd	-0.08476017
75	0x3df125ed	0.11774812
76	0x3dc7786c	0.097397655
77	0xbdfa412e	-0.12219463
78	0x3e3e6d1d	0.18596311
79	0xbb1974ca	-0.002341556
80	0x3cf546f3	0.029941058
81	0xbe37fcb8	-0.17967498
82	0xbe5e53b0	-0.21711612
83	0x3e2c5913	0.16830854
84	0x3d9a1ae2	0.07524659
85	0xbdc47257	-0.09592121
86	0xbe2be770	-0.16787505
87	0x3e13320c	0.1437456
88	0x3da85dfb	0.0822105
89	0xbd4f5e11	-0.050626818
90	0xbdaabd69	-0.08336908
91	0x3e811092	0.25207955
92	0xbcd2fd0d	-0.02575543
93	0xbc2cc6e1	-0.010545463
94	0xbd803273	-0.062596224
95	0xbe0493d6	-0.1294702
96	0xbded4978	-0.11586279
97	0x3d811ae9	0.06303961
98	0xbd962939	-0.07332081
99	0x3e6430d5	0.22284253
100	0xbe336c21	-0.17521717
101	0xbd76096e	-0.060067587
102	0x3e04d70f	0.12972663
103	0xbdbadf80	-0.091246605
104	0x3e087b11	0.13328196
105	0x3d8b3bed	0.06798539
106	0xbe1aed93	-0.1512969
107	0x3e2f6d66	0.17131576
108	0xbcd36830	-0.025806516
109	0x3d8e63d9	0.06952638
110	0x3e2f368f	0.17110656
111	0xbd1a10a1	-0.037613515
112	0x3e7b4d96	0.24541315
113	0x3da799c7	0.081836276
114	0x3e3e11eb	0.18561523
115	0xbb1b3dd6	-0.002368798
116	0x3e248b5a	0.16068783
117	0xbd8e779a	-0.06956406
118	0xbdca13e1	-0.09867073
119	0x3e00bd85	0.12572296
120	0x3dbac82e	0.091202125
121	0x3e021a3a	0.12705317
122	0x3dc4b130	0.09604108
123	0xbd5c89ff	-0.05384254
124	0x3de257e8	0.11051923
125	0xbe243cd8	-0.16038835
126	0x3c172b8e	0.009226693
127	0x3e2b7f14	0.16747695
128	0x3c2ebdeb	0.010665397
129	0xbe186131	-0.14880826
130	0xbde087e3	-0.10963418
131	0xbc34584d	-0.011007381
132	0x3e4bf936	0.19919285
133	0x3d9132bd	0.07089756
134	0x3ced1d9e	0.028944787
135	0x3d0419ba	0.032251097
136	0x3d6ce0a9	0.05783144
137	0x3d6219e6	0.05520048
138	0x3b8ee3ab	0.004360636
139	0xbdfb4c56	-0.12270419
140	0x3e163508	0.14668667
141	0x3e0fa835	0.1402901
142	0xbd8619e8	-0.0654791
143	0xbd0a83b9	-0.033817027
144	0xbcd80244	-0.026368268
145	0xbe7fe8ae	-0.24991104
146	0x3dc1826d	0.09448705
147	0xbe80a147	-0.25123045
148	0xbdbe8f82	-0.09304716
149	0xbe13949a	-0.14412156
150	0x3c90583a	0.017620195
151	0xbd2a6f97	-0.041610327
152	0xbe470429	-0.1943518
153	0xbde04d5c	-0.10952255
154	0x3d834c5e	0.0641105
155	0xbd97a740	-0.07404947
156	0xbc75ee8f	-0.01501049
157	0xbd373074	-0.044723943
158	0xbe3a3ce3	-0.18187289
159	0xbd18c825	-0.037300248
160	0xbdc64c67	-0.09682541
161	0xbd4f48ef	-0.050606664
162	0xbe2cf883	-0.16891675
163	0x3d9fb709	0.07798583
164	0xbdd6b312	-0.10483374
165	0x3dff3771	0.124617465
166	0xbe0fc2af	-0.1403911
167	0xbc42f2ed	-0.011898738
168	0x3bd7c075	0.006584222
169	0xbd16bc4f	-0.03680068
170	0xbd8f5490	-0.06998551
171	0x3d8bf4fd	0.06833837
172	0xbdcd9362	-0.10037877
173	0xbc115f1c	-0.0088727735
174	0x3d119c5e	0.035549514
175	0x3dc35c76	0.0953912
176	0xbdd51965	-0.10405234
177	0xbaa8dbb0	-0.0012882855
178	0x3dde4731	0.108534224
179	0x3b17dc59	0.002317211
180	0x3d4962d1	0.049166504
181	0xbe09afed	-0.13446017
182	0x3d956bd4	0.07295957
183	0xbd89a9c4	-0.06721833
184	0x3da42977	0.08015721
185	0x3d37e98b	0.04490046
186	0x3e416cb5	0.18889125
187	0x3a21f216	0.0006177736
188	0xba4dc0e6	-0.00078488735
189	0xbd690457	-0.056888904
190	0xbe0ce1a5	-0.13757952
191	0xbd698b4a	-0.057017602
192	0x3d36e3c1	0.044650797
193	0x3decc160	0.11560321
194	0x3ce92663	0.028460687
195	0xbd2c8a31	-0.042123977
196	0x3e6ef867	0.23336945
197	0x3d964f05	0.073392905
198	0x3dcf8ea1	0.10134626
199	0x3d8f0ef9	0.06985278
200	0x3dd11294	0.102086216
201	0xbdd1683f	-0.102249615
202	0xbd50074c	-0.05078821
203	0xbdda215b	-0.10650893
204	0x3c8b3688	0.016993776
205	0x3d806680	0.0626955
206	0x3e63f17c	0.22260088
207	0x3db14547	0.08655792
208	0xbd74efae	-0.05979889
209	0xbe252929	-0.16128983
210	0xbde825c0	-0.11335325
211	0xbd9b0f57	-0.07571285
212	0xbe24e719	-0.16103782
213	0xbe3545e8	-0.17702448
214	0xbe0b918d	-0.13629742
215	0xbd03ff0e	-0.03222566
216	0x3e121e9c	0.14269489
217	0xbe67b8cf	-0.22629093
218	0xbd028a51	-0.03187019
219	0x3e8d4baa	0.2759679
220	0xbda830e1	-0.08212448
221	0xbe40eeb5	-0.1884106
222	0xbdf87e08	-0.121334136
223	0xbc88f576	-0.016718607
224	0xbdb8f60b	-0.09031304
225	0xbe244582	-0.1604214
226	0xbd0d7c69	-0.034542475
227	0x3d2d1d36	0.042264186
228	0xbde7a09c	-0.11309931
229	0xbe294e6d	-0.16533823
230	0x3deacd72	0.11464967
231	0xbd744239	-0.059633467
232	0x3e41b4a6	0.18916568
233	0xbe48c1fc	-0.19605249
234	0xbe1ca08e	-0.15295622
235	0xbd0f80ba	-0.035034873
236	0xbd829cfe	-0.063776
237	0x3e7437bc	0.23849386
238	0xbce6cbf4	-0.028173424
239	0xbd17233d	-0.03689884
240	0xbd9c95be	-0.076457486
241	0xbe8ef926	-0.2792446
242	0xbd3dc46e	-0.046329908
243	0xbd849822	-0.064743295
244	0xbc08288b	-0.008310447
245	0xbddab0c0	-0.10678244
246	0xbc240982	-0.010012032
247	0xbd99a5eb	-0.075023495
248	0xbe80650c	-0.25077093
249	0x3dd3b7e7	0.10337811
250	0x3e0c67be	0.1371145
251	0xbdbe81ea	-0.09302123
252	0x3e322eaf	0.17400621
253	0xbd265db3	-0.040616702
254	0xbcdcc9b8	-0.026951656
255	0xbe1ec231	-0.15503766

lstm.bias_ih_l0 f4 [256]
0	0x3cc59cf9	0.024122702
1	0xbdbd1273	-0.092320345
2	0x3e04113e	0.12897202
3	0x3e103881	0.14084055
4	0x3d2e0383	0.042483818
5	0xbe132b9c	-0.14372104
6	0xbbdcde5f	-0.006740376
7	0x3ce82140	0.028336167
8	0x3d0b2428	0.03397003
9	0xbe0420cf	-0.1290314
10	0xbc3e447f	-0.01161301
11	0x3d9356f3	0.071943186
12	0xbc60efa6	-0.013729012
13	0x3e37becb	0.17943875
14	0xbd0f5bdf	-0.034999724
15	0xbc934a56	-0.017979782
16	0x3daf8b29	0.085714646
17	0x3e211876	0.15731987
18	0xbbcd40fc	-0.0062638503
19	0xbe0c37ee	-0.1369321
20	0x3e7edb42	0.24888328
21	0x3e435cf6	0.1907843
22	0xbd0a3c2d	-0.033748794
23	0x3e16a5c9	0.1471168
24	0x3d8d6dcd	0.069057085
25	0x3d46349f	0.048390027
26	0x3bf7b5f5	0.0075595328
27	0x3d3beb35	0.045878608
28	0x3e827886	0.25482577
29	0x3daf1800	0.085494995
30	0x3d6a43ca	0.057193555
31	0xbd3b5cf1	-0.045742933
32	0xbceb50ac	-0.02872499
33	0x3e3a6706	0.18203363
34	0x3df1ebd8	0.11812562
35	0xbdd7ecdd	-0.10543225
36	0xbd91b206	-0.071140334
37	0x3caba2ec	0.02095171
38	0x3d8074b6	0.06272261
39	0x3e083807	0.13302623
40	0x3e72a680	0.23696327
41	0xbb02e829	-0.0019974804
42	0x3df0ecbb	0.11763903
43	0xbcfaad6b	-0.03060027
44	0x3c43343f	0.011914312
45	0x3df6e499	0.1205532
46	0x3c335083	0.010944488
47	0x3d993c84	0.074822456
48	0xbde9c391	-0.114142545
49	0x3db35e5a	0.087582305
50	0x3dbdcfd9	0.092681594
51	0xbe1fbb80	-0.1559887
52	0xbd064ca2	-0.032787926
53	0xbdefcbff	-0.11708831
54	0xbc30f8d8	-0.0108015165
55	0x3dbf64ac	0.093453735
56	0x3e475978	0.19467723
57	0x3e534df6	0.20635208
58	0x3e8e7c87	0.27829382
59	0x3b972782	0.004612864
60	0x3e05f654	0.13082248
61	0x3d13339b	0.035937887
62	0x3d406526	0.046971463
63	0x3cc042d7	0.023469372
64	0xbdb9528e	-0.09048949
65	0xbd31bec5	-0.043394823
66	0xbda4d4ff	-0.08048438
67	0xbd9c202f	-0.07623326
68	0xbd0f75ed	-0.035024572
69	0xbdd8e5fa	-0.105907395
70	0x3db2c3e0	0.087287664
71	0x3de0d15e	0.109774336
72	0x3c969d87	0.018385662
73	0xbd5d0259	-0.053957317
74	0xbd1a024f	-0.037599858
75	0x3d968b92	0.0735084
76	0xbd9e5295	-0.07730595
77	0xbdab0efd	-0.08352468
78	0xbdf709cf	-0.12062418
79	0xbcc82e33	-0.024436092
80	0x3da5f58d	0.08103476
81	0xbdae6a35	-0.08516351
82	0xbdbf8c09	-0.093528815
83	0x3b6cabe3	0.0036113195
84	0xbd845acf	-0.06462633
85	0xbc4c0d09	-0.01245428
86	0x3d0cca08	0.03437236
87	0xbd52eb6a	-0.05149404
88	0x3d82561d	0.06364081
89	0xbd970cbf	-0.07375478
90	0xbdbdaac0	-0.092610836
91	0xbdf63ef6	-0.120237276
92	0xbc1ccffe	-0.009571074
93	0xbde919b1	-0.11381853
94	0x3e0595c1	0.13045408
95	0xbe149ead	-0.14513655
96	0x3d916987	0.07100206
97	0xbe0e16dc	-0.13875908
98	0xbe26d834	-0.16293412
99	0x3da8b6e8	0.082380116
100	0x3dc45d92	0.095881596
101	0xbde9075d	-0.113783576
102	0xbe35bec7	-0.17748557
103	0xbd821e53	-0.0635344
104	0xbe55d5b7	-0.20882307
105	0xbbeb3f8a	-0.0071792053
106	0xbdd977fc	-0.10618588
107	0x3d894c27	0.06703978
108	0xbe20483a	-0.15652552
109	0xbbdfc193	-0.0068284958
110	0x3c83e72c	0.016101442
111	0xbde2967a	-0.110638574
112	0x3d2bea55	0.041971523
113	0xbd812695	-0.06306187
114	0xbe351308	-0.17683041
115	0xbe061675	-0.13094504
116	0x3ce9f2e2	0.028558198
117	0xbd33bfb4	-0.043883994
118	0x3da3dd64	0.08001211
119	0xbe1800b4	-0.14844018
120	0xbd8fe85d	-0.07026742
121	0x3cf14bdb	0.029455116
122	0xbdcd37f8	-0.10020441
123	0xbd7ee402	-0.062229164
124	0xbe0beb4a	-0.13663974
125	0xbdbfa53d	-0.093576886
126	0xbe263391	-0.16230609
127	0x3e09df40	0.1346407
128	0xbcc692ba	-0.024239887
129	0x3e24ae12	0.16082028
130	0xbc8821ab	-0.016617617
131	0xbd9730d2	-0.073823586
132	0xbd24eb5b	-0.040263515
133	0xbd3424de	-0.04398047
134	0x3d263df9	0.040586445
135	0x3c513f5d	0.012771455
136	0x3db8e5be	0.09028195
137	0x3d9357c7	0.071944766
138	0xbc6c4af0	-0.014422163
139	0x3df41940	0.119188786
140	0xbb099e7c	-0.0020999005
141	0x3d730025	0.05932631
142	0xbc1a8cd2	-0.009432988
143	0x3df52620	0.119701624
144	0xbd77f06f	-0.06053203
145	0xbdb44e28	-0.088039696
146	0xbda0455d	-0.0782573
147	0xbd4e5660	-0.050375342
148	0xbdb1c7b3	-0.08680668
149	0xbd487f41	-0.048949484
150	0xbdee1d06	-0.116266295
151	0xbdb90c7b	-0.090355836
152	0x3c76fe99	0.015075349
153	0xbe06046f	-0.13087629
154	0x3c7bc350	0.01536639
155	0x3dec2897	0.115311794
156	0x3cd68f6a	0.026191432
157	0xbe39f21d	-0.18158765
158	0x3da43657	0.08018177
159	0x3d7f4699	0.062323187
160	0xbdc23adf	-0.09483885
161	0xbd7156ca	-0.05892066
162	0x3d6e105e	0.058121078
163	0xbca53c24	-0.020170279
164	0xbcc18912	-0.02362493
165	0xbd1ab2ac	-0.03776805
166	0x3beddac5	0.0072587454
167	0xbd8827bb	-0.06648203
168	0x3de1f864	0.11033705
169	0xbd6f98b9	-0.058495257
170	0x3d923921	0.07139803
171	0xbd8c8d46	-0.06862883
172	0x3daf630d	0.08563814
173	0x3ce1c521	0.027559819
174	0x3ca6cef5	0.020362357
175	0x3c8e7a7d	0.017392391
176	0x3cbe34ff	0.02321863
177	0x3cef025f	0.029175935
178	0x3d9ea98e	0.07747184
179	0xbdd5ac7c	-0.104332894
180	0xbd500839	-0.05078909
181	0x3db2e5c9	0.08735234
182	0x3deba808	0.11506659
183	0xbd40305c	-0.04692112
184	0xbb98cbfc	-0.0046629887
185	0x3c85c538	0.016329393
186	0x3ddd2717	0.107984714
187	0x3df9598e	0.12175284
188	0x3db560a8	0.08856326
189	0xbd8040e6	-0.062623784
190	0x3d2e5308	0.042559654
191	0x3c06b468	0.008221723
192	0x3cd4a653	0.025958216
193	0x3dbeff16	0.093259975
194	0xbd5127bf	-0.051063295
195	0x3d2eb848	0.042656213
196	0x3e56fb36	0.20994267
197	0x3caef056	0.021354835
198	0xbcea83b8	-0.028627262
199	0x3dcdb3f8	0.10044092
200	0x3e0d122c	0.13776463
201	0xbdd16d5c	-0.10225937
202	0x3dbf52c4	0.09341958
203	0xbd5498b5	-0.051903445
204	0x3d1cc797	0.03827628
205	0x3e418559	0.18898524
206	0x3c684f12	0.014179008
207	0xbd68f8bd	-0.05687784
208	0x3d95ef1c	0.07320997
209	0x3e230a25	0.15921839
210	0xbc535f78	-0.0129011795
211	0xbbf2a25f	-0.00740461
212	0x3dfe9da5	0.12432412
213	0x3e5b6d17	0.21428333
214	0x3d1191c6	0.03553941
215	0x3dff1591	0.12455285
216	0xbe13509b	-0.14386217
217	0x3e2a93c9	0.16657938
218	0x3e0dd704	0.13851553
219	0x3e7316ad	0.23739119
220	0x3ddedc6d	0.10881887
221	0x3d80911d	0.06277678
222	0x3de1d3ce	0.11026727
223	0x3dcb8a4d	0.09938488
224	0x3cbb6820	0.0228768
225	0x3e6b992e	0.23007652
226	0xbc8eb398	-0.017419621
227	0x3ce0337c	0.0273683
228	0x3e076a2d	0.13224097
229	0xbb99410e	-0.0046769446
230	0xbcad9276	-0.021188002
231	0x3deb72c4	0.11496499
232	0x3ebb914e	0.36634296
233	0xbd1a69f3	-0.037698697
234	0xbd92d707	-0.071699195
235	0x3d9f52e2	0.077794805
236	0xba5a932e	-0.00083379715
237	0x3e58ceb9	0.21172608
238	0x3d035fb0	0.032073677
239	0x3dd70067	0.104981236
240	0x3d495ad8	0.0491589
241	0x3e110112	0.14160565
242	0x3d209fb9	0.039214823
243	0xbbfe1f35	-0.007755185
244	0x3d40cc55	0.047069866
245	0xbbf92a03	-0.007603885
246	0x3b54c831	0.0032467956
247	0x3c80d82d	0.01572808
248	0x3d5cabdd	0.05387484
249	0x3e64718d	0.22308941
250	0x3e42659e	0.18984076
251	0xbd17a41c	-0.03702174
252	0x3e262916	0.1622661
253	0xbcaca7d8	-0.021076128
254	0x3e1cee2f	0.15325235
255	0x3e0cee53	0.13762788

lstm.bias_hh_l0 f4 [256]
0	0x3c904d78	0.017615065
1	0x3d4ca051	0.049957577
2	0xbc3ad569	-0.01140342
3	0x3de27d62	0.11059071
4	0x3d8e4151	0.06946052
5	0x3d568171	0.05236954
6	0xbca06f5a	-0.019584347
7	0x3dd8f81b	0.10594197
8	0x3d42cfac	0.047561333
9	0xbcf48542	-0.029848699
10	0x3da4e017	0.08050554
11	0x3e22690f	0.15860389
12	0x3e0e8444	0.13917643
13	0x3e6b351a	0.22969475
14	0x3dc31264	0.09524992
15	0xbd356ae8	-0.044291407
16	0x3d50a4ac	0.050938293
17	0x3e1d3ab8	0.1535443
18	0xbd26e973	-0.04074998
19	0xbdb3017c	-0.087405175
20	0x3e3f111a	0.18658867
21	0x3e8aca2d	0.27107373
22	0xbda2b671	-0.07944954
23	0x3e3c3c70	0.1838243
24	0xbe0050ec	-0.12530869
25	0x3e2103ba	0.15724078
26	0x3e1d9921	0.15390445
27	0x3dd879be	0.105700955
28	0x3e8911be	0.2677135
29	0x3dbc0748	0.09181076
30	0x3d0c3082	0.03422595
31	0x3d342dc5	0.04398896
32	0xbd8fab35	-0.07015077
33	0x3d7c47d2	0.06159193
34	0x3d1de22a	0.038545765
35	0x3d625b05	0.055262584
36	0xbdb0f8f4	-0.08641234
37	0x3cdea98c	0.027180456
38	0x3c83f6b3	0.016108846
39	0x3d155ecf	0.03646737
40	0x3eb56e2e	0.35435623
41	0x3b0d699a	0.0021577836
42	0xbc1f345a	-0.009717071
43	0x3db47401	0.088111885
44	0x3bae2116	0.0053140027
45	0x3df4a392	0.11945261
46	0x3ce4d137	0.027931793
47	0xbcf79781	-0.03022361
48	0xbd81e922	-0.06343295
49	0x3d821341	0.06351329
50	0x3d5158e9	0.051110182
51	0x3d849ea6	0.06475572
52	0x3e085d69	0.13316883
53	0xbcf8129f	-0.030282317
54	0xbd4d902a	-0.050186314
55	0x3dc73704	0.0972729
56	0x3e461326	0.19343242
57	0x3df62d1c	0.12020323
58	0x3e59e3ab	0.21278255
59	0x3dd85ae4	0.10564211
60	0x3e354eb1	0.177058
61	0x3d4e398b	0.050347846
62	0x3e81cbfc	0.2535094
63	0x3d2b5aae	0.041834526
64	0x3e03de9b	0.12877886
65	0xbceb5915	-0.028729001
66	0x3d60c443	0.05487467
67	0xbb8562dd	-0.0040706233
68	0x3bf5eb4a	0.0075048553
69	0x3d601d87	0.05471566
70	0xbd1f6801	-0.038917545
71	0xbd094354	-0.033511475
72	0x3d149fc5	0.03628518
73	0xbe32c41e	-0.17457625
74	0xbc7ed532	-0.015553759
75	0xbe022995	-0.12711175
76	0x3db22e1b	0.087002
77	0xbdd3321f	-0.10312294
78	0xbdcaf3a3	-0.09909751
79	0xbdddab76	-0.10823719
80	0x3cb87d78	0.022520766
81	0x3df8f353	0.121557854
82	0xbd8a9292	-0.06766237
83	0xbda17f3d	-0.07885597
84	0xbe3b1138	-0.18268287
85	0xbe27438f	-0.16334365
86	0xbd1366e8	-0.03598681
87	0x3e1e3408	0.15449536
88	0x3d418829	0.047248993
89	0xbd839e53	-0.06426682
90	0xbdbf5c66	-0.093437955
91	0x3bce0c73	0.006288105
92	0xbd8827a5	-0.066481866
93	0xbe2dbfe1	-0.16967727
94	0x3df44cfe	0.119287476
95	0xbd233ab4	-0.039850906
96	0x3d62b49e	0.05534803
97	0xbcc7b780	-0.024379492
98	0xbe15f30c	-0.14643496
99	0xbdd45048	-0.10366875
100	0xbc8fd978	-0.017559752
101	0xbdc4201b	-0.09576436
102	0xbd2b72b2	-0.04185743
103	0xbdd65b06	-0.1046658
104	0x3b83b856	0.0040197773
105	0xbdcfaebe	-0.10140751
106	0xbdff6fc4	-0.124724895
107	0xbd8fb891	-0.07017625
108	0xbe13c514	-0.14430648
109	0xbe02ce1f	-0.12773941
110	0x3cbf6779	0.02336477
111	0x3d8aeb72	0.06783189
112	0x3e05dedf	0.130733
113	0xbd2f06f3	-0.042731237
114	0xbe4e7756	-0.2016271
115	0x3d3a9a3c	0.045557246
116	0x3cad2057	0.021133585
117	0xbaf040c6	-0.0018329851
118	0x3dd09cb4	0.10186139
119	0xbdd78335	-0.10523073
120	0xbd86cefc	-0.06582448
121	0x3da10d51	0.07863868
122	0x3dd73405	0.10507969
123	0x3d1354b3	0.035969447
124	0x3d45e737	0.048316207
125	0xbda0bea5	-0.078488626
126	0xb90d1642	-0.000134551
127	0x3aa6188e	0.0012672113
128	0x3da9f4af	0.08298623
129	0x3dea521a	0.11441441
130	0x3db45c97	0.088067226
131	0xbd1dabdb	-0.038493972
132	0x3e1704ba	0.14747897
133	0xbd0f4a21	-0.034982804
134	0x3e0c9aaf	0.13730882
135	0xbde53ce7	-0.11193257
136	0xbddb0a06	-0.10695271
137	0x3a3b33ea	0.00071412197
138	0x3c04f047	0.008113927
139	0x3defd950	0.11711371
140	0x3dc8b49c	0.098000735
141	0x3dedd5d3	0.11613049
142	0x3ce7b376	0.028283816
143	0xbd32a131	-0.043610755
144	0x3d35d775	0.04439493
145	0x3dd1b554	0.10239664
146	0x3d1df306	0.038561843
147	0xbc071e50	-0.008246973
148	0x3dcf3961	0.10118366
149	0x3d5e632a	0.05429379
150	0xbddfb0ae	-0.10922371
151	0x3c588f7a	0.013217801
152	0x3e1f9aa2	0.15586331
153	0xbd3eb3d1	-0.046558205
154	0xbbafc6f5	-0.0053642937
155	0xbd04c6bb	-0.032416087
156	0xbcc52a1c	-0.02406793
157	0x3d468553	0.04846699
158	0x3de1efe1	0.110320814
159	0x3e1ac55c	0.15114349
160	0xbc6d6633	-0.014489698
161	0x3d37f65c	0.04491268
162	0xbd542803	-0.05179597
163	0x3dfad738	0.12248081
164	0xbdbb07a3	-0.09132316
165	0xbdbd8857	-0.092545204
166	0x3bf99b33	0.007617378
167	0xbe26c172	-0.16284731
168	0xbd11f021	-0.035629395
169	0xbdef2306	-0.11676602
170	0xbd6730a6	-0.05644288
171	0x3d03404a	0.032043733
172	0xbdedcbe1	-0.116111524
173	0x3e0b2f9c	0.1359238
174	0x3ca1ea19	0.019764947
175	0xbe00e312	-0.1258662
176	0xbbc3c066	-0.0059738634
177	0xbcb312bb	-0.021859517
178	0xbbb62d2e	-0.005559585
179	0xbd949c44	-0.07256368
180	0x3d94f17e	0.072726235
181	0x3d821aff	0.06352805
182	0x3de72860	0.11286998
183	0xbdb0ae49	-0.08626992
184	0xbd661629	-0.056173477
185	0x3d4165b7	0.047216143
186	0xbc007ab4	-0.007841755
187	0xbcb3feac	-0.021972023
188	0xbce02575	-0.02736161
189	0xbd7f8e87	-0.062391784
190	0xbdd23734	-0.102644354
191	0x3db91721	0.090376146
192	0xbd6906be	-0.056891195
193	0x3c9aa311	0.018876584
194	0x3d900e1b	0.070339404
195	0x3e25d2cb	0.16193692
196	0x3e2172ba	0.15766421
197	0x3b53d150	0.0032320805
198	0xbd28fe5f	-0.041258212
199	0xb9799102	-0.0002380051
200	0x3c9d0fb0	0.01917252
201	0x3b7b17b9	0.00383137
202	0x3d0d9cf5	0.034573514
203	0xbd928b24	-0.07155445
204	0xbc00fabe	-0.007872282
205	0x3e86ce2f	0.2632918
206	0x3dc0a032	0.09405555
207	0xbd8eea29	-0.06978256
208	0x3cc502e2	0.024049226
209	0x3e434f31	0.19073178
210	0xbd1651ca	-0.036699094
211	0x3c1e72c4	0.009670917
212	0x3dcbe1ad	0.099551536
213	0x3ea3987a	0.31952268
214	0x3dcce336	0.100042745
215	0x3e860274	0.26173747
216	0x3ba53d89	0.005042736
217	0x3e67f1b7	0.226508
218	0x3cb95bad	0.022626722
219	0x3e77622f	0.24158548
220	0x3e61f5a6	0.22066364
221	0x3e95ad6e	0.2923388
222	0xbc53e8b8	-0.012933902
223	0xbdaf015f	-0.085451834
224	0xbd5f2580	-0.054479122
225	0x3d41fc05	0.047359485
226	0xbb910a56	-0.004426281
227	0xbcc788e9	-0.024357276
228	0x3b6905ad	0.0035556362
229	0x3dc97981	0.09837628
230	0x3d17d68b	0.03706984
231	0x3e3f55ab	0.18685023
232	0x3eb86366	0.36013335
233	0x3dcdd3f5	0.10050193
234	0xbd3af3c7	-0.04564264
235	0x3a7ced55	0.00096484023
236	0x3d77d4f7	0.060505833
237	0x3d9561bf	0.07294034
238	0xbe2ad55a	-0.1668295
239	0x3b12b44c	0.0022385297
240	0x3dd2c029	0.10290558
241	0x3e43503c	0.19073576
242	0x3e3dcbc2	0.18534759
243	0xbe34b10f	-0.17645667
244	0x3da81de5	0.08208827
245	0x3c628ff3	0.0138282655
246	0x3da0ab1f	0.07845139
247	0xbd862da3	-0.06551673
248	0x3d179de3	0.037015807
249	0x3e86991a	0.26288682
250	0x3e0ee67c	0.1395511
251	0xbcdb7c1f	-0.026792584
252	0xbc768085	-0.01504529
253	0x3d36bf76	0.044616185
254	0x3e76f4d4	0.24116832
255	0x3e0b4562	0.13600686

lstm.weight_ih_l1 f4 [256, 64]
0	0x3e1d363d	0.15352722
1	0xbe38fa06	-0.18064126
2	0xbe1a4ee5	-0.15069158
3	0x3deb1f10	0.11480534
4	0x3d4a8101	0.049439434
5	0x3e3e188d	0.18564053
6	0xbd92b9f5	-0.07164375
7	0x3c9ffff0	0.01953122
8	0x3d41977f	0.04726362
9	0x3d5e1df7	0.054227795
10	0xbd6254c1	-0.05525661
11	0xbda47610	-0.08030331
12	0xbdb64223	-0.08899333
13	0x3dd19309	0.10233123
14	0x3e675838	0.22592247
15	0x3da47ba7	0.08031397
16	0xbe19c91c	-0.15018123
17	0x3d830447	0.063973
18	0xbdb6690e	-0.08906756
19	0x3e672319	0.22571982
20	0xbe0fe6ba	-0.14052859
21	0xbe58e689	-0.21181692
22	0xbc329f2b	-0.010902206
23	0x3dc0dbc1	0.09416915
24	0xbddeff11	-0.10888494
25	0xbd1e3f91	-0.03863484
26	0x3de97735	0.1139969
27	0x3e2d05e3	0.16896777
28	0x3e0e4d17	0.13896595
29	0x3c7cb6da	0.015424455
30	0x3df5e10c	0.12005815
31	0xbdd2c619	-0.102916904
32	0x3d810fea	0.063018635
33	0xbda4b745	-0.080427684
34	0xbe0791bb	-0.13239186
35	0x3e119fb5	0.1422108
36	0x3d40cafd	0.047068585
37	0xbd296976	-0.04136034
38	0xbd36fce7	-0.04467478
39	0x3df400e3	0.11914232
40	0xbdc72cdb	-0.097253524
41	0x3d429f04	0.04751493
42	0xbd67afca	-0.05656413
43	0xbd86e23a	-0.06586118
44	0x3b9ab51b	0.0047212965
45	0xbdd095d4	-0.101848274
46	0xbccd4972	-0.025059436
47	0xbbf4c560	-0.007469818
48	0x3c81350e	0.015772369
49	0xbc5a5fd4	-0.013328511
50	0x3c1637ee	0.009168608
51	0x3d960b16	0.07326333
52	0xbcfa194f	-0.030529646
53	0xbceff77c	-0.029292814
54	0x3d7523b8	0.059848517
55	0xbe19bef5	-0.1501425
56	0xbc5e7e62	-0.013579937
57	0x3d9eeff5	0.07760612
58	0x3d3373c6	0.043811582
59	0xbd41a9c6	-0.04728105
60	0x3d9a1aae	0.0752462
61	0x3caf9187	0.021431698
62	0x3e261c5c	0.16221756
63	0x3dc7181a	0.09721394
64	0x3d0c651a	0.034276105
65	0x3d1f351d	0.038869012
66	0xbd727865	-0.05919685
67	0x3e85ce33	0.2613388
68	0xbeba34b9	-0.3636835
69	0x3d9325ac	0.0718492
70	0x3e15494e	0.14578745
71	0x3cbcd61a	0.02305131
72	0x3d29ab15	0.041422922
73	0x3e774da3	0.2415071
74	0xbdfa0fc2	-0.12210037
75	0x3da45227	0.08023482
76	0x3d7c99ac	0.06166999
77	0x3caa1930	0.020763963
78	0x3d3ee467	0.04660454
79	0x3e031ac5	0.1280318
80	0x3d35ae81	0.044355873
81	0xbc02d0e8	-0.007984377
82	0x3cc6e4a5	0.024278948
83	0xbc120d1a	-0.0089142565
84	0x3eb15417	0.34634468
85	0x3dce373c	0.10069129
86	0x3d3d50e5	0.046219725
87	0xbcdd5fa0	-0.027023137
88	0xbab463ed	-0.001376269
89	0x3da1b63f	0.07896089
90	0xbdf04d3c	-0.11733481
91	0xbdcc2c4d	-0.09969387
92	0xbe9407bf	-0.2891216
93	0x3e3891df	0.18024395
94	0x3d939243	0.072056316
95	0xbe4d891b	-0.20071833
96	0xbda7ef8f	-0.08199989
97	0x3caab137	0.020836456
98	0x3dfb7d06	0.12279706
99	0x3df24992	0.11830439
100	0x3e05e52f	0.13075708
101	0x3e899a0d	0.26875344
102	0x3d5237cb	0.05132274
103	0xbde57eda	-0.11205836
104	0xbe8ab73e	-0.27092928
105	0x3d2ce28e	0.042208247
106	0x3cc2fa1d	0.023800904
107	0xba6c08a9	-0.0009003976
108	0xbe34c502	-0.17653278
109	0xbe54fa83	-0.20798688
110	0x3dd0ced1	0.10195697
111	0xbdd2eb16	-0.10298745
112	0x3e576807	0.21035777
113	0x3e132edc	0.14373344
114	0xbe071dcf	-0.13194965
115	0xba8e7ab0	-0.0010870304
116	0xbd73cd88	-0.05952218
117	0x3e57a746	0.21059904
118	0xbe3ecf14	-0.18633682
119	0x3e015af3	0.1263235
120	0xbd37b6d3	-0.04485209
121	0x3d205f6f	0.039153513
122	0x3cd2390d	0.02566197
123	0xbd262c87	-0.04056981
124	0xbdf3a75a	-0.11897154
125	0xbe16d0d0	-0.14728093
126	0xbc021d73	-0.007941592
127	0x3e275345	0.16340359
128	0x3ca243c0	0.019807696
129	0xbd8ad09c	-0.0677807
130	0xbcc79bef	-0.024366347
131	0x3cd9b860	0.026577175
132	0xbd61f35c	-0.055163726
133	0xbc6576a0	-0.014005333
134	0x3cd53230	0.026024908
135	0x3d42e32a	0.04757992
136	0xbbe3f0c4	-0.0069561917
137	0x3e431ef6	0.1905478
138	0xbe1d30d3	-0.15350656
139	0x3e4fe31f	0.20301484
140	0x3da93db2	0.082637206
141	0x3e0b24da	0.13588277
142	0xbcc1653c	-0.023607843
143	0x3e345b0b	0.17612855
144	0xbd801ef7	-0.06255906
145	0x3d7434be	0.05962061
146	0x3da660c1	0.08123923
147	0x3e1fef25	0.1561857
148	0x3e8f8e9d	0.28038493
149	0x3c6f8ab3	0.014620471
150	0xbdde3bdc	-0.10851261
151	0xbdeb99eb	-0.11503967
152	0x3de588cf	0.11207735
153	0x3d3def07	0.046370532
154	0xbcceee86	-0.025260221
155	0xbd25d477	-0.040485825
156	0xbe76d549	-0.241048
157	0xbd1a9a20	-0.03774464
158	0x3e0bf8ab	0.13669078
159	0xbdb0c101	-0.086305626
160	0x3d940f93	0.07229533
161	0xbb86c7bc	-0.0041131657
162	0xbe8e3724	-0.27776444
163	0x3dc8a29b	0.097966395
164	0xbdabfcdf	-0.08397841
165	0xbd16e46d	-0.036838938
166	0x3da70a52	0.08156265
167	0x3d172b6e	0.036906652
168	0xbe3d3d81	-0.18480493
169	0xbc5f7ab3	-0.013640094
170	0xbdc218b8	-0.09477371
171	0x3cf5e87b	0.030018082
172	0xbb234226	-0.0024911254
173	0xbd92bf82	-0.071654335
174	0xbd738a67	-0.059458163
175	0xbe2e83e5	-0.17042501
176	0x3e5c7379	0.21528424
177	0xbca7bb06	-0.020474922
178	0x3dd1f125	0.10251073
179	0xbe317792	-0.17330769
180	0x3e227f6e	0.15868923
181	0x3e2ba41f	0.16761826
182	0xbd81963f	-0.06327485
183	0x3d7724b1	0.060337726
184	0x3cda194d	0.026623392
185	0x3b7835cf	0.003787387
186	0xbb9e107e	-0.0048237434
187	0xbe930159	-0.28711966
188	0x3e307ec1	0.17235853
189	0xbd11e2e6	-0.035616778
190	0x3d2248a9	0.039620075
191	0x3d4ced82	0.050031193
192	0x3c97f73a	0.018550504
193	0xbd8d73af	-0.069068305
194	0xbdf8f44e	-0.121559724
195	0x3ddb9c31	0.107231505
196	0xbdb1e946	-0.086870715
197	0xbd15f071	-0.036606256
198	0x3ccb217f	0.024796246
199	0x3dc12dc2	0.09432556
200	0x3dbd783b	0.09251448
201	0x3dbe0d07	0.092798285
202	0x3c5616f3	0.013066995
203	0x3deb075b	0.11476012
204	0x3d778300	0.060427666
205	0xbd602ccd	-0.054730225
206	0x3e0d2551	0.13783766
207	0x3d8e6447	0.0695272
208	0xbdc7f6c2	-0.09763862
209	0x3d9488b5	0.07252637
210	0xbcd738ab	-0.026272139
211	0x3e120f8b	0.14263742
212	0x3a829f6f	0.0009965728
213	0x3ce55a94	0.027997293
214	0x3d6e7f41	0.058226828
215	0x3d0cfb32	0.034419246
216	0x3c931088	0.017952219
217	0x3df0d935	0.11760179
218	0xbdb18997	-0.08668821
219	0xbb253566	-0.002520883
220	0xbded02d7	-0.11572807
221	0x3df41d0b	0.11919602
222	0x3e05d680	0.13070107
223	0xbe302147	-0.17200194
224	0xbda957b3	-0.082686804
225	0x3da27619	0.079326816
226	0x3dab84fa	0.08374973
227	0x3dcbb233	0.09946098
228	0xbd0eaf00	-0.03483486
229	0x3cc24a72	0.023717139
230	0x3c950ef7	0.018195612
231	0xbd6453dc	-0.055744037
232	0xbc7006d0	-0.014650062
233	0x3d43ff98	0.047851175
234	0x3dcef7be	0.10105847
235	0xbda07e8f	-0.07836639
236	0xbd806c13	-0.062706135
237	0x3c77581a	0.015096689
238	0xbdc49858	-0.0959937
239	0xbde97ea2	-0.114011064
240	0x3ddc45e1	0.10755516
241	0x3e40850b	0.18800752
242	0xbdb26f81	-0.08712674
243	0xbdf31091	-0.11868394
244	0xbdaf9317	-0.08572977
245	0x3d14ce2f	0.036329444
246	0xbdffcc8f	-0.12490188
247	0x3da98422	0.082771555
248	0x3d2fe67b	0.042944413
249	0x3e505174	0.20343572
250	0x3d47be17	0.04876527
251	0xbe294807	-0.16531383
252	0x3da5fbb0	0.08104646
253	0xbda7eda0	-0.0819962
254	0x3e101f36	0.14074406
255	0xbd7063a1	-0.058688764

lstm.weight_hh_l1 f4 [256, 64]
0	0x3d964ccb	0.07338866
1	0xbd15bef1	-0.03655905
2	0x3b89356c	0.0041872766
3	0xbd3c2822	-0.04593671
4	0xbe10bca6	-0.14134464
5	0x3c64f68c	0.013974797
6	0x3e08e77f	0.13369559
7	0x3dc4d718	0.096113384
8	0xbe1c6c01	-0.15275575
9	0x3d7c0096	0.061523996
10	0x3cc27f8e	0.023742463
11	0x3d3acd02	0.045605667
12	0x3ddbe4ad	0.10736976
13	0xbca30fcf	-0.019904999
14	0x3d7390b4	0.05946417
15	0x3b7150a5	0.003682175
16	0x3b2ec7db	0.0026669416
17	0xbd22fa93	-0.039789747
18	0xbd2b8983	-0.04187919
19	0x3c7644a8	0.015031017
20	0x3dadbcbb	0.08483263
21	0xbdc47c0c	-0.095939726
22	0x3c85ef42	0.016349439
23	0x3d78bf61	0.06072939
24	0x3d74a6b6	0.0597293
25	0xbda3c11c	-0.07995817
26	0x3df850e5	0.121248044
27	0xbce6f9f8	-0.028195366
28	0xbd031147	-0.0319989
29	0xbe0ed455	-0.13948186
30	0x3dc28530	0.0949806
31	0xbd0b4e1e	-0.034010045
32	0xbe250ee1	-0.16118957
33	0xbdf7825e	-0.120854124
34	0x3e2cebb6	0.16886792
35	0x3dbc873d	0.09205482
36	0xbd6dc764	-0.05805148
37	0x3dd1ace6	0.10238056
38	0x3d28773d	0.04112934
39	0xbd84d3d0	-0.064857125
40	0x3d87161c	0.06596014
41	0xbd19d920	-0.037560582
42	0x3d728f9a	0.05921898
43	0x3dc96506	0.09833722
44	0xbcc90c1c	-0.024541907
45	0xbdba1840	-0.090866566
46	0xbdb04df3	-0.08608618
47	0xbd7fd58a	-0.062459506
48	0x3cb7c5af	0.02243313
49	0xbd659c1a	-0.056057073
50	0xbd58434b	-0.05279855
51	0xbd60ff18	-0.054930776
52	0x3c801102	0.01563311
53	0xbd8f5aee	-0.06999765
54	0xbce39dfe	-0.027785297
55	0x3df3ca4d	0.1190382
56	0x3dc8ac35	0.09798471
57	0xbd8117f2	-0.06303395
58	0xbc96cf5a	-0.01840942
59	0xbe036e69	-0.12835087
60	0x3e00812e	0.12549278
61	0xbd87e94c	-0.06636295
62	0x3d9b2d6d	0.07577024
63	0xbb103585	-0.0022004556
64	0x3c24e979	0.01006543
65	0x3d07a994	0.033120707
66	0x3e409d4b	0.18810003
67	0xbdbe37ff	-0.09288024
68	0x3d473e4f	0.048643406
69	0x3daee3eb	0.08539566
70	0x3dbffb4e	0.093741044
71	0x3d0bd76a	0.03414098
72	0x3d13944d	0.036030103
73	0x3da4b2a5	0.08041886
74	0xbc527764	-0.012845848
75	0x3e0b2036	0.13586506
76	0xbdccf009	-0.100067206
77	0xbba6f131	-0.00509467
78	0x3dc3d123	0.09561374
79	0xbd8a1156	-0.06741588
80	0xbda3396e	-0.07969938
81	0x3d1a450c	0.037663504
82	0x3c634145	0.013870542
83	0x3db609ea	0.0888861
84	0xbdbd809f	-0.09253048
85	0xbe4d4536	-0.20045933
86	0xbe0a3253	-0.1349576
87	0xbdefde32	-0.11712302
88	0xbdb7f05b	-0.08981391
89	0xbd859444	-0.0652242
90	0xbd73ae55	-0.059492428
91	0x3e397597	0.18111263
92	0xbe178f9e	-0.1480088
93	0xbcd3b836	-0.025844675
94	0xbc19ab68	-0.009379245
95	0xbcbf1475	-0.023325184
96	0x3c2f4577	0.010697714
97	0xbdcf17e7	-0.10111981
98	0x3d6b8ae6	0.05750551
99	0x3e4f236f	0.2022836
100	0x3db6e6b8	0.08930725
101	0xbd9ce154	-0.076601654
102	0xbccf8977	-0.025334103
103	0xbdafac16	-0.08577745
104	0xbe1c86bd	-0.15285774
105	0x3e38b21b	0.18036692
106	0xbd2d9750	-0.04238063
107	0x3c4487c0	0.011995256
108	0x3d7b4fee	0.061355524
109	0xbdb8407d	-0.08996675
110	0x3cd57ea7	0.02606137
111	0x3db953da	0.090491965
112	0xbd9543c1	-0.07288314
113	0xbd814019	-0.06311054
114	0x3e31cbf9	0.17362966
115	0xbc82dc22	-0.015974108
116	0xbb8f21a0	-0.004368022
117	0xbe361140	-0.17780018
118	0xbd1fccc7	-0.03901365
119	0x3c44c309	0.012009391
120	0x3d77ce32	0.060499378
121	0xbd4829ba	-0.04886792
122	0x3db01483	0.08597662
123	0xbe6c5a77	-0.23081385
124	0x3d41714b	0.047227185
125	0xbd966efc	-0.07345387
126	0x3e0b69b8	0.13614547
127	0x3d86c950	0.06581366
128	0x3de72b7a	0.11287589
129	0x3e4ec497	0.2019218
130	0xbcb5e2e5	-0.022202918
131	0xbd952a75	-0.07283489
132	0x3e5fe361	0.21864082
133	0x3db15925	0.08659581
134	0xbcfe0d57	-0.03101222
135	0xbe43141e	-0.19050643
136	0xbd9870b9	-0.07443375
137	0xbcfba820	-0.030719817
138	0x3d8944e4	0.06702593
139	0xbdd8562e	-0.105633125
140	0xbcb88c61	-0.022527875
141	0xbdc598f8	-0.09648317
142	0x3d1c6945	0.03818633
143	0xbd8487d8	-0.06471223
144	0xbd363e24	-0.044492856
145	0x3e1ba69b	0.15200274
146	0x3e85a9b8	0.26106048
147	0x3e0565a8	0.1302706
148	0x3c8939ad	0.016751135
149	0xbcf3d0e2	-0.029762689
150	0xbdc86e71	-0.0978669
151	0xbe088c30	-0.13334727
152	0xbc2dcc2a	-0.010607759
153	0xbdb3c2e5	-0.087774076
154	0x3ddf3687	0.10899072
155	0xbdc27917	-0.09495752
156	0x3d8e801d	0.069580294
157	0xbd22bb26	-0.03972926
158	0xbd8b6909	-0.06807143
159	0xbd8aec1a	-0.06783314
160	0xbe5af177	-0.21381174
161	0xbe4da7cf	-0.20083545
162	0xbe114558	-0.14186609
163	0x3ea0e3af	0.3142371
164	0x3c7af6ab	0.015317599
165	0xbdfda551	-0.12385047
166	0xbd401fc5	-0.046905298
167	0x3de90d96	0.113795444
168	0x3e3821e0	0.17981672
169	0xbc4515a6	-0.012029087
170	0xbd718791	-0.058967177
171	0x3e4c0863	0.19925074
172	0x3e45594f	0.1927235
173	0xbe3c8477	-0.18409906
174	0x3c8e6468	0.017381862
175	0x3d9cbff5	0.076538004
176	0xbd8ad1d2	-0.06778301
177	0x3e365fb1	0.17809941
178	0x3e584ae7	0.21122323
179	0x3e4219ad	0.18955107
180	0xbe1ad2db	-0.15119497
181	0xbd3d7404	-0.04625322
182	0xbd9c32c6	-0.07626872
183	0xbdf2926d	-0.11844335
184	0x3e2458e4	0.16049534
185	0xbde909ee	-0.11378847
186	0xbe2a9f98	-0.16662443
187	0xbd7f5c6c	-0.062344
188	0x3d9e3ef4	0.07726851
189	0xbe03d429	-0.12873901
190	0x3ce247ee	0.02762219
191	0x3e01ab9b	0.12663119
192	0x3df25939	0.11833424
193	0xbd9cf002	-0.07662965
194	0xbcb9df7a	-0.02268957
195	0x3df47527	0.119364075
196	0xbc8d72d1	-0.017266663
197	0x3d3f60a0	0.04672301
198	0x3da8ad8b	0.08236226
199	0x3dbe8ebc	0.09304568
200	0xbdfd66c0	-0.12373114
201	0xbdf131a2	-0.11777045
202	0x3c964c12	0.01834682
203	0x3d8f76f9	0.07005114
204	0x3de2ad3a	0.110681966
205	0xbd7604df	-0.06006324
206	0x3d8229d8	0.06355637
207	0xbe00a165	-0.12561567
208	0xbdc8c66d	-0.09803472
209	0xbd95ba8c	-0.073109716
210	0xbc90b6ac	-0.01766523
211	0x3ccbe51d	0.024889523
212	0x3e0f221d	0.13977857
213	0xbda8a2b7	-0.082341604
214	0x3d9bff69	0.07617075
215	0x3dbee262	0.09320523
216	0x3da04344	0.0782533
217	0x3c0b0ca7	0.008486903
218	0xbdc363ca	-0.09540518
219	0x3c176255	0.009239753
220	0xbd1b89bc	-0.03797315
221	0x3e271eec	0.1632039
222	0xbe0d559f	-0.13802193
223	0xbda65b54	-0.08122888
224	0x3d93da79	0.07219405
225	0xbd87767b	-0.06614395
226	0xbdc428d0	-0.09578097
227	0xbd0a273c	-0.033728823
228	0x3dc2e2ad	0.09515891
229	0xbe275a1b	-0.16342966
230	0xbdc3d785	-0.095625915
231	0x3ce943b0	0.028474659
232	0x3e080e99	0.13286819
233	0x3d521bf9	0.051296208
234	0xbd2d360a	-0.042287864
235	0xbd69284a	-0.05692319
236	0xbd918906	-0.07106213
237	0x3d7db263	0.0619377
238	0x3bfbdf57	0.0076865363
239	0x3d0514a6	0.032490395
240	0xbd04883d	-0.03235649
241	0x3e3be680	0.18349648
242	0x3d2a68c9	0.041603837
243	0x3cd36407	0.025804533
244	0x3c2950d4	0.010334212
245	0xbcfe7a73	-0.031064248
246	0x3de74334	0.11292115
247	0xbe470401	-0.19435121
248	0x3cd7640c	0.026292823
249	0xbe2ff823	-0.171845
250	0xbe401121	-0.18756534
251	0xbda08db7	-0.0783953
252	0x3a1a14c4	0.0005877728
253	0xbbd22f93	-0.0064143627
254	0x3e00c8f3	0.12576656
255	0x3def079f	0.116713755

lstm.bias_ih_l1 f4 [256]
0	0xbdce3854	-0.100693375
1	0x3d61bde0	0.05511272
2	0x3c64242c	0.01392464
3	0xbdb7d77f	-0.089766495
4	0x3d9514f6	0.072793886
5	0x3de17790	0.11009133
6	0x3ca8faff	0.020627497
7	0x3e930533	0.28714904
8	0x3ca78b77	0.020452244
9	0xbe064ed3	-0.13116007
10	0x3e018226	0.12647304
11	0x3d16c37f	0.036807533
12	0xbcf4b256	-0.029870193
13	0x3de06576	0.10956852
14	0x3d1af36c	0.0378298
15	0xbd81e1b9	-0.06341881
16	0x3d1544db	0.03644262
17	0xbcbf1976	-0.02332757
18	0x3d4e8ad1	0.050425354
19	0xbd14f45c	-0.03636585
20	0xbc9f7973	-0.019467091
21	0xbc1838d1	-0.00929089
22	0xbd99d173	-0.075106524
23	0xbc076576	-0.008263936
24	0x3db653d0	0.08902705
25	0x3dd054f3	0.10172453
26	0x3b36bf86	0.0027885153
27	0xbdc2f3cf	-0.09519159
28	0xbd41eac0	-0.047343016
29	0x3d85ed36	0.06539385
30	0xbc8415c7	-0.016123665
31	0xbe028515	-0.1274608
32	0x3e5d6ba1	0.21623088
33	0x3ce85e85	0.028365383
34	0xbd2b9f8f	-0.041900214
35	0x3d8a8d15	0.067651905
36	0xbe2df2dc	-0.16987175
37	0xbcdfd385	-0.02732254
38	0xbdf7e1d5	-0.12103621
39	0xbd406717	-0.046973314
40	0x3e026b38	0.12736213
41	0xbd99f732	-0.07517852
42	0xbdab010f	-0.08349811
43	0x3ca83d09	0.020536916
44	0xbded805b	-0.115967475
45	0x3ddc97eb	0.107711636
46	0x3dd2a4a1	0.10285307
47	0xbdd56f7c	-0.104216546
48	0x3d866458	0.06562108
49	0xb93e6dcf	-0.00018160719
50	0x3e222fde	0.15838572
51	0xbc1d8360	-0.009613842
52	0x3ccfe288	0.025376573
53	0x3bb02ef9	0.0053766933
54	0xbe12410d	-0.14282627
55	0x3d0b129c	0.033953294
56	0x3db5f471	0.08884514
57	0xbb63a9ec	-0.0034738733
58	0xbdbead6c	-0.09310421
59	0xbd3b3139	-0.04570124
60	0x3e7cc059	0.2468275
61	0xb9cc2dac	-0.0003894394
62	0xbdc96b44	-0.098349124
63	0x3dfb1b65	0.122610845
64	0xbd9c1dd5	-0.076228775
65	0xbd7bd39d	-0.061481107
66	0xbc8500d0	-0.016235739
67	0xbdde8161	-0.10864521
68	0xbdcc5d42	-0.09978725
69	0xbdfbf6f4	-0.12302962
70	0xbd0eacb1	-0.03483266
71	0xbdc3ff31	-0.09570158
72	0xbe04aab4	-0.12955743
73	0x3d7d8973	0.06189866
74	0xbdb47696	-0.08811681
75	0xbda68e64	-0.081326276
76	0xbe4d3f0a	-0.20043579
77	0xbdce8832	-0.10084571
78	0xbddeff1d	-0.10888503
79	0xbcec01a8	-0.028809384
80	0x3c489eca	0.0122448895
81	0x3c607cf8	0.01370167
82	0x3cdb9ff9	0.02680968
83	0xbe06088d	-0.130892
84	0xbda85394	-0.08219066
85	0xbd21cb98	-0.039500803
86	0xbdd66bca	-0.10469778
87	0xbdb37195	-0.087618984
88	0xbe26f61b	-0.1630482
89	0xbe0a23c0	-0.134902
90	0xbceafa26	-0.028683733
91	0x3d37a054	0.044830635
92	0xbbf7c4d9	-0.007561308
93	0xbdc2e9c8	-0.095172465
94	0xbdb68d9e	-0.0891373
95	0xbdeb4b05	-0.11488918
96	0x3d47d6fb	0.048789006
97	0xbce38a29	-0.02777584
98	0xbc49c2a3	-0.012314471
99	0xbd6121cc	-0.05496387
100	0xbd446c5a	-0.047954895
101	0xbe2ea986	-0.17056856
102	0xbde6b43d	-0.112648465
103	0xbdddcea9	-0.10830433
104	0xbdb33b02	-0.08751489
105	0xbe179c24	-0.14805657
106	0xbd46ecef	-0.0485658
107	0x3d02c27b	0.031923752
108	0x3d5eff79	0.054442856
109	0xbdcaa400	-0.09894562
110	0xbe699588	-0.22810948
111	0x3d1ae2a0	0.037813783
112	0x3d5c8096	0.053833567
113	0xbe1e0a26	-0.15433559
114	0xbd8a455a	-0.06751509
115	0xbd0d79e6	-0.03454008
116	0xbe017951	-0.12643935
117	0xbe2556a5	-0.16146334
118	0xbdc864b8	-0.097848356
119	0xbe07c7d7	-0.13259827
120	0xbe1c4563	-0.15260844
121	0xbde82a1b	-0.11336156
122	0x3cb444b1	0.02200541
123	0xbe27ac5f	-0.16374348
124	0xbd74dfcc	-0.05978374
125	0xbe0bf1a6	-0.136664
126	0x3dd1c922	0.10243441
127	0xbda90a3c	-0.08253905
128	0x3d9156cf	0.070966356
129	0x3db1cacb	0.08681258
130	0x3c7c2da9	0.015391746
131	0xbdd2c8c8	-0.10292202
132	0x3d4b7c84	0.049679294
133	0x3da55172	0.08072175
134	0xbdbccfea	-0.09219344
135	0x3df6b0a8	0.12045413
136	0x3dee3c01	0.116325386
137	0xbdad4718	-0.08460826
138	0x3cc23383	0.023706203
139	0x3d4b340b	0.04961018
140	0xbd9c2e94	-0.076260716
141	0x3dcd1883	0.10014441
142	0xbca10682	-0.019656423
143	0x3d56d0c7	0.0524452
144	0xbde23bd8	-0.110465705
145	0x3bf3a98e	0.007435984
146	0x3d6277d7	0.05529007
147	0xbdb6af4a	-0.089201525
148	0x3cf2c5e9	0.029635387
149	0xbd522c27	-0.05131164
150	0xbd8e823b	-0.06958433
151	0xbdbbd0de	-0.09170698
152	0x3d0a5476	0.033771954
153	0x3c91356b	0.017725667
154	0x3d5c4365	0.05377521
155	0x3db2a2a1	0.08722425
156	0xbca45468	-0.02005978
157	0x3d987ff0	0.07446277
158	0x3dd57e0e	0.10424434
159	0xbcc3c061	-0.023895444
160	0xbdae0ded	-0.0849875
161	0xbd2377eb	-0.039909285
162	0xbd97eea0	-0.07418561
163	0xbcdb2042	-0.02674878
164	0x3d8e1b5f	0.06938814
165	0xbdd0d338	-0.10196537
166	0xbd82fc48	-0.06395775
167	0xbcad0970	-0.021122664
168	0x3da8dbe5	0.082450666
169	0xbdb5d776	-0.088789865
170	0x3c005016	0.007831594
171	0x3de33dc3	0.110957645
172	0x3d90c7f3	0.07069387
173	0xbdad355b	-0.084574424
174	0xbd967565	-0.0734661
175	0xbd4b395d	-0.049615253
176	0xbb71e7b2	-0.0036911783
177	0x3d8f66cd	0.070020296
178	0xbbe7fc9b	-0.0070796735
179	0xbe01e7c3	-0.12686066
180	0x3d4fff4a	0.050780572
181	0xbc559d71	-0.013038025
182	0xbd8d8cd5	-0.06911627
183	0xbdbc83a4	-0.09204796
184	0x3d55cf3b	0.052199584
185	0xbc7c30b1	-0.015392468
186	0xbd6b1c84	-0.05740024
187	0xbda788d7	-0.08180397
188	0x3dbde95f	0.09273028
189	0xbdf472da	-0.11935969
190	0x3de49966	0.11162071
191	0xbdd9b63d	-0.10630462
192	0xbdcd8f04	-0.10037044
193	0xbd0ad5bc	-0.03389524
194	0xbcbcf148	-0.02306427
195	0x3da66ad8	0.081258476
196	0xbcf26895	-0.029590884
197	0xbc4afd99	-0.012389564
198	0x3cba1d2c	0.022718988
199	0x3e2aeb9c	0.1669144
200	0x3e0ce522	0.13759282
201	0x3dae71ad	0.08517776
202	0x3e049eba	0.12951174
203	0x3dc9d32d	0.09854732
204	0x3dea2fa5	0.11434869
205	0xbbb76080	-0.0055962205
206	0xbcefaec3	-0.029258138
207	0x3d196e86	0.03745892
208	0x3d97791c	0.07396147
209	0xbcf2b1c9	-0.02962579
210	0x3daf08f8	0.085466325
211	0xbac4d717	-0.0015017715
212	0x3d9400b1	0.072266944
213	0xbdbd9a95	-0.09258
214	0xbb333ef6	-0.002735076
215	0x3d02b214	0.03190811
216	0x3e35d757	0.17757927
217	0x3e5d7f83	0.21630673
218	0x3cc7b9c4	0.024380572
219	0xbc831a5a	-0.016003776
220	0x3c13e937	0.009027771
221	0x3dfb66e5	0.12275485
222	0xbd09b142	-0.03361631
223	0x3cc3d6e9	0.023906188
224	0x3dd12e1a	0.10213871
225	0xbde1af1a	-0.11019726
226	0x3d868239	0.06567807
227	0x3d73391f	0.059380647
228	0xbe1cab30	-0.15299678
229	0xbdba8fb8	-0.091094434
230	0x3dd77787	0.10520845
231	0xbe2b6f20	-0.1674161
232	0x3d115da1	0.035489682
233	0xbddf4c38	-0.109032094
234	0xbc8d0ff8	-0.017219529
235	0x3d254476	0.040348493
236	0xbe0059a7	-0.125342
237	0x3e1cafd7	0.15301453
238	0x3de361e4	0.111026555
239	0x3d8b501c	0.06802389
240	0xbda81c20	-0.082084894
241	0x3d7ff6ab	0.0624911
242	0xbd5fb096	-0.054611765
243	0x3dbd1e7d	0.09234331
244	0xbd8c32ee	-0.068456516
245	0xbdc16294	-0.094426304
246	0xbc985bab	-0.018598398
247	0x3d0f85e3	0.035039794
248	0x3d71f7a6	0.059074067
249	0x3e0fa881	0.14029123
250	0x3da52aa3	0.08064773
251	0x3a63dbd8	0.0008692122
252	0x3e522063	0.20520167
253	0x3cfc1b9f	0.03077489
254	0x3d6797d2	0.05654127
255	0xbc3cf717	-0.01153352
