api/data/models/ASML.AS_v3_multihead.pt (torch, 512235 bytes, 30 tensors)

gru.weight_ih_l0 f4 [192, 22]
-0.019946672 -0.0037804919 -0.20213784 -0.15006545 0.17534073 0.03765418 0.09191241 0.035910755
-0.08986656 0.21626492 -0.08102631 -0.14475915 -0.19255775 -0.08946287 -0.20609608 -0.202745
-0.05805799 -0.10757504 -0.07134699 -0.038260132 -0.18499011 -0.028548207 -0.18325031 -0.084355526
-0.088001676 -0.13105737 0.06821765 -0.052939102 0.021806069 0.08140093 0.057989597 0.14372247
-0.088318676 -0.21651171 -0.08410715 -0.19564971 -0.30989805 -0.07013487 -0.053938605 -0.14247051
-0.061849862 0.076456234 0.013183422 0.10541548 0.16626507 0.06365154 -0.0052095433 0.110507235
0.15274684 -0.088458076 -0.006990647 -0.13901135 0.13761854 0.24256161 0.15275496 -0.032204356
-0.038290657 -0.0021027774 -0.048388038 0.026993424 0.0463523 -0.08706876 0.14497821 0.0946684
0.07374131 0.104209185 0.3038746 0.23570767 0.3029603 0.28154987 0.2018504 0.02300424
0.118509285 -0.13040064 -0.13074695 0.090873465 0.22553176 0.103610575 -0.148849 -0.20501152
-0.3987799 -0.08353462 -0.032088745 -0.19547781 0.26587468 0.23933426 -0.25811255 -0.15226138
0.18590452 0.15181312 0.16263019 0.25362483 -0.11060094 -0.03304138 -0.1772631 0.09731323
-0.0888986 -0.21599828 0.09252824 0.23368457 -0.13084708 -0.093727976 -0.2933472 0.111991934
-0.22625591 -0.15361701 0.065465406 0.08541639 0.14874491 0.028188042 0.18288791 0.120356336
-0.03065695 0.091259815 0.2474391 0.17578723 -0.027525121 -0.17159346 0.008573175 -0.15327205
0.18650371 0.1675355 0.10005228 0.040878538 -0.10262376 0.051075935 0.054254897 0.04172162
0.15101683 0.121013954 -0.04679161 0.28700384 0.14503083 0.11128951 0.21489288 0.19323342
-0.032544266 0.16524287 -0.02236663 -0.017048972 0.077344045 -0.09145341 0.23909009 0.19932744
0.044298574 0.104690984 -0.0060685333 0.10996623 0.10568189 0.109642416 0.20384318 0.10922989
-0.10237998 -0.17325363 -0.044279285 0.09789434 -0.06146074 -0.041563045 0.09088831 0.27053624
0.2991531 -0.028195122 -0.22421075 0.092769906 0.026245637 0.13008562 -0.03532501 -0.13156082
-0.016189799 -0.026516458 0.109521605 0.15424156 -0.029045029 0.008604617 0.12339925 0.089437485
-0.07553408 0.15900998 0.0350839 0.006896925 -0.04334194 0.07350512 -0.06645844 -0.24351704
0.13423808 0.28446814 -0.061133567 -0.028728543 0.06504536 -0.029255196 0.053468812 -0.16002502
0.07143476 0.11168531 0.11357555 0.02556309 -0.1513704 -0.011177082 -0.10404072 -0.08992976
-0.13905445 0.041098412 -0.065092355 -0.20511837 -0.12855354 -0.10028932 -0.013682769 -0.08236181
0.049138542 -0.14271738 0.091876134 0.12285229 0.2600472 0.015287827 -0.11897104 0.09136263
0.0008745929 -0.10903959 0.07472988 0.045576178 -0.15445298 0.034650426 0.050320327 0.0705714
0.10440669 -0.035258323 0.019212063 0.24536443 -0.24215162 -0.23501483 -0.12496723 -0.16301887
0.11543308 0.16883188 -0.02582482 0.012282086 -0.04691134 0.0066037187 -0.13501526 0.085935585
0.08789467 0.020927612 -0.0092186155 -0.06252312 -0.11739327 -0.12670493 0.24496023 0.003909016
0.14416288 -0.096263416 0.13192391 0.27607444 -0.16701062 -0.03946192 0.030133849 -0.046395354
00000000: 3467 a3bc 21c2 77bb 39fd 4ebe c2aa 19be
00000010: 858c 333e 453b 1a3d 933c bc3d 2817 133d
00000020: f60b b8bd 8d74 5d3e 1ff1 a5bd be3b 14be
00000030: dc2d 45be 4f38 b7bd da0a 53be 639c 4fbe
00000040: 37ce 6dbd 4d50 dcbd 5f1e 92bd a8b6 1cbd
00000050: 0c6e 3dbe eedd e9bc f8a5 3bbe 97c2 acbd
00000060: 393a b4bd e733 06be b2b5 8b3d acd6 58bd
00000070: a4a2 b23c 88b5 a63d 8086 6d3d fc2b 133e
00000080: 6ce0 b4bd 3fb5 5dbe 5f40 acbd 6658 48be
00000090: f5aa 9ebe dfa2 8fbd baee 5cbd cae3 11be
000000a0: 4856 7dbd 1695 9c3d 48ff 573c 12e4 d73d
000000b0: 6441 2a3e bd5b 823d d1b4 aabb 9e51 e23d
000000c0: ab69 1c3e 8229 b5bd cc11 e5bb fe58 0ebe
000000d0: e0eb 0c3e 1262 783e cc6b 1c3e b7e8 03bd
000000e0: aad6 1cbd c0ce 09bb 8932 46bd 5021 dd3c
000000f0: e9db 3d3d 1b51 b2bd 2b75 143e 82e1 c13d
00000100: af05 973d a06b d53d 7495 9b3e 5a5d 713e
00000110: 9d1d 9b3e 4e27 903e dfb1 4e3e 6373 bc3c
00000120: ffb4 f23d bf87 05be 87e2 05be de1b ba3d
00000130: ccf1 663e c831 d43d df6b 18be 8aee 51be
00000140: e12c ccbe 3314 abbd 7d6f 03bd 562b 48be
00000150: ba20 883e 0a14 753e 5427 84be 68ea 1bbe
00000160: c15d 3e3e e674 1b3e 8788 263e 1ddb 813e
00000170: bf82 e2bd 6656 07bd 7584 35be 294c c73d
00000180: 7810 b6bd a72e 5dbe 727f bd3d 024b 6f3e
00000190: c7fc 05be 74f4 bfbd 9b31 96be 075c e53d
000001a0: a1af 67be c74d 1dbe ba12 863d caee ae3d
000001b0: 9650 183e 9cea e63c f846 3b3e 627d f63d
000001c0: 4924 fbbc 6de6 ba3d ad60 7d3e 9101 343e
000001d0: 5d7c e1bc 32b6 2fbe 8176 0c3c 59f3 1cbe
000001e0: d4fa 3e3e 6d8e 2b3e 36e8 cc3d 4170 273d
000001f0: 682c d2bd 0035 513d 623a 5e3d 4ae4 2a3d
00000200: 28a4 1a3e 2ad6 f73d 8fa8 3fbd 2bf2 923e
00000210: f682 143e c1eb e33d e10c 5c3e fbde 453e
00000220: 234d 05bd 6d35 293e 393a b7bc 49aa 8bbc
00000230: 8e66 9e3d ed4b bbbd 08d4 743e 7e1c 4c3e
00000240: 6c72 353d 3a68 d63d 8cda c6bb fa35 e13d
00000250: bf6f d83d 348c e03d 44bc 503e ecb3 df3d
00000260: 98ac d1bd 6669 31be 325e 35bd d47c c83d
00000270: 42be 7bbd 033e 2abd a623 ba3d ba83 8a3e
00000280: 982a 993e 75f9 e6bc 8197 65be 26fe bd3d
00000290: 1701 d73c 2a35 053e f5b0 10bd e1b7 06be
000002a0: 78a0 84bc 0b39 d9bc dd4c e03d 80f1 1d3e
000002b0: d7ef edbc 61fa 0c3c bfb8 fc3d 002b b73d
000002c0: 9db1 9abd 83d3 223e 23b4 0f3d 9aff e13b
000002d0: 5187 31bd da89 963d 5d1b 88bd 885c 79be
000002e0: b575 093e cfa5 913e 3167 7abd 1f58 ebbc
000002f0: 8036 853d 98a8 efbc 1d02 5b3d 99dd 23be
00000300: 634c 923d 45bb e43d 4c9a e83d af69 d13c
00000310: d800 1bbe 1420 37bc 4d13 d5bd 182d b8bd
00000320: 4a64 0ebe cf56 283d 244f 85bd 8d0a 52be
00000330: 8aa3 03be 7d64 cdbd b12d 60bc 4fad a8bd
00000340: 7f45 493d 8124 12be 8e29 bc3d fb99 fb3d
00000350: e824 853e cb79 7a3c 17a7 f3bd 551c bb3d
00000360: f044 653a 2650 dfbd fb0b 993d 16ae 3a3d
00000370: ec28 1ebe 9bed 0d3d b01c 4e3d bd87 903d
00000380: 2dd3 d53d 086b 10bd 9e62 9d3c d040 7b3e
00000390: 98f6 77be baa7 70be d2ee ffbd 6bee 26be
000003a0: 2e68 ec3d 44e2 2c3e 938e d3bc cd3a 493c
000003b0: 1b26 40bd 0264 d83b 7141 0abe fffe af3d
000003c0: 1f02 b43d 6270 ab3c ad09 17bc 1f0c 80bd
000003d0: e26b f0bd f0be 01be dbd6 7a3e 3417 803b
000003e0: 6f9f 133e c125 c5bd 1017 073e a159 8d3e
000003f0: d504 2bbe d2a2 21bd 43db f63c 0e09 3ebd

gru.weight_hh_l0 f4 [192, 64]
0.13022445 0.096016556 -0.1957474 0.033737317 -0.109661005 0.10637704 -0.09960392 0.12506351
0.2144962 0.009349128 0.070689976 -0.12107176 0.089734286 0.047163587 -0.050581623 -0.101148136
0.06954642 0.2581089 0.12779264 0.13184972 0.10780009 -0.17926772 -0.00493862 0.17449498
0.12848306 -0.0568113 0.24136779 0.029294353 -0.1714501 0.025531355 0.24611393 0.054396562
0.17560929 0.011178037 0.11585293 -0.10189477 -0.2650486 -0.034497052 0.19202954 -0.08401588
-0.22785039 0.3308476 -0.14103791 0.055850416 0.18237986 0.009042842 -0.12525809 -0.010739211
-0.29547828 0.19872318 0.07218569 -0.012220715 -0.23181674 -0.4286196 0.019340122 0.04995354
0.030072184 -0.13927439 0.030631129 -0.0091973925 0.0013828727 0.032902528 0.09687064 0.04884069
0.17895086 0.036202118 -0.1715808 -0.03919745 -0.05102471 0.19134483 0.026089424 0.13932486
-0.10267039 -0.12793165 0.16999206 -0.034870103 0.015717804 -0.16272843 -0.17651615 -0.048149016
0.00032098137 -0.08417503 0.09180806 0.058878534 0.02421268 0.12879387 0.055787846 0.090812124
0.0029011345 0.17813572 -0.027462889 0.04638727 -0.040134143 -0.059428267 -0.1415882 0.013032349
0.09308008 -0.05188816 -0.24360712 0.09807956 -0.009337348 0.09383663 0.15528975 -0.02488583
0.05871792 -0.0076348633 0.13757914 0.043591097 -0.042800732 0.061524555 0.16884269 -0.09054441
0.08961947 -0.06931426 0.0014195311 0.19681928 -0.007901579 -0.057094354 0.00854465 0.054349225
0.022591498 -0.14576499 0.08633648 -0.10041638 0.07947557 0.123668276 -0.114749245 -0.22135027
0.042649206 -0.06804754 0.11562877 -0.08363105 0.2470368 0.12193679 -0.07821723 -0.039324246
-0.121986724 -0.2042032 0.14188494 -0.0014496688 -0.033385362 0.04817535 0.049708642 0.048909534
-0.10521396 -0.019793332 -0.123217694 0.12131629 0.12974459 -0.04987232 0.1060041 -0.1387789
-0.13151984 -0.049451355 0.080778986 -0.065068714 -0.075743295 -0.043201327 -0.026016828 0.03883156
-0.018807612 0.15363818 -0.024377804 -0.0407185 0.0025569208 0.050009936 0.0023736185 -0.2293293
0.06507772 0.12803152 0.1589603 -0.108445786 -0.019401034 0.12710212 -0.15486751 0.02686934
0.03184074 0.057146233 0.08812039 0.114146225 0.06748129 -0.18845253 -0.09053028 0.024172438
0.15594889 0.018519456 0.046357285 -0.16701575 0.10416056 -0.09475873 0.15041123 -0.04470573
0.15316308 0.048335124 -0.13271856 -0.35082388 -0.056284297 0.11177573 -0.19273533 -0.12505415
0.022009913 0.13594346 -0.08802991 -0.13192771 -0.040242355 0.11518071 0.024443556 -0.20033629
0.031593315 -0.01542348 0.06675583 0.015468981 -0.06541534 -0.14879613 0.19676062 0.11177358
0.005425631 0.0199511 0.21426816 -0.061752252 -0.10657933 0.018312575 0.087568775 0.009586211
-0.07173895 0.06004225 0.003964892 0.19875976 -0.04628218 -0.058737814 -0.067759514 -0.26853317
0.14275299 0.19649062 -0.083942465 0.18353532 0.11345656 -0.22218347 0.04334861 0.032981724
-0.0819091 0.15242684 -0.06902994 -0.10287882 -0.23162429 -0.020217562 0.15194654 -0.1398644
-0.16405255 -0.22426781 0.28209442 -0.0643163 -0.000559809 -0.074492596 0.23108937 -0.21191262
00000000: 8f59 053e 54a4 c43d 0272 48be 2430 0a3d
00000010: f395 e0bd 35dc d93d 24fd cbbd a610 003e
00000020: e4a4 5b3e 162d 193c e8c5 903d 79f4 f7bd
00000030: 9cc6 b73d 9b2e 413d ad2e 4fbd c126 cfbd
00000040: 5a6e 8e3d da26 843e 13dc 023e 9d03 073e
00000050: 4bc6 dc3d f591 37be 26d4 a1bb d0ae 323e
00000060: 1091 033e f7b2 68bd 1e29 773e b6fa ef3c
00000070: 9d90 2fbe 2227 d13c 4a05 7c3e eece 5e3d
00000080: ecd2 333e 1624 373c 4d44 ed3d 35ae d0bd
00000090: 73b4 87be c84c 0dbd 64a3 443e 8510 acbd
000000a0: 9d51 69be db64 a93e 3e6c 10be 68c3 643d
000000b0: c9c1 3a3e 6e28 143c a843 00be 84f3 2fbc
000000c0: ee48 97be 177e 4b3e 17d6 933d 6539 48bc
000000d0: 5e61 6dbe 0774 dbbe 2d6f 9e3c 159c 4c3d
000000e0: f159 f63c f29d 0ebe 22ee fa3c a9b0 16bc
000000f0: 8241 b53a cdc4 063d 1d64 c63d 2d0d 483d
00000100: e53e 373e ac48 143d e1b2 2fbe 818d 20bd
00000110: 49ff 50bd e6ef 433e 7db9 d53c 2dab 0e3e
00000120: da44 d2bd 8400 03be 6612 2e3e f4d3 0ebd
00000130: a0c2 803c 48a2 26be a6c0 34be e737 45bd
00000140: 6449 a839 f563 acbd dd05 bc3d 9e2a 713d
00000150: ac59 c63c 8ae2 033e cc81 643d b5fb b93d
00000160: f620 3e3b 3669 363e daf9 e0bc 9400 3e3d
00000170: b363 24bd 0e6b 73bd 7ffc 10be a285 553c
00000180: c5a0 be3d ae88 54bd 2574 79be f0dd c83d
00000190: adfb 18bc 6b2d c03d 4704 1f3e 5edd cbbc
000001a0: 3482 703d e02d fabb 8ce1 0c3e 948c 323d
000001b0: d24f 2fbd 2c01 7c3d 19e5 2c3e 596f b9bd
000001c0: 6a8a b73d a2f4 8dbd 8f0f ba3a fe8a 493e
000001d0: a075 01bc c5db 69bd dcfe 0b3c 4b9d 5e3d
000001e0: ce11 b93c 6b43 15be 2ed1 b03d 1aa7 cdbd
000001f0: 16c4 a23d cb45 fd3d a701 ebbd a5a9 62be
00000200: efb0 2e3d 825c 8bbd c7ce ec3d c246 abbd
00000210: 37f7 7c3e ffb9 f93d 5b30 a0bd 7612 21bd
00000220: 2dd4 f9bd a51a 51be 494a 113e d002 beba
00000230: 17bf 08bd 8453 453d 4a9b 4b3d 5d55 483d
00000240: 6b7a d7bd a025 a2bc 8f59 fcbd ad74 f83d
00000250: c4db 043e eb46 4cbd ad18 d93d 0e1c 0ebe
00000260: 23ad 06be 818d 4abd 746f a53d bf42 85bd
00000270: 4d1f 9bbd e0f3 30bd 3e21 d5bc d80d 1f3d
00000280: 6c12 9abc 5453 1d3e f6b3 c7bc 71c8 26bd
00000290: 0392 273b 38d7 4c3d b68e 1b3b 4dd5 6abe
000002a0: 7847 853d b21a 033e 7dc6 223e d318 debd
000002b0: ebee 9ebc 0f27 023e 9795 1ebe 171d dc3c
000002c0: 706b 023d 2b12 6a3d 7778 b43d 7fc5 e93d
000002d0: a133 8a3d b3f9 40be f067 b9bd 4705 c63c
000002e0: 11b1 1f3e 1db6 973c 23e1 3d3d 2d06 2bbe
000002f0: 2252 d53d dd10 c2bd 6705 1a3e 5b1d 37bd
00000300: c8d6 1c3e 0dfb 453d 60e7 07be 309f b3be
00000310: 5d8a 66bd adea e43d 695c 45be 320e 00be
00000320: 224e b43c c334 0b3e 0749 b4bd 0f18 07be
00000330: 2bd5 24bd dde3 eb3d da3d c83c f524 4dbe
00000340: fe67 013d c4b2 7cbc 48b7 883d 9c71 7d3c
00000350: 7af8 85bd 035e 18be 9e7b 493e 8ce9 e43d
00000360: 7ec9 b13b 7d70 a33c 1d69 5b3e eeef 7cbd
00000370: 4446 dabd 4104 963c 4257 b33d 7c0f 1d3c
00000380: dfeb 92bd ddee 753d edeb 813b ae87 4b3e
00000390: 6292 3dbd 1097 70bd 80c5 8abd 2e7d 89be
000003a0: d72d 123e d634 493e 07ea abbd aff0 3b3e
000003b0: ea5b e83d 1084 63be 508e 313d d817 073d
000003c0: f5bf a7bd c815 1c3e 925f 8dbd 21b2 d2bd
000003d0: eb2e 6dbe 4d9f a5bc e097 1b3e 9d38 0fbe
000003e0: 64fd 27be 76a6 65be ae6e 903e 44b8 83bd
000003f0: 25c0 12ba 938f 98bd b1a2 6c3e 9fff 58be

gru.bias_ih_l0 f4 [192]
0.088764556 0.19415739 -0.08159014 0.054335564 0.08526279 0.07297894 0.12580895 -0.040246837
-0.041429564 -0.057937082 0.090654574 -0.04394952 0.080876835 -0.07838975 -0.008375603 0.056341
-0.006875183 0.00078543683 -0.0599519 -0.09672953 0.10308135 -0.123843 -0.14890733 0.120394565
0.0990448 0.06880527 0.06020372 -0.020376379 0.077919036 0.027002428 0.078634664 -0.12391317
-0.044444423 -0.131294 0.044711437 -0.08126428 -0.10385231 -0.17420888 0.039813895 -0.00576201
-0.14664845 -0.122082695 -0.087740496 -0.08410259 -0.14871724 -0.1409714 0.01515776 -0.13620147
0.03715135 -0.0010386381 0.07411312 -0.1968457 -0.0043238983 -0.031699006 -0.053254727 -0.06904489
-0.08571514 -0.29842395 0.10585888 0.03137132 -0.13494243 -0.12823609 -0.055469032 0.010750314
-0.016577974 0.30441862 0.27144837 0.14692545 0.01640518 -0.17564298 0.048647027 0.113467045
0.147281 0.119001195 0.018603759 0.11774497 0.05778092 0.043234393 0.13523221 0.061281767
-0.31108242 -0.054101154 0.067182876 0.1116338 -0.07126938 -0.023890123 -0.2879714 -0.087455355
-0.13776278 -0.04657229 -0.20507479 -0.25212836 0.19516629 0.091596015 0.2722284 0.065802805
-0.005613084 0.09431073 0.061119825 -0.13840754 0.14927298 0.027921967 -0.025296403 -0.017873462
-0.03747506 -0.06714898 0.20383309 0.060192596 0.12780473 -0.072377264 0.03754953 -0.090466335
0.09777592 0.038335107 0.09881993 0.08508431 0.03850503 -0.12258358 0.0052287527 -0.28322518
-0.100073576 -0.02539584 -0.056696773 0.05534014 0.030085547 0.11036679 -0.023509242 0.07660889
0.1127597 0.05083046 -0.021489456 -0.04187828 -0.12634651 -0.03610197 0.09006836 0.027142623
0.052957214 0.059092686 0.054484464 -0.09610643 -0.15459184 0.074919984 -0.029668326 -0.06943801
-0.02637132 0.0023427021 -0.059288144 -0.013319601 -0.04824185 0.123872824 0.047869816 -0.026483636
0.07503013 0.0917454 0.015389448 0.08170116 0.05556575 0.04254251 0.046261825 0.113689825
0.019058397 0.0527113 -0.0028285056 0.057353575 -0.033715155 0.059400834 0.043398146 -0.115574144
-0.029789586 0.15161213 0.10000296 0.07040445 0.004416153 -0.028316393 0.1363952 0.12338561
0.046036452 -0.06949046 0.08634682 0.047668263 0.042190187 0.09111814 0.103125736 -0.050081886
-0.032437507 0.102940045 0.061058644 0.009571329 -0.10824023 0.07969774 -0.014791686 0.047136832
00000000: 31ca b53d 32d1 463e bb18 a7bd f88e 5e3d
00000010: 429e ae3d fc75 953d 10d4 003e ded9 24bd
00000020: 0cb2 29bd 6f4f 6dbd 1ba9 b93d 6904 34bd
00000030: c1a2 a53d ce8a a0bd d339 09bc d2c5 663d
00000040: 3749 e1bb c6e5 4d3a 2090 75bd 221a c6bd
00000050: 511c d33d 66a1 fdbd 2a7b 18be 6d91 f63d
00000060: 00d8 ca3d c7e9 8c3d 2d98 763d 5dec a6bc
00000070: 0494 9f3d 3234 dd3c 360b a13d 30c6 fdbd
00000080: 5b0b 36bd ef71 06be 5723 373d e36d a6bd
00000090: 85b0 d4bd d063 32be e513 233d 3ecf bcbb
000000a0: 032b 16be 7e06 fabd 4ab1 b3bd fb3d acbd
000000b0: 5549 18be cf5a 10be 4158 783c 6678 0bbe
000000c0: 042c 183d e922 88ba 9fc8 973d eb91 49be
000000d0: 7daf 8dbb d1d6 01bd a121 5abd 6867 8dbd
000000e0: 6b8b afbd 06cb 98be 8acc d83d 377f 003d
000000f0: 592e 0abe 5250 03be 7f33 63bd 1622 303c
00000100: 88ce 87bc c2dc 9b3e 48fb 8a3e a073 163e
00000110: 2864 863c c1db 33be 1b42 473d 6961 e83d
00000120: d5d0 163e e6b6 f33d e966 983c 4624 f13d
00000130: b0ab 6c3d 8c16 313d 507a 0a3e 9702 7b3d
00000140: 3246 9fbe 2c99 5dbd 2d97 893d 43a0 e43d
00000150: aef5 91bd 38b5 c3bc fd70 93be cb1b b3bd
00000160: b011 0dbe 96c2 3ebd 20ff 51be f816 81be
00000170: acd9 473e b196 bb3d 8561 8b3e 9fc3 863d
00000180: f6ed b7bb fc25 c13d c858 7a3d b5ba 0dbe
00000190: 04db 183e 9cbc e43c 673a cfbc 5e6b 92bc
000001a0: 737f 19bd 6885 89bd 9fb9 503e 838c 763d
000001b0: 3edf 023e 883a 94bd 89cd 193d 6a46 b9bd
000001c0: be3e c83d 4605 1d3d 1a62 ca3d af40 ae3d
000001d0: 73b7 1d3d 1a0d fbbd f555 ab3b e402 91be
000001e0: 60f3 ccbd f00a d0bc e03a 68bd 58ac 623d
000001f0: f775 f63c fc07 e23d 7496 c0bc 1fe5 9c3d
00000200: 8fee e63d 9a33 503d a80a b0bc 8f88 2bbd
00000210: fb60 01be a9df 13bd c375 b83d 355a de3c
00000220: aae9 583d 2c0b 723d 1a2b 5f3d 73d3 c4bd
00000230: 534d 1ebe a66f 993d fd0a f3bc 8435 8ebd
00000240: ab08 d8bc 0588 193b 20d8 72bd 753a 5abc
00000250: 3f99 45bd 09b1 fd3d 2413 443d 36f4 d8bc
00000260: 66a9 993d 03e5 bb3d 0624 7c3c f052 a73d
00000270: e998 633d 0e41 2e3d 0a7d 3d3d 36d6 e83d
00000280: 5b20 9c3c cee7 573d 735e 39bb 95eb 6a3d
00000290: e718 0abd 4a4e 733d 41c2 313d 23b2 ecbd
000002a0: 4a09 f4bc 3640 1b3e 5ace cc3d 3530 903d
000002b0: 60b5 903b c8f7 e7bc 2fab 0b3e 98b1 fc3d
000002c0: b890 3c3d 0451 8ebd 9ad6 b03d cc3f 433d
000002d0: 9ecf 2c3d 269c ba3d 9633 d33d aa22 4dbd
000002e0: 31dd 04bd 3bd2 d23d a118 7a3d 10d1 1c3c
000002f0: 0ead ddbd 9238 a33d d458 72bc 8d12 413d

gru.bias_hh_l0 f4 [192]
0.17448157 -0.024106095 -0.021047136 0.10115512 0.006435346 -0.062305894 -0.08824439 -0.14241707
-0.011919116 0.036308493 -0.010672081 -0.12028422 -0.07825283 0.053746846 -0.09169356 -0.07879018
0.15374072 -0.04213046 0.096810795 -0.14933737 -0.0031409275 -0.07461729 -0.11651424 0.1348069
0.122152075 -0.08810543 -0.090575606 -0.031781096 0.08459352 -0.020324621 0.003597394 -0.062785886
-0.083449535 -0.10067985 -0.015721792 -0.026855543 0.1275418 -0.10661652 0.0356187 -0.02502685
-0.09474604 -0.048903536 0.02369796 -0.12922323 -0.022258079 -0.082576305 0.10286249 0.05437485
-0.16332264 0.14561823 0.06067741 -0.12064842 0.12721072 -0.08283783 -0.043413527 -0.080005474
-0.0555473 -0.26780024 0.08025194 0.04613576 -0.08225549 0.065967776 0.052229673 0.008640577
0.06474812 0.37057942 0.2682128 0.1904291 0.016698958 -0.24694139 0.09208036 0.12062787
0.016987052 -0.05032865 0.033818953 0.106158085 -0.025088733 0.10587616 0.16240038 0.06524322
-0.24068074 0.08953701 0.24518654 -0.028831804 0.017083997 -0.0045569837 -0.33199733 0.013290813
-0.10278244 0.045049097 -0.24152134 -0.1639763 0.146655 0.048160966 0.26682732 -0.09032639
0.098486 0.073098645 -0.03259837 -0.14084533 0.19254963 0.22115211 0.06923947 -0.09824422
-0.1563393 0.16456535 0.18539715 0.13174893 0.11417336 0.076202184 -0.11019313 0.006702446
0.13402602 -0.032822702 0.097658716 0.10562904 -0.100252114 -0.29977763 -0.1376027 -0.2232717
-0.11306791 -0.1707209 -0.14035764 -0.06972757 -0.03735517 0.016940739 0.059345216 0.1266738
0.040197216 0.0057071247 0.07455953 -0.14949445 0.0197572 0.031814344 -0.11165742 0.07006777
-0.12666632 -0.11821808 -0.09362928 0.069665454 -0.0042981426 -0.037449937 -0.02792739 0.10906269
-0.09122927 0.113104135 0.10369934 0.07665651 -0.0017663476 0.020712737 -0.014074768 0.09165642
0.081025966 -0.051671036 -0.047284335 0.03933395 0.15295865 0.12079497 0.058357015 0.092798926
0.07619072 0.114876874 -0.008927815 0.018049367 0.054557435 0.15227754 0.012842573 0.04243324
-0.08270713 0.08810632 0.05526976 0.09468201 0.038155288 0.03447029 -0.09233873 0.015652888
0.042151198 0.025820777 0.13425094 -0.07312449 -0.09013981 -0.04313673 0.06509546 0.14683294
-0.057287116 -0.02732458 0.10668373 -0.11748872 -0.046643045 -0.05228752 -0.034502197 0.008634698
00000000: 4cab 323e 257a c5bc 0b6b acbc 6a2a cf3d
00000010: 98df d23b 7734 7fbd 7ab9 b4bd c8d5 11be
00000020: 6548 43bc 37b8 143d f4d9 2ebc 9357 f6bd
00000030: 0543 a0bd a725 5c3d d5c9 bbbd bf5c a1bd
00000040: 356e 1d3e fd90 2cbd bd44 c63d e5eb 18be
00000050: 05d8 4dbb f3d0 98bd 059f eebd d20a 0a3e
00000060: de2a fa3d 9f70 b4bd b47f b9bd e52c 02bd
00000070: 5e3f ad3d d27f a6bc 42c2 6b3b e395 80bd
00000080: 97e7 aabd 3d31 cebd fdca 80bc 2800 dcbc
00000090: 519a 023e c359 dabd eae4 113d 1c05 cdbc
000000a0: 360a c2bd 134f 48bd 3922 c23c 1853 04be
000000b0: 9356 b6bc c41d a9bd 92a9 d23d 2ab8 5e3d
000000c0: 0d3e 27be f21c 153e e088 783d 8516 f7bd
000000d0: 8743 023e e1a6 a9bd 62d2 31bd e9d9 a3bd
000000e0: 9185 63bd 1d1d 89be 215b a43d daf8 3c3d
000000f0: 9175 a8bd 1d1a 873d c8ee 553d 3591 0d3c
00000100: aa9a 843d 96bc bd3e 3053 893e d9ff 423e
00000110: 41cc 883c 34de 7cbe a194 bc3d bf0b f73d
00000120: 6e28 8b3c 6a25 4ebd be85 0a3d 6969 d93d
00000130: e386 cdbc 9ad5 d83d 494c 263e 3d9e 853d
00000140: 0375 76be 2e5f b73d 2e12 7b3e ad30 ecbc
00000150: bdf3 8b3c c052 95bb 8efb a9be b6c1 593c
00000160: 9a7f d2bd 6785 383d 5f51 77be 67e9 27be
00000170: ba2c 163e 6f44 453d 979d 883e 0bfd b8bd
00000180: 07b3 c93d beb4 953d de85 05bd c239 10be
00000190: bb2b 453e b375 623e 6ccd 8d3d 4434 c9bd
000001a0: 6917 20be d283 283e c0d8 3d3e 31e9 063e
000001b0: b9d3 e93d e40f 9c3d f0ac e1bd 31a0 db3b
000001c0: 1e3e 093e 1971 06bd 4b01 c83d 0a54 d83d
000001d0: fb50 cdbd 747c 99be b9e7 0cbe 56a1 64be
000001e0: 2690 e7bd 76d1 2ebe eab9 0fbe 54cd 8ebd
000001f0: bc01 19bd 4ec7 8a3c f813 733d c7b6 013e
00000200: d6a5 243d d502 bb3b abb2 983d 1315 19be
00000210: dad9 a13c c24f 023d a5ac e4bd b17f 8f3d
00000220: d1b4 01be 521c f2bd b5c0 bfbd c3ac 8e3d
00000230: 6fd7 8cbb 1b65 19bd fbc7 e4bc 425c df3d
00000240: 69d6 babd 24a3 e73d 5260 d43d 17fe 9c3d
00000250: ca84 e7ba c2ad a93c db99 66bc 5cb6 bb3d
00000260: f1f0 a53d 02a5 53bd 38ad 41bd a31c 213d
00000270: 31a1 1c3e 5a63 f73d c407 6f3d 5d0d be3d
00000280: e109 9c3d 9144 eb3d f845 12bc 44dc 933c
00000290: 9e77 5f3d a5ee 1b3e a869 523c 7ace 2d3d
000002a0: 5b62 a9bd 1671 b43d 8b62 623d a4e8 c13d
000002b0: b848 1c3d b830 0d3d 171c bdbd 7c3a 803c
000002c0: bca6 2c3d 1886 d33c 1479 093e 4bc2 95bd
000002d0: 399b b8bd 24b0 30bd c550 853d 605b 163e
000002e0: e5a5 6abd ccd7 dfbc 007d da3d ed9d f0bd
000002f0: c70c 3fbd 702b 56bd 2d52 0dbd 8c78 0d3c

gru.weight_ih_l0_reverse f4 [192, 22]
0.10424554 0.038265 0.06520581 0.18381758 -0.28522733 0.08878358 -0.007862605 0.13360482
0.06636888 -0.16161624 0.048239924 0.1914667 -0.042874843 -0.06502532 0.07471258 0.15162165
0.027288927 0.06640714 0.09175245 -0.15941954 0.11399555 -0.25610155 0.066353336 0.03206155
0.121127374 0.09919111 -0.050693177 -0.13521467 -0.04337018 -0.02223519 -0.024103468 0.06000529
0.054333426 0.07474034 0.0007831541 0.04256036 0.096487045 0.10006239 0.05069756 0.10084202
0.087513715 0.012690006 0.06795138 -0.14243868 0.13783866 0.12653407 -0.0013655812 0.06635783
-0.012899096 0.20292485 0.027669512 -0.046555523 0.042288195 0.08826523 0.0007986525 0.1664593
0.01923783 0.06491628 -0.03077686 0.180417 0.053837243 0.050296195 -0.060247466 -0.02043094
-0.08632984 -0.08173972 -0.038385358 -0.10569816 -0.08943521 -0.01851393 -0.016918365 -0.20147935
-0.20596102 -0.06934854 0.0021648547 -0.06049808 0.018510235 -0.015497193 0.2291146 0.042080298
0.0178618 0.110875785 -0.25587103 0.072392695 -0.025220335 -0.2657397 0.0574198 -0.16312145
-0.16485359 0.011237962 0.015979726 -0.13486186 -0.16966008 0.006068712 0.10569102 -0.14649644
0.23187125 -0.13198774 -0.1472433 0.09309371 -0.13188696 -0.15391876 0.069264695 0.045719225
-0.013735588 -0.02471769 0.018664427 -0.09122616 0.013407675 -0.21428737 0.07776761 -0.05736441
0.09153171 0.028897908 -0.11622082 -0.12455659 -0.08494791 0.19709326 -0.2769569 0.2844184
-0.0073597333 -8.053724e-05 0.04837668 0.026179435 0.035695452 0.09481132 -0.08731176 0.018999929
0.15000962 0.13439365 0.033659674 -0.015158492 -0.121087275 -0.019130895 -0.11607905 -0.015912198
0.07289348 -0.19274233 -0.0080830995 0.13799526 -0.039396305 0.045805834 0.023619993 0.075973324
0.26169732 0.12939617 0.23156825 -0.015114499 0.065670095 -0.10139152 -0.0011614956 -0.13395368
0.02888106 -0.02000087 0.23045161 0.09135541 0.23887616 0.26882395 -0.14877173 0.17896038
-0.11605156 0.09120266 0.04701057 0.07014648 0.051071733 0.2527789 -0.013274811 -0.0685096
0.11735585 -0.017155979 0.036797754 0.06567563 0.20638324 0.0043487162 0.15200448 0.10292477
-0.0237112 0.17548718 0.03565855 0.10876431 0.1619549 -0.16729386 -0.16523223 -0.23107
0.18140121 0.017997002 0.17682734 0.17118622 0.037089832 -0.1583746 -0.06606803 -0.13029207
-0.24704982 -0.001001569 0.18541229 -0.20954265 0.022929953 0.22293335 0.014076927 0.013901609
-0.09187594 0.12861885 -0.054761454 0.0148788225 -0.11207752 -0.115695156 0.07635105 -0.041830044
0.13327985 0.039779853 -0.040503178 0.0048415116 -0.004070135 0.11929487 0.033788357 0.10771508
-0.07785591 -0.19983059 -0.039637025 -0.0002534411 -0.047822986 -0.016873779 0.06037724 -0.012985601
0.07291574 0.15896966 0.26948896 -0.06001846 0.05499255 0.121101886 -0.055752695 0.0028472925
-0.011952489 -0.06466379 -0.0059775584 0.082840525 0.32215098 0.18403026 -0.10860828 0.2616399
0.04324044 0.055155914 0.10211395 -0.017487308 0.100345924 -0.022855049 0.03187378 0.2613826
0.3457245 0.014165077 -0.097488694 0.21454799 0.03342139 0.09829865 0.087094694 0.054573916
00000000: b07e d53d c3bb 1c3d a08a 853d ad3a 3c3e
00000010: 5109 92be 2ad4 b53d 28d2 00bc b4cf 083e
00000020: 68ec 873d ba7e 25be 3a97 453d d90f 443e
00000030: 889d 2fbd ff2b 85bd e902 993d b542 1b3e
00000040: 078d df3c 7700 883d b5e8 bb3d e03e 23be
00000050: 8076 e93d be1f 83be 42e4 873d f952 033d
00000060: a111 f83d b524 cb3d a6a3 4fbd b775 0abe
00000070: eea4 31bd 9326 b6bc a374 c5bc 1bc8 753d
00000080: ba8c 5e3d 7711 993d 954c 4d3a c653 2e3d
00000090: 009b c53d 83ed cc3d 3fa8 4f3d 4386 ce3d
000000a0: 643a b33d bee9 4f3c 182a 8b3d 72db 11be
000000b0: 9425 0d3e 2692 013e 4dfd b2ba 9de6 873d
000000c0: bb56 53bc 88cb 4f3e 2cab e23c 01b1 3ebd
000000d0: 6336 2d3d 67c4 b43d a95c 513a 4f74 2a3e
000000e0: a798 9d3c d4f2 843d c11f fcbc 3cbf 383e
000000f0: 7184 5c3d 6203 4e3d 0cc6 76bd c95e a7bc
00000100: b3cd b0bd 2867 a7bd f739 1dbd 4778 d8bd
00000110: cf29 b7bd 86aa 97bc 6298 8abc 9a50 4ebe
00000120: 72e7 52be 9b06 8ebd 3ce0 0d3b d6cc 77bd
00000130: c7a2 973c f0e7 7dbc 059d 6a3e 645c 2c3d
00000140: e952 923c d812 e33d 8701 83be 9f42 943d
00000150: e09a cebc 090f 88be 0631 6b3d 4f09 27be
00000160: 61cf 28be 6e1f 383c eae7 823c 3a19 0abe
00000170: 5fbb 2dbe 0cdc c63b 8974 d83d 2a03 16be
00000180: a86f 6d3e cb27 07be f3c6 16be eaa7 be3d
00000190: 600d 07be e19c 1dbe a6da 8d3d 1544 3b3d
000001a0: 3b0b 61bc c17c cabc 24e6 983c c8d4 babd
000001b0: ddab 5b3c 266e 5bbe a044 9f3d f2f6 6abd
000001c0: fa74 bb3d 4ebb ec3c 2e05 eebd 8717 ffbd
000001d0: 2bf9 adbd d1d2 493e 4bcd 8dbe 4a9f 913e
000001e0: eb29 f1bb 1ae6 a8b8 a026 463d 4176 d63c
000001f0: 6535 123d 702c c23d 82d0 b2bd bda5 9b3c
00000200: 1f9c 193e 7d9e 093e bade 093d 535b 78bc
00000210: 9bfc f7bd 65b8 9cbc daba edbd 4c5a 82bc
00000220: 2d49 953d 3f5e 45be fa6e 04bc a14e 0d3e
00000230: 055e 21bd e69e 3b3d b77e c13c e797 9b3d
00000240: 31fd 853e 6e80 043e 3a20 6d3e cea2 77bc
00000250: 0b7e 863d 5ba6 cfbd 533d 98ba 272b 09be
00000260: f997 ec3c ddd8 a3bc 82fb 6b3e 8c18 bb3d
00000270: f49b 743e 4ba3 893e 9e57 18be 6441 373e
00000280: 71ac edbd 76c8 ba3d 288e 403d f5a8 8f3d
00000290: 9830 513d 3c6c 813e 987e 59bc c34e 8cbd
000002a0: 4458 f03d b28a 8cbc 3eb9 163d f280 863d
000002b0: 2156 533e ad7f 8e3b 10a7 1b3e 39ca d23d
000002c0: fe3d c2bc e9b2 333e b30e 123d d3bf de3d
000002d0: 81d7 253e 154f 2bbe a332 29be 9d9d 6cbe
000002e0: 3dc1 393e 736e 933c 3a12 353e 714b 2f3e
000002f0: 82eb 173d f32c 22be ad4e 87bd 496b 05be
00000300: a1fa 7cbe 1447 83ba b8dc 3d3e 5992 56be
00000310: 99d7 bb3c a448 643e e9a2 663c 93c3 633c
00000320: 7429 bcbd a9b4 033e 8c4d 60bd 4ec6 733c
00000330: e688 e5bd 95f1 ecbd f05d 9c3d fb55 2bbd
00000340: 837a 083e 33f0 223d a9e6 25bd 8ba5 9e3b
00000350: c45e 85bb de50 f43d a965 0a3d b999 dc3d
00000360: eb72 9fbd 64a0 4cbe 6f5a 22bd 4ae0 84b9
00000370: 09e2 43bd e13a 8abc 204e 773d 8fc1 54bc
00000380: d954 953d f1c8 223e 75fa 893e ebd5 75bd
00000390: de3f 613d 4404 f83d f05c 64bd a499 3a3b
000003a0: 5fd4 43bc 736e 84bd 65df c3bb 4ba8 a93d
000003b0: f9f0 a43e 6e72 3c3e 056e debd aaf5 853e
000003c0: e31c 313d 2beb 613d 1e21 d13d 8b41 8fbc
000003d0: 2a82 cd3d 833a bbbc 158e 023d f1d3 853e
000003e0: cd02 b13e a414 683c 27a8 c7bd 78b2 5b3e
000003f0: dee4 083d cd50 c93d b45e b23d e688 5f3d

gru.weight_hh_l0_reverse f4 [192, 64]
-0.12865661 0.08565672 -0.1660961 0.15826537 0.0023860324 -0.061973598 0.103734896 -0.18547094
0.060664758 -0.12606782 0.039714627 0.08179065 -0.13588208 -0.0019064142 -0.117607884 -0.17840381
0.06959648 0.032690335 0.1268399 -0.08141137 -0.011016672 0.17871633 0.0045415964 -0.045941528
0.0052417666 -0.18818784 -0.15027401 0.12322855 -0.059928797 0.09101619 0.122972295 0.15666416
0.06255821 0.16993776 -0.16855107 -0.24295934 -0.194508 0.03872521 -0.08415542 0.17633063
-0.098694436 0.029158806 0.0200947 -0.3314009 0.03194287 0.11073227 0.0959049 0.16397582
-0.1708817 0.14113484 -0.20092884 -0.08997858 0.040064503 0.1255507 -0.018038666 0.13787375
-0.083660506 0.20766579 -0.05917887 -0.09794145 0.025962178 0.03499132 -0.21370403 -0.019639662
-0.09853674 0.15275656 -0.12784916 0.10621388 0.05701191 0.1264926 0.013111517 -0.08143399
0.010948547 -0.005201209 0.05454757 0.004766188 -0.10569528 0.044992577 0.16113736 -0.048195533
0.17733318 0.19899607 0.15050034 0.02162568 0.20972215 0.1323971 -0.20413391 -0.019941788
-0.054443184 -0.32008186 0.0035060474 -0.09056825 -0.2728437 -0.0070215696 0.047542285 0.20527066
0.07798414 0.16846916 -0.037601836 -0.049229667 0.018912325 -0.17947654 -0.041567493 0.17770964
-0.09008511 0.01844172 -0.19035596 -0.07167112 -0.053907603 -0.020347644 0.0050621238 0.21709265
-0.17013957 -0.1462115 0.24972425 -0.020596921 0.10249063 0.00083684863 -0.15464678 -0.082331896
0.26012895 0.06934924 0.0062317313 0.026335228 -0.23319474 0.0060422975 -0.18147075 -0.06556659
0.06937983 -0.03905976 0.07583415 -0.02568586 0.17698169 0.18809709 -0.06855443 0.013888141
0.091378644 -0.10461315 0.030026693 -0.07163881 0.16073446 0.10945507 -0.19151849 -0.043677974
0.10927374 0.02231958 0.012803228 -0.1268991 -0.11998413 0.03029309 -0.059769876 -0.03825905
0.037603226 -0.032552507 0.11095241 -0.086857855 -0.07907516 0.16993907 0.062613666 0.08387154
0.01154011 0.014484812 -0.13673496 -0.10917531 0.05403541 -0.081070535 0.03256534 -0.026548259
-0.047807492 0.061098248 0.0183167 -0.16032727 -0.1492598 0.017314363 -0.005060812 0.11840367
-0.124487944 0.19863574 0.041083474 -0.025630778 -0.01809674 -0.08912475 -0.099823356 -0.04557367
-0.047698062 0.08875198 0.050778143 -0.032067742 -0.0160874 0.034249045 0.12804256 0.003727292
-0.059621036 -0.10049226 0.1599781 0.09105724 -0.035823327 0.031374227 0.05811849 0.050381355
0.04431412 0.13185048 0.0796308 -0.10695809 -0.037432954 -0.09048415 -0.0011284561 0.19600038
-0.067805015 0.12187827 0.07575493 -0.0048836423 0.1465371 -0.0126861045 -0.07385474 -0.066800654
0.13420613 -0.077288695 0.07091716 -0.022641039 -0.19770634 0.060231477 0.18111084 0.070733115
-0.13920212 -0.021178035 -0.16276383 -0.025132205 0.117270246 -0.17347819 -0.101070024 -0.083393775
-0.009365504 0.014857401 -0.1664025 -0.18492347 0.021380164 -0.011018461 0.121771485 0.20408185
-0.09850057 0.053298265 0.099020414 -0.11730559 0.14801571 -0.21557954 -0.077548556 -0.123800695
0.016414227 0.055399932 -0.06409578 0.006084456 -0.028353272 -0.03230469 -0.043061417 -0.07830368
00000000: 8fbe 03be ca6c af3d 1915 2abe 5110 223e
00000010: fb5e 1c3b 07d8 7dbd f672 d43d 18ec 3dbe
00000020: 9c7b 783d ec17 01be ceab 223d db81 a73d
00000030: ac24 0bbe a5e0 f9ba 67dc f0bd 7daf 36be
00000040: 9988 8e3d 4de6 053d 52e2 013e 01bb a6bd
00000050: 457f 34bc 6a01 373e acd1 943b 2f2d 3cbd
00000060: 20c3 ab3b 50b4 40be 6ee1 19be 405f fc3d
00000070: e677 75bd b266 ba3d e6d8 fb3d 926c 203e
00000080: 851e 803d 2a04 2e3e a798 2cbe 55ca 78be
00000090: 1b2d 47be 539e 1e3d ad59 acbd 0490 343e
000000a0: 4f20 cabd 73de ee3c a49d a43c 61ad a9be
000000b0: 87d6 023d 9ac7 e23d ca69 c43d 47e9 273e
000000c0: 9dfb 2ebe a785 103e 4ac0 4dbe b146 b8bd
000000d0: ad1a 243d 5d90 003e d3c5 93bc c72e 0d3e
000000e0: 3356 abbd 57a6 543e 8b65 72bd 8795 c8bd
000000f0: a2ae d43c 0f53 0f3d 3bd5 5abe 5be3 a0bc
00000100: a1cd c9bd 376c 1c3e e4ea 02be aa86 d93d
00000110: 5285 693d 4787 013e b0d1 563c ddc6 a6bd
00000120: 8961 333c e76e aabb 466d 5f3d af2d 9c3b
00000130: c476 d8bd 234a 383d 3101 253e ae68 45bd
00000140: d496 353e a0c5 4b3e c31c 1a3e 5728 b13c
00000150: 67c1 563e 1b93 073e 7b08 51be f65c a3bc
00000160: d1ff 5ebd c5e1 a3be b7c5 653b d97b b9bd
00000170: 2bb2 8bbe 3215 e6bb b3bb 423d 7932 523e
00000180: 26b6 9f3d 2e83 2c3e 6204 1abd 0ca5 49bd
00000190: 05ee 9a3c b3c8 37be ad42 2abd 84f9 353e
000001a0: 8b7e b8bd 1713 973c acec 42be 4fc8 92bd
000001b0: 38ce 5cbd 1ab0 a6bc 2ce0 a53b 894d 5e3e
000001c0: 1139 2ebe 78b8 15be b7b7 7f3e e0ba a8bc
000001d0: 9be6 d13d f65f 5b3a ba5b 1ebe a09d a8bd
000001e0: 9f2f 853e f906 8e3d 8d33 cc3b fabc d73c
000001f0: 9aca 6ebe 77fe c53b 78d3 39be c747 86bd
00000200: 0317 8e3d 20fd 1fbd ef4e 9b3d 276b d2bc
00000210: b03a 353e 869c 403e 4466 8cbd 168b 633c
00000220: ba24 bb3d 6b3f d6bd 8afa f53c 5eb7 92bd
00000230: 9397 243e fb29 e03d 6c1d 44be ade7 32bd
00000240: e9ca df3d 8dd7 b63c a1c4 513c d6f1 01be
00000250: 3dba f5bd 3729 f83c 42d1 74bd 86b5 1cbd
00000260: d705 1a3d c755 05bd 043b e33d 88e2 b1bd
00000270: 28f2 a1bd 8204 2e3e 983b 803d d8c4 ab3d
00000280: bb12 3d3c b451 6d3c 4004 0cbe 4e97 dfbd
00000290: 3c54 5d3d 4f08 a6bd 3c63 053d bc7b d9bc
000002a0: cad1 43bd 2842 7a3d e70c 963c d52c 24be
000002b0: 90d7 18be dad6 8d3c 2bd5 a5bb a07d f23d
000002c0: 89f3 febd 2b67 4b3e 2547 283d a3f7 d1bc
000002d0: 9d3f 94bc 0987 b6bd 3070 ccbd 75ab 3abd
000002e0: 0b5f 43bd 99c3 b53d befc 4f3d 7759 03bd
000002f0: b9c9 83bc ba48 0c3d 971d 033e 9545 743b
00000300: 3035 74bd e3ce cdbd 4dd1 233e 387c ba3d
00000310: 7bbb 12bd 4382 003d a70d 6e3d ae5c 4e3d
00000320: b982 353d d003 073e 7915 a33d d80c dbbd
00000330: 4c53 19bd c14f b9bd b4e8 93ba 53b4 483e
00000340: 5bdd 8abd 509b f93d 6725 9b3d f606 a0bb
00000350: d20d 163e 61d9 4fbc 2741 97bd c8ce 88bd
00000360: 556d 093e 8949 9ebd 043d 913d b379 b9bc
00000370: 8873 4abe 48b5 763d 1f75 393e 86dc 903d
00000380: 008b 0ebe 8f7d adbc 90ab 26be 0ee2 cdbc
00000390: 622b f03d 44a4 31be cdfd cebd 5bca aabd
000003a0: c571 19bc 756c 733c 6b65 2abe 945c 3dbe
000003b0: 7425 af3c c686 34bc 5463 f93d d5fa 503e
000003c0: abba c9bd 484f 5a3d 37cb ca3d ea3d f0bd
000003d0: 6e91 173e e2c0 5cbe c7d1 9ebd 388b fdbd
000003e0: 2177 863c 0aeb 623d a644 83bd 1e60 c73b
000003f0: 1f45 e8bc ec51 04bd 2b61 30bd ae5d a0bd

gru.bias_ih_l0_reverse f4 [192]
-0.004003119 0.13806236 0.060627636 0.069594815 -0.075834125 -0.024432853 0.037352838 -0.25297326
-0.04493418 -0.091078766 -0.11825942 0.005875638 0.019599807 0.047262575 0.010285932 -0.017807543
-0.12859283 0.032602035 0.08084703 -0.08927281 -0.07818929 -0.13307586 0.07334875 -0.0932711
-0.14686526 -0.19102977 0.15760395 -0.17425595 0.11914037 -0.028020225 -0.07928349 -0.1300138
0.03661958 0.012612954 0.097105235 0.074313 -0.04704449 -0.14667557 -0.09083438 0.023341184
3.2202806e-06 0.13764541 0.013785225 0.08890915 -0.059493177 -0.017420014 -0.10643589 0.03180928
-0.05704182 -0.18326342 0.11154561 -0.056762237 0.03559252 -0.052189305 0.05879227 0.06026688
0.032034334 -0.1477189 -0.15556958 0.05339705 -0.07726835 -0.1037274 0.01467963 -0.05967594
0.10819407 0.10564902 -0.007037018 -0.0148715265 0.1505772 -0.12904225 0.05869046 -0.08824645
0.19573593 0.11420247 0.38835272 0.10730376 0.03572775 0.16043063 0.07015819 0.04376648
-0.093217544 0.13892543 0.11502513 0.027641706 0.06765122 -0.077853 0.082982205 0.034438655
0.11372512 -0.093212485 0.03669578 -0.29560468 0.08110956 -0.05418766 -0.16840957 -0.036088742
-0.026543066 0.057718843 0.14221495 0.03781191 0.06516914 -0.0019673216 0.014797567 -0.054559555
0.17810601 0.06290295 0.12900652 0.10989267 0.13020194 0.110995784 -0.03856171 -0.06809596
0.11244015 0.052891392 0.027153682 0.06183564 0.31844187 0.046000894 0.2814473 -0.0011552011
-0.030593317 0.23484175 0.07600597 0.22569434 -0.10734287 0.08415606 0.097900525 0.0130109545
-0.11757937 -0.15945326 0.016871639 0.01128966 -0.0193147 0.053086154 0.14579462 0.06367972
0.15168768 0.08303572 -0.077480786 0.119016916 0.0075014126 -0.08131775 0.0008805469 -0.0484453
0.0011118734 -0.03706333 0.03584596 -0.041207932 -0.05271882 0.15019177 -0.029856915 -0.0061242795
0.035087373 0.031347208 -0.086910225 0.08432315 0.15739168 0.11800422 0.0010832209 0.09271162
-0.0132656805 0.08224059 -0.07715587 -0.11263103 -0.09541642 0.12010613 -0.12889272 0.15189044
-0.11018139 -0.07782655 -0.07013066 -0.10180382 0.08223008 -0.013848238 0.1549573 -0.004146784
-0.1236855 -0.051480416 -0.14273134 0.05115755 0.048995547 0.02201252 -0.12020743 -0.027083438
0.03293516 0.020252481 -0.009310959 0.109559864 0.013159544 -0.034141734 0.08291609 0.037994567
00000000: 992c 83bb 3860 0d3e af54 783d ba87 8e3d
00000010: ec4e 9bbd 6827 c8bc 4aff 183d b685 81be
00000020: e70c 38bd 8187 babd ff31 f2bd 6d88 c03b
00000030: c68f a03c 6796 413d 5386 283c 20e1 91bc
00000040: d7ad 03be b689 053d 2193 a53d aad4 b6bd
00000050: b521 a0bd 0a45 08be df37 963d eb04 bfbd
00000060: d963 16be 4f9d 43be ee62 213e 2770 32be
00000070: deff f33d ac8a e5bc 625f a2bd 5622 05be
00000080: 6afe 153d 90a6 4e3c 1cdf c63d 6a31 983d
00000090: b9b1 40bd 1f32 16be 6007 babd 0336 bf3c
000000a0: 001c 5836 ebf2 0c3e 6ddb 613c 0016 b63d
000000b0: 1eaf 73bd 6bb4 8ebc 0ffb d9bd 734a 023d
000000c0: afa4 69bd 68a9 3bbe 0672 e43d 857f 68bd
000000d0: 76c9 113d 74c4 55bd 2ad0 703d 67da 763d
000000e0: 6f36 033d a043 17be a24d 1fbe ddb6 5a3d
000000f0: de3e 9ebd 086f d4bd d582 703c c26e 74bd
00000100: da94 dd3d 835e d83d c996 e6bb b4a7 73bc
00000110: e930 1a3e a723 04be 6865 703d 8eba b4bd
00000120: 006f 483e fce2 e93d 2bd6 c63e 13c2 db3d
00000130: 4357 123d ed47 243e 19af 8f3d 7b44 333d
00000140: d7e8 bebd 7842 0e3e 4c92 eb3d dc70 e23c
00000150: b98c 8a3d 6571 9fbd 93f2 a93d 8c0f 0d3d
00000160: b7e8 e83d 30e6 bebd 504e 163d 7f59 97be
00000170: c51c a63d e1f3 5dbd 8f73 2cbe cad1 13bd
00000180: d870 d9bc 986a 6c3d cca0 113e a9e0 1a3d
00000190: 6677 853d 2eee 00bb 7f71 723c d779 5fbd
000001a0: 6c61 363e 43d3 803d 491a 043e 680f e13d
000001b0: a853 053e c251 e33d e2f2 1dbd e575 8bbd
000001c0: 0547 e63d a5a4 583d 6671 de3c 5e47 7d3d
000001d0: d00a a33e 6f6b 3c3d dc19 903e 1e6a 97ba
000001e0: d69e fabc 5b7a 703e 05a9 9b3d 6b1c 673e
000001f0: 94d6 dbbd 035a ac3d 1280 c83d e62b 553c
00000200: 74cd f0bd b747 23be 6436 8a3c 44f8 383c
00000210: dd39 9ebc de70 593d 2f4b 153e 836a 823d
00000220: 0454 1b3e a20e aa3d 3fae 9ebd 24bf f33d
00000230: 69ce f53b ec89 a6bd 81d4 663a 946e 46bd
00000240: 48bc 913a b8cf 17bd 37d3 123d a6c9 28bd
00000250: b0ef 57bd dfcb 193e 7d96 f4bc 2eae c8bb
00000260: c7b7 0f3d ee65 003d fdfd b1bd 9eb1 ac3d
00000270: 492b 213e 32ac f13d ddfa 8d3a 97df bd3d
00000280: 4c58 59bc c16d a83d e603 9ebd 19ab e6bd
00000290: af69 c3bd 34fa f53d 74fc 03be 2b89 1b3e
000002a0: c8a6 e1bd 8763 9fbd aaa0 8fbd 857e d0bd
000002b0: 3f68 a83d b8e3 62bc 20ad 1e3e bfe1 87bb
000002c0: d34e fdbd 21dd 52bd 2a28 12be 948a 513d
000002d0: 8eaf 483d 9a53 b43c 502f f6bd 16de ddbc
000002e0: 05e7 063d 88e8 a53c fe8c 18bc ec60 e03d
000002f0: 219b 573c 34d8 0bbd e9cf a93d 31a0 1b3d

gru.bias_hh_l0_reverse f4 [192]
0.058140073 0.047541544 -0.09760058 -0.053380135 -0.111324355 0.080919296 0.017507277 -0.14529663
0.07529675 -0.023584137 0.03336631 -0.14718294 0.029437251 -0.050378222 -0.044679645 0.0316881
0.060093492 0.05253766 0.13198625 -0.096246384 -0.1506037 -0.14200684 0.027806655 -0.018274471
-0.07421213 -0.07729044 0.061001103 0.046970278 0.058183987 0.03193341 0.03513623 -0.08793099
-0.058055483 0.12115718 0.08443875 0.06449504 0.07738714 0.066750616 -0.091186 -0.039570916
0.022581106 0.12121665 -0.14537436 0.044144005 -0.10316242 0.15328641 -0.038259447 0.12552412
0.03773187 -0.1293307 0.17122711 0.051126678 -0.046536352 -0.19602023 -0.13239825 -0.055257477
0.014696828 -0.16766156 -0.06649293 0.05771439 0.020631302 -0.06635508 0.07528393 0.06042668
0.15886961 -0.0038212875 -0.23945078 0.002843374 0.19633926 0.10203919 0.19137643 -0.06450949
0.0116954725 0.03610815 0.29287753 -0.08308249 0.13567458 0.06310371 0.16166887 -0.013751864
-0.13010213 -0.011674607 0.054626387 0.028940767 0.18140805 0.02181574 0.119814694 -0.12482258
-0.05017695 0.071350664 -0.1387681 -0.24275228 -0.046610955 0.058748584 -0.24167116 -0.054205183
0.019572781 0.0628948 0.29709217 0.028464999 0.0070918025 -0.14618865 0.03234216 -0.050460905
0.115500875 0.15214626 0.21753655 0.08766661 0.060347132 0.098756194 -0.011433366 -0.032548346
0.21536666 0.21120718 0.01604349 -0.12143621 0.29387102 -0.095342845 0.19365576 0.07868214
0.008013469 0.0030969463 0.06650726 0.00028519725 -0.2401537 0.13191074 0.08378154 -0.06468096
-0.16632059 0.028183606 0.060780536 0.13066135 -0.13301659 0.13164493 0.14176679 0.111701794
0.13288316 0.018709105 -0.09844145 0.0671763 0.15209843 0.10822188 0.019938445 0.043149076
-0.105401084 0.12722453 0.14888906 -0.0062304195 0.002864529 -0.037976626 -0.10736689 -0.042963658
0.040147066 0.040483866 -0.13869731 -0.07942721 0.11423768 0.17016965 0.042796995 0.07171839
-0.13569415 -0.070746236 -0.14396091 -0.0032620202 -0.035231005 -0.04053553 0.035158105 -0.016376678
0.010822436 0.053927638 0.024287276 0.069089554 -0.06852436 -0.11964182 -0.017807184 -0.044470824
-0.00697138 0.0702561 0.030274814 -0.05729023 -0.047836382 0.08564723 0.051917274 -0.03921067
-0.051263507 0.0008852595 -0.038211472 0.0012780287 0.13166855 -0.094482765 -0.11687852 -0.08569482
00000000: 4924 6e3d ecba 423d d0e2 c7bd 21a5 5abd
00000010: 06fe e3bd 04b9 a53d 6c6b 8f3c a4c8 14be
00000020: 2f35 9a3d 8533 c1bc 1dab 083d 20b7 16be
00000030: 6426 f13c 6559 4ebd 0102 37bd 62cb 013d
00000040: 9824 763d bb31 573d 6727 073e d31c c5bd
00000050: db37 1abe 3e6a 11be c8ca e33c 58b4 95bc
00000060: 87fc 97bd 734a 9ebd 4bdc 793d e863 403d
00000070: 5552 6e3d 9bcc 023d 02eb 0f3d 2a15 b4bd
00000080: 96cb 6dbd 4121 f83d 39ee ac3d fa15 843d
00000090: 267d 9e3d 8cb4 883d babf babd 1d15 22bd
000000a0: 03fc b83c 6f40 f83d 04dd 14be 58d0 343d
000000b0: d246 d3bd 1df7 1c3e f0b5 1cbd 6589 003e
000000c0: bc8c 1a3d 446f 04be 2956 2f3e 356a 513d
000000d0: e79c 3ebd 87b9 48be 6893 07be aa55 62bd
000000e0: f7ca 703c 79af 2bbe 722d 88bd ed65 6c3d
000000f0: fa02 a93c 2ce5 87bd 762e 9a3d f781 773d
00000100: b7ae 223e 916e 7abb 9632 75be e657 3a3b
00000110: 290d 493e ecf9 d03d 2ff8 433e 8d1d 84bd
00000120: 5e9e 3f3c 24e6 133d 0bf4 953e 2727 aabd
00000130: 47ee 0a3e 853c 813d 868c 253e 804f 61bc
00000140: 7e39 05be da46 3fbc ebbf 5f3d 3015 ed3c
00000150: 08c3 393e ecb6 b23c 6861 f53d fba2 ffbd
00000160: 5886 4dbd 4c20 923d 3a19 0ebe 0e94 78be
00000170: 21eb 3ebd 5ba2 703d a578 77be 4106 5ebd
00000180: 1957 a03c fdce 803d 771c 983e 6e2f e93c
00000190: 5a62 e83b 7ab2 15be 3679 043d 18b0 4ebd
000001a0: b98b ec3d 3bcc 1b3e e7c1 5e3e 8d8a b33d
000001b0: 8e2e 773d b040 ca3d 0353 3bbc 6a51 05bd
000001c0: 1489 5c3e b246 583e a36d 833c 8cb3 f8bd
000001d0: 4376 963e 1c43 c3bd b24d 463e 1a24 a13d
000001e0: ed4a 033c 23f6 4a3b f534 883d 8786 9539
000001f0: daea 75be 9c13 073e a895 ab3d 7377 84bd
00000200: f24f 2abe 4ee1 e63c 03f5 783d 17cc 053e
00000210: 8035 08be eecd 063e 502b 113e e9c3 e43d
00000220: 8612 083e d643 993c ac9b c9bd ba93 893d
00000230: b1bf 1b3e 6fa3 dd3d f355 a33c 16bd 303d
00000240: 86dc d7bd 2647 023e 6076 183e 8c28 ccbb
00000250: d2ba 3b3b 618d 1bbd 2ce3 dbbd a9fa 2fbd
00000260: 4071 243d 69d2 253d ab06 0ebe bcaa a2bd
00000270: 72f5 e93d f440 2e3e e74b 2f3d 17e1 923d
00000280: 68f3 0abe 67e3 90bd 7d6a 13be 9ec7 55bb
00000290: 634e 10bd 9508 26bd f201 103d 6228 86bc
000002a0: 9650 313c 3ae3 5c3d 1cf6 c63c d37e 8d3d
000002b0: 8056 8cbd c506 f5bd 5fe0 91bc 0a27 36bd
000002c0: 2d70 e4bb 6ee2 8f3d e302 f83c 29a9 6abd
000002d0: 15f0 43bd d167 af3d 35a7 543d 5e9b 20bd
000002e0: aff9 51bd c210 683a a283 1cbd 8783 a73a
000002f0: 1fd4 063e 2e80 c1bd 015e efbd c480 afbd

gru.weight_ih_l1 f4 [192, 128]
-0.13167623 -0.04441041 0.23047122 0.096076496 0.03975224 0.024385806 0.14504099 -0.18648873
-0.17362113 0.014810923 -0.04706679 -0.22319402 0.1581188 0.1321455 0.0047901 0.17932084
-0.040220782 -0.13055104 0.10121921 -0.23124637 -0.14104782 0.07179793 -0.10746088 0.029034117
-0.097263984 0.12410273 0.16030775 0.090042375 0.18143378 -0.068251014 0.14464964 0.1063506
0.12416274 0.042252067 0.070187636 0.12103694 0.08950613 0.00041103415 0.17279422 -0.23457517
0.08777302 -0.09197399 0.0098186955 0.10807519 0.09709233 -0.113740645 -0.11306414 0.012211376
-0.02263212 0.39527214 0.02598137 0.019951403 -0.05383507 -0.042302717 0.18659773 0.11487043
0.06720699 0.32737926 0.04627361 0.38750562 -0.05565868 -0.10435028 0.03238594 0.009509807
0.00016667295 0.040654413 0.060566124 -0.11541507 0.03247169 -0.05794908 0.0721271 -0.33695772
0.03362756 0.022154659 -0.06992517 -0.088273026 -0.0016680574 0.064304985 -0.105628036 0.035386454
-0.05832754 0.048695005 0.17774114 -0.08446283 -0.17984734 0.04523003 0.122751266 0.068205856
-0.123755366 0.20047432 -0.052805852 0.1600921 -0.0849494 0.13713692 -0.04092511 -0.087902874
-0.27011162 -0.0054983357 -0.049811408 -0.12585677 -0.33447295 0.09796772 -0.18317136 -0.10701313
0.11011259 0.03915854 -0.112514034 -0.16774988 -0.10047816 0.13469389 -0.23978949 -0.048834477
-0.15090214 -0.002307152 0.18200286 0.043952037 0.041813515 -0.04806172 -0.123465076 -0.34610698
0.06494386 -0.27045855 -0.2000361 0.008602451 0.01814913 -0.013165803 0.07008204 -0.08765372
0.024235478 -0.036247533 -0.119211696 -0.11294429 -0.08979031 -0.012719327 -0.13114756 0.19264643
-0.086873166 0.08064939 -0.035680972 0.102368765 -0.046896882 -0.14356093 -0.18146805 0.034606203
-0.04145142 -0.083712645 0.07078246 0.24807632 0.06677078 0.01767629 -0.12256576 -0.12162539
0.017849874 -0.010717351 -0.12311457 -0.21364044 0.095901445 -0.058402687 -0.012194011 0.31276965
0.109618045 -0.0874592 0.03990162 -0.08000402 -0.024250112 -0.15986784 -0.071573555 0.06893121
0.011944011 0.09081048 -0.005903283 0.017825574 0.14429341 0.022670442 -0.093686625 -0.027205959
0.035873257 0.018833168 -0.074946985 -0.141353 -0.20650417 -0.09314405 -0.14484628 0.094455585
0.053492673 0.11631433 -0.09008675 -0.03738799 -0.026068425 -0.04717876 -0.062009998 0.02405721
-0.06886791 -0.14914201 -0.024818514 -0.0021940833 0.10287465 0.026344197 0.022324996 0.2941485
-0.15947211 0.13355672 -0.054487247 0.036063146 0.20974728 0.012289899 -0.018870255 -0.09980929
0.069801375 -0.10624121 -0.0951383 -0.10818903 0.042361766 -0.123680465 0.075837895 -0.022887696
0.15178987 0.1245835 -0.09130765 0.03954089 -0.008507345 -0.15612827 -0.1270882 0.14193724
0.0871827 -0.13479461 0.0007078437 0.21833411 -0.086493954 -0.011878678 0.1572194 0.11445711
0.06336651 -0.015908184 0.025694909 0.100943804 -0.16751829 0.194667 -0.06881285 0.048810713
-0.07568773 0.010179846 -0.019228728 0.039702244 -0.20156883 0.1789579 0.16484924 0.24757098
-0.21176967 0.2192508 0.16816556 -0.13931854 0.11743905 0.16545299 0.13850386 0.12907915
00000000: 22d6 06be b1e7 35bd a600 6c3e c1c3 c43d
00000010: 3fd3 223d bec4 c73c a085 143e e7f6 3ebe
00000020: bdc9 31be 83a9 723c 1bc9 40bd f98c 64be
00000030: e5e9 213e 2651 073e 45f6 9c3b e29f 373e
00000040: 8cbe 24bd 2caf 05be 044c cf3d d9cb 6cbe
00000050: d76e 10be cb0a 933d 7314 dcbd f5d8 ed3c
00000060: 5732 c7bd 9229 fe3d b727 243e 2368 b83d
00000070: c7c9 393e 30c7 8bbd 091f 143e 58ce d93d
00000080: 0949 fe3d 8110 2d3d 89be 8f3d 37e2 f73d
00000090: fd4e b73d 1280 d739 f8f0 303e 7934 70be
000000a0: 57c2 b33d dc5c bcbd 98de 203c 8656 dd3d
000000b0: 58d8 c63d dbf0 e8bd 2c8e e7bd 3912 483c
000000c0: ff66 b9bc 1c61 ca3e e2d6 d43c 2071 a33c
000000d0: 2a82 5cbd 9d45 2dbd 7a13 3f3e 3041 eb3d
000000e0: d2a3 893d 419e a73e 6689 3d3d 2367 c63e
000000f0: 5bfa 63bd 99b5 d5bd 1fa7 043d 06cf 1b3c
00000100: eec4 2e39 3e85 263d 2f14 783d bc5e ecbd
00000110: 0901 053d 045c 6dbd 5fb7 933d b985 acbe
00000120: 0dbd 093d b07d b53c ed34 8fbd 7dc8 b4bd
00000130: b8a2 daba 55b2 833d 8353 d8bd 63f1 103d
00000140: dce8 6ebd 6a74 473d c601 363e d9fa acbd
00000150: e729 38be 2043 393d 0465 fb3d 83af 8b3d
00000160: 7473 fdbd 2449 4d3e f34a 58bd 2fef 233e
00000170: f3f9 adbd 9f6d 0c3e 17a1 27bd 6c06 b4bd
00000180: 124c 8abe 622b b4bb 0c07 4cbd 99e0 00be
00000190: 0a40 abbe 4da3 c83d 4691 3bbe b329 dbbd
000001a0: b682 e13d b564 203d c26d e6bd a0c6 2bbe
000001b0: 7ec7 cdbd 32ed 093e 608b 75be a906 48bd
000001c0: 1786 1abe 9633 17bb f55e 3a3e 0d07 343d
000001d0: a644 2b3d 5edc 44bd 42db fcbd ef34 b1be
000001e0: 4901 853d 8b79 8abe 43d6 4cbe 4bf1 0c3c
000001f0: 7cad 943c 61b5 57bc 2c87 8f3d cb83 b3bd
00000200: 7b89 c63c 4b78 14bd 4325 f4bd 564f e7bd
00000210: fbe3 b7bd b964 50bc 8c4b 06be 1b45 453e
00000220: 8fea b1bd 822b a53d 3626 12bd b7a6 d13d
00000230: f216 40bd a301 13be c3d2 39be 3cbf 0d3d
00000240: f7c8 29bd 8971 abbd 65f6 903d b807 7e3e
00000250: 1ebf 883d decd 903c c203 fbbd bc16 f9bd
00000260: e639 923c d497 2fbc 7e23 fcbd 8fc4 5abe
00000270: fa67 c43d a837 6fbd 64c9 47bc 5823 a03e
00000280: 6d7f e03d cf1d b3bd e26f 233d 26d9 a3bd
00000290: 2ca8 c6bc 65b4 23be 2895 92bd ce2b 8d3d
000002a0: d0b0 433c d8fa b93d 5470 c1bb f006 923c
000002b0: a7c1 133e 5db7 b93c c6de bfbd 08df debc
000002c0: d6ef 123d 0448 9a3c ce7d 99bd d7be 10be
000002d0: d475 53be 4fc2 bebd 9552 14be ee71 c13d
000002e0: 221b 5b3d 3536 ee3d 677f b8bd 2624 19bd
000002f0: 738d d5bc 843e 41bd 32fe 7dbd a013 c53c
00000300: 9e0a 8dbd afb8 18be 3250 cbbc 9cca 0fbb
00000310: f2af d23d c9cf d73c e9e2 b63c a29a 963e
00000320: a84c 23be 18c3 083e 052e 5fbd f3b6 133d
00000330: fec7 563e 935b 493c cb95 9abc d068 ccbd
00000340: 06f4 8e3d fe94 d9bd ded7 c2bd 3692 ddbd
00000350: 8883 2d3d 2f4c fdbd e650 9b3d fa7e bbbc
00000360: ce6e 1b3e a225 ff3d 81ff babd a1f5 213d
00000370: 6462 0bbc 17e0 1fbe 6923 02be ff57 113e
00000380: d88c b23d 9907 0abe 968e 393a fa92 5f3e
00000390: be23 b1bd c99e 42bc 1ffe 203e 7d68 ea3d
000003a0: 4dc6 813d e151 82bc 217e d23c a0bb ce3d
000003b0: ea89 2bbe c956 473e c0ed 8cbd beed 473d
000003c0: 2b02 9bbd 5ec9 263c 9185 9dbc d29e 223d
000003d0: 0f68 4ebe bd40 373e 3dce 283e 3f83 7d3e
000003e0: 26da 58be 4883 603e 9833 2c3e 85a9 0ebe
000003f0: e283 f03d 826c 293e f5d3 0d3e 532d 043e
