api/data/models/ASML.AS_lite.pt (torch, 218389 bytes, 10 tensors)

lstm.weight_ih_l0 f4 [256, 12]
00000000: e823 2abe ce24 94bd 528d f4bc e2ee 5a3d
00000010: d6a3 aebd d17b 42bc 0648 5c3e 9db3 b5bd
00000020: 379f 88bd dd5e 0a3e 048f f3bd 7ad6 2bbd
00000030: 21a9 abbd 9940 cd3c 91c7 bebc 4f3b 1f3c
00000040: 07aa eabd 9919 33be 6b90 4bbe fcba c73d
00000050: 5137 ee3d 8ee8 a93d 6f68 5bbd 62d4 043e
00000060: 953d 8d3d 40ee 84bd 9084 403d 9927 b4bd
00000070: a45c 5b3e 3f56 3ebd 9c9d 893c c179 4ebe
00000080: 4b04 133e d040 883e 2ca4 29bd 0660 aa3d
00000090: f972 25be b8ae c7bb 1688 7dbd ba5c cebc
000000a0: c0fb 16be 0ed9 91bd a2fa f0bc c341 793e
000000b0: 3881 ba3b 6f00 12be 7707 84bd eee8 12be
000000c0: d97c 14be abb9 1abe fb0c b2bd 339f b63d
000000d0: 5ba2 6fbe 0407 b03e 1b7f 193e be74 a23d
000000e0: 0889 42be 4920 213e ab54 84bb abf5 0fbe
000000f0: a18d 323d 2588 b83d f747 773d 3e02 c03d
00000100: 5f4a c8bc c99d 6c3c 03ed 0dbe 3dee 15be
00000110: c8c9 273d 054c 043e 0a64 ea3c 052b e83d
00000120: 1563 aabd e9ee 77bd 181e ef3c 134a 80bd
00000130: ed26 6bbe ad3c 07be f245 083d c3b2 883d
00000140: ab68 dcbb 0dc8 d5bc b060 4f3d 6f62 f7bc
00000150: 4b3f b4bd 4edc 61bd b46c 36bd 3e73 a3bc
00000160: c9eb 913c 396a 2dbe 1a6e a6bc 3d47 053e
00000170: b7c4 593e 28aa 2a3e a11c b8bd cf85 8bbd
00000180: eb09 8fbd 89aa b73d a9d9 00bd 8b4c cbbc
00000190: b0d2 06be 53ab 5fbd 0524 aa3d eaf4 cebd
000001a0: 883a 883d e4a4 29bc 6fdc 9bbd dc60 d23c
000001b0: 76d2 03be 44a2 51bd 0f8c f9bd a405 23bd
000001c0: b05d 2a3e 218b 013e 6439 133e edf9 f33d
000001d0: 0d6a df3d a3d0 d33b 465f c7bd 0e6f e23b
000001e0: 60bf 2ebe 9e15 39be 216f 5abe 7eb0 c9bd
000001f0: ac8f a1bd 6b6c 0e3e 2ae9 493c df48 333d
00000200: ee3c 3abd e48c 613e 2887 1bbe d44f 5abe
00000210: 4706 91bd 5f33 43bd 56f8 453c 0b94 a2bd
00000220: d247 9ebe e8d9 6b3e e2e5 ef3d cb6d 133e
00000230: 26c8 8abc e689 0bbd cbd3 f9bd 7937 69bd
00000240: 7530 6d3d f4ce 1ebd 2d2c a33c 8dcc f13c
00000250: 6d3b a5bd e364 fe3d a809 cd3d c9c8 d83d
00000260: a307 d43d cf57 d4bd bade 94bd 6af9 993d
00000270: 2b0c 01be 351f 25bd e10b 363d f517 b5bd
00000280: 68dd d23c ca49 0b3d 15b9 91bd 5ddc a2bd
00000290: 50af a53d 83e4 cd3c 9580 62bd e4b3 3cbd
000002a0: 63e7 373d a931 ea3d 133e d33d 211b 08bd
000002b0: dcbd 17be c886 b0bc 566b 8d3d d4ca b53d
000002c0: ad77 92bd 56c9 e9bd 1554 ae3d 32ba c5bc
000002d0: f4de 9abd cee8 bf3c 1fef 043d b374 af3d
000002e0: f9ac 5bbd e9bd 4b3e 941c 0c3e 625f 8d3d
000002f0: 5be7 1dbe ce77 a53d eaef b9bc 3d13 d1bd
00000300: ef05 4fbe a028 58bd e4a0 1e3d a787 d8bd
00000310: 64b5 213d cc51 1c3e e428 463d 5303 f9bd
00000320: a097 ae3d c1a1 a7bd 8381 93bd 52df cbbd
00000330: a13f 85bd 62b6 5abd 00ae 8dbc d8fe a1bd
00000340: 13ae a5bd c666 0bbe 11b6 0ebe 7d6a 43be
00000350: a93b 83bd 3e47 a2ba eeef 15bc 33e9 0f3e
00000360: 09e8 603c 1c1e da3d 02a1 633e 8d93 e03d
00000370: 0fd7 20bb b403 83bc 3b29 fa3d a3a6 ac3d
00000380: a9ac 033e f1e3 b23d 2764 4a3e 1577 263c
00000390: 3e60 2c3d 987d c33c 1c14 6abd 863f b63d
000003a0: 6cc0 1cbd f73b 283e 04f1 c63c 5b63 8bbd
000003b0: 5eab 193c 01e5 3c3c ab66 6d3d c15c 54bd
000003c0: 9894 143e 635f dd3d 3e49 69bd 59cc 7a3d
000003d0: 3698 92be 823c 213e b694 0d3d 723f 5f3e
000003e0: 4349 6bbe f0d4 173e d1a1 923d 2062 003d
000003f0: 189b c9bd a71d 10be ed00 06bc 1de6 3bbc
-0.1661526 -0.072335824 -0.029852543 0.053450473 -0.08527343 -0.01187034 0.2151185 -0.08872149
-0.06670993 0.1351275 -0.118925124 -0.041952588 -0.08381868 0.025055217 -0.02328852 0.00971873
-0.114582114 -0.17490233 -0.1987931 0.09752461 0.116316445 0.082963094 -0.053566393 0.12971643
0.068965115 -0.06490755 0.04700142 -0.08796615 0.21422058 -0.04646897 0.016798787 -0.20163633
0.14357106 0.26611948 -0.041416332 0.08319096 -0.1615714 -0.006093826 -0.06189736 -0.0251907
-0.14744473 -0.07121478 -0.029416386 0.24341492 0.0056916736 -0.14257978 -0.06446736 -0.14346668
-0.1450075 -0.15109889 -0.08693882 0.089170836 -0.23401777 0.34380352 0.14989893 0.07932423
-0.18997586 0.15734972 -0.0040384135 -0.14058559 0.0435921 0.090103425 0.060371365 0.09375428
-0.024449525 0.014441916 -0.13859944 -0.14641662 0.040963918 0.12919624 0.028612155 0.1133633
-0.0831968 -0.060530577 0.029189155 -0.062641285 -0.22964068 -0.1320674 0.03326983 0.06674721
-0.0067263446 -0.026096368 0.050629318 -0.030198304 -0.08801135 -0.05514174 -0.04453726 -0.019952413
0.017812626 -0.16935052 -0.020316172 0.13015456 0.21266447 0.16666472 -0.089898355 -0.06812631
-0.069843136 0.08968074 -0.031457577 -0.024816772 -0.13166308 -0.054606747 0.083076514 -0.101053074
0.06651789 -0.010354254 -0.07610404 0.025680952 -0.12873253 -0.05118014 -0.12184917 -0.0398003
0.16637301 0.1265073 0.14377362 0.11912904 0.109088995 0.0064640804 -0.09734969 0.0069102114
-0.17065191 -0.18074653 -0.21331455 -0.09848116 -0.07888731 0.13908546 0.012323657 0.043770667
-0.045468263 0.22026402 -0.15188277 -0.21319515 -0.070812754 -0.047656413 0.012083134 -0.07938393
-0.3091417 0.23032343 0.117137685 0.14397351 -0.016941141 -0.034067057 -0.121985994 -0.05693767
0.05790754 -0.038771585 0.019918526 0.029516483 -0.08067975 0.12421586 0.100116074 0.10585172
0.10353019 -0.10368311 -0.07269044 0.07518275 -0.12602298 -0.040312964 0.044444922 -0.0884246
0.02574034 0.034005918 -0.0711538 -0.07952187 0.08090079 0.025133377 -0.055298407 -0.046069995
0.044898402 0.11435253 0.10314574 -0.033228997 -0.1481852 -0.021548644 0.06905238 0.08876577
-0.071517326 -0.11415355 0.08512131 -0.024136636 -0.07562056 0.02342644 0.032454606 0.085671805
-0.053631756 0.19896664 0.13682777 0.069029585 -0.15420286 0.080794916 -0.022697408 -0.102087475
-0.20217107 -0.052773118 0.038727656 -0.10572749 0.03947963 0.15265578 0.04837884 -0.12158837
0.08525014 -0.08185149 -0.07202437 -0.09954704 -0.06506277 -0.05339659 -0.017294884 -0.07909936
-0.08089843 -0.13613424 -0.1393664 -0.19083591 -0.06407864 -0.0012380851 -0.009151442 0.14053802
0.0137271965 0.10650274 0.22229388 0.10965643 -0.0024542247 -0.015992977 0.12214895 0.08430221
0.12858833 0.087348826 0.19764768 0.010160227 0.04208397 0.023863599 -0.057148084 0.08898835
-0.038269445 0.16429125 0.024284847 -0.0680606 0.009379236 0.011529208 0.05795924 -0.05184627
0.14509809 0.10809209 -0.056954615 0.061230037 -0.28631753 0.15745738 0.03456565 0.21801546
-0.22977166 0.14827323 0.0715977 0.03134358 -0.09844035 -0.14073811 -0.008178932 -0.0114684375

lstm.weight_hh_l0 f4 [256, 64]
00000000: 7ef2 f93c 7118 bc3d 723a 6dbe 0e92 e2bd
00000010: b5ba b13e 7cd2 40be d086 51be 5fc0 7cbd
00000020: 8e2a 453c 1f59 0e3d b231 2dbd 7f71 de3d
00000030: 82d5 a53d 9f09 c9bd e833 ae3d 772c 33bd
00000040: c463 06be 2e14 13be 617f 00bd 1a0e a13e
00000050: da29 afbe ed64 8abc f24f cebe 700a 053e
00000060: 0786 2abe 2964 1e3e 5c35 3cbc 3a69 40be
00000070: 70c6 75bc 3dbe 793e 5823 05bd 56e4 60be
00000080: 793c a3bd 7403 ea3c 4540 f13d 62fd a7bc
00000090: 49e7 bcbe 5101 053e 6b97 0a3e 4db3 8e3d
000000a0: b9f1 75bd dff1 67bd 4a8b e4bc e1fd 863d
000000b0: 7ac3 28be 6458 cb3d c918 41be cbce a8bd
000000c0: 07c8 853e 9ab5 073c 489a 90bd c762 24bd
000000d0: af4e 8ebc 320a 5f3d b8ce dd3d 732b 2d3e
000000e0: 02ad fcbd 7a91 c63d 60be 133e 375f a53b
000000f0: cb81 563c dcc1 62be be20 1cbb 4eae b83d
00000100: f2c4 38be c70b 663e f38d 87be 989d c4bd
00000110: c00c fb3c 679b cb3b 6e97 84bd ac7e 213e
00000120: 4f68 91be 1d8b 4c3e 6aa1 50be 3c0b d1bd
00000130: a83f e1bd 2e39 aebd 14c4 2dbe e5af 843c
00000140: bfb9 76be c454 87bd d411 a03d 7fc9 683e
00000150: 8649 e8bd 25a0 4e3e d54c d73d a667 7ebe
00000160: 8339 7cbd 9bae 8c3c 5223 9b3d c489 b03d
00000170: 7bd6 493c 648d 36bd 61c0 b3bb a3df 10be
00000180: d0fc 003e 0cfb bfbc 09fa b93d a715 873c
00000190: 7861 3c3d 1282 33bd e153 4e3c b360 d3bd
000001a0: 97b1 393d 3e2d 3abd 3a01 f7bb 76d5 a3bd
000001b0: 3ddd a1bd bfe9 0abe 4d60 2dbe dac3 293e
000001c0: 38ad a1bc 11c7 d1b9 3eaf ebbd ee6c 35be
000001d0: 64fd f93d c34d 073e 2581 e33d 667d b9bc
000001e0: df02 7c3e 54f7 b53e 025e 1f3e 411d 8c3e
000001f0: 1a0a 6a3c 1524 f3bd 62b1 933d a776 073e
00000200: c031 93bc e020 1a3e 5296 1e3d bada 4ebd
00000210: 0989 763e b0e2 953b 3843 1bbe 0def e13b
00000220: f0c4 1bbc 503c 013e f476 893c 43da c43d
00000230: 7d5f ba3d 7785 d7bd 6fcd dd3c c6fb 77be
00000240: 1e09 9dbe 7ebd b9bd acfd c03d 9014 4b3e
00000250: 8365 9ebe 4fc8 fb3d 67c6 67be bb8a efbd
00000260: 5c4c 5abd d283 be3d 0f9a 42bd 905a 27be
00000270: 20fe ac3c 5554 133d ac0d 7abd 7c34 17be
00000280: 74ed 4f3d e80a 1ebd 8c82 233e e6a4 fa3a
00000290: c213 c6bd f5ee 693d a431 8b3d c247 08bd
000002a0: 2aa0 c63b 2861 fd3c 54cb aa3d 05f8 313d
000002b0: 24cd 44be 3503 d9bc e7f6 5abe 857a fdbd
000002c0: 2b33 893e b39c 3d3e 8be1 e4bc 282d e5bd
000002d0: 700b a43c 5812 e2bc 59ab 9a3d 6f53 f23d
000002e0: e79f b7bd 9b29 7b3e 916b 8a3e 04e9 6c3e
000002f0: 4918 ca3c 0668 4bbe a65e b93d a303 293e
00000300: 785f 4dbe e537 f4bd 3e07 78bd c916 3bbd
00000310: c03b e33d ec22 c13d f5e0 52bd 789b 763d
00000320: 1738 463d 9e9a 48be f335 26be aa0a 6d3d
00000330: dd41 acbc 0861 2d3e 91bb f43d bb61 adbd
00000340: b0e8 62bd 9c21 613e bcdf 11bd 389b cf3d
00000350: 7a6e 22be 88c2 f13d 8214 95bc 341a debd
00000360: d660 d3bd ed9e e6bd 2025 1ebe 7ed6 313c
00000370: 21bb b23d 5571 4f3e 27e4 71be 23b3 9ebd
00000380: 343f 513e 11a3 83bc dc21 7dbd ee76 73bd
00000390: d488 cabd 66cc 0f3d 1b1f f8bc 8745 6e3e
000003a0: 64c4 153e dd08 f43d 453f c6bd 4a1f 17be
000003b0: dffa 143c c206 c13d a517 b2bc 19cc 6dbe
000003c0: 78e6 403d 2142 8ebe 1a26 c73d 7c8c 69bd
000003d0: 6a25 f1bd fb40 afbd 3710 b5bd 04b8 5fbe
000003e0: ff2b 36bd 8934 c23d ffc8 debc def8 4cbd
000003f0: eba9 c3bd f040 2a3d 04b0 783d 6db0 103c
0.030511137 0.09184349 -0.23166826 -0.11063014 0.3471276 -0.18830293 -0.20461583 -0.061706897
0.012034072 0.03475296 -0.04228372 0.108614914 0.08097364 -0.09816288 0.08505994 -0.043743577
-0.13123995 -0.14363167 -0.031371478 0.3145607 -0.34211618 -0.016893828 -0.40295368 0.12992263
-0.1665269 0.15467896 -0.011487331 -0.18790141 -0.0150009245 0.24388976 -0.03250441 -0.21962103
-0.079705186 0.0285661 0.117798366 -0.020506565 -0.36895207 0.12988783 0.13534324 0.06967793
-0.060044978 -0.05662715 -0.02789845 0.06591392 -0.16480818 0.099289685 -0.18857111 -0.08242568
0.2612917 0.008283043 -0.07060677 -0.040133264 -0.017371504 0.054453082 0.10830444 0.16911106
-0.12337686 0.09695716 0.14428091 0.005046751 0.0130924685 -0.22144264 -0.0023823227 0.09017621
-0.18043879 0.2246543 -0.26475486 -0.09600371 0.030645728 0.0062135938 -0.064741954 0.15770978
-0.28399894 0.19974943 -0.20374075 -0.10207221 -0.109984696 -0.08507 -0.16969329 0.016197154
-0.24094294 -0.06607965 0.078159004 0.22733115 -0.113421485 0.20178278 0.105127014 -0.24844226
-0.061578285 0.017173102 0.07575096 0.08620027 0.012319203 -0.044568434 -0.00548558 -0.1414781
0.1259644 -0.023435138 0.090808935 0.016489817 0.04599139 -0.043825217 0.0125932405 -0.10321178
0.04533538 -0.045453303 -0.007537988 -0.07999699 -0.07903526 -0.1356573 -0.16931267 0.16578618
-0.019735917 -0.00040011902 -0.11508034 -0.17717335 0.122065336 0.13213257 0.11108617 -0.022642802
0.2461047 0.3554026 0.15563205 0.2736607 0.014284635 -0.118721165 0.072115675 0.13228856
-0.017968059 0.15051603 0.038717575 -0.050501563 0.24075712 0.0045741424 -0.1516236 0.006894952
-0.009507403 0.12620664 0.016780354 0.096119426 0.09100244 -0.10523503 0.027075497 -0.24217138
-0.30671018 -0.09069346 0.09423384 0.19832063 -0.30936822 0.12294065 -0.22634278 -0.116963826
-0.05329548 0.093024865 -0.047510203 -0.1634314 0.02111727 0.035969097 -0.061048195 -0.14766115
0.050763562 -0.03858462 0.15967768 0.001912263 -0.09671737 0.057112653 0.067965776 -0.03327156
0.0060615735 0.030930117 0.08339563 0.04344942 -0.1921888 -0.026490787 -0.21383248 -0.12376884
0.2679685 0.18516807 -0.027939579 -0.111902535 0.020024985 -0.027596638 0.07552213 0.1183232
-0.08966046 0.2452759 0.27035192 0.23135763 0.024669783 -0.198639 0.09051256 0.16505294
-0.2005595 -0.119247235 -0.06055378 -0.045676026 0.11095381 0.09430489 -0.051484067 0.06020686
0.048393335 -0.19590232 -0.16231517 0.0578715 -0.0210275 0.16931546 0.11949838 -0.08465906
-0.05539769 0.21985477 -0.03561376 0.101370275 -0.15862456 0.11804682 -0.018198255 -0.108448416
-0.10321204 -0.112607814 -0.1544385 0.010854362 0.08727098 0.20258076 -0.2362219 -0.07749011
0.20434266 -0.016068967 -0.06179987 -0.059439592 -0.09889379 0.03510704 -0.03028827 0.2326871
0.14625698 0.11915753 -0.096800365 -0.1475803 0.009093015 0.09425117 -0.02173979 -0.23222388
0.047094792 -0.27784827 0.09724064 -0.057018742 -0.11774714 -0.08557316 -0.08840983 -0.2184754
-0.04447555 0.094826765 -0.027195452 -0.050042026 -0.09553894 0.041565835 0.060714737 0.008831126

lstm.bias_ih_l0 f4 [256]
00000000: 323f ea3d 2399 a73d 4aff fcbd a41e e4bd
00000010: 6860 ad3e a415 f23d 5bb8 da3d 3ee6 023e
00000020: edeb d6bd 5d2e 80bd 946c c83c 6a5d 243e
00000030: 24a2 aa3e 1026 ccbc e7de f9bd 9de0 293e
00000040: c7e4 c73c c301 f2bd 0667 a63c 1b95 253e
00000050: 4040 e23e d480 9c3d e0a0 5d3e 8740 91bd
00000060: e2fb 4f3c 0287 fb3c 22c6 13be afed 98bd
00000070: 4077 30be 166b 0f3e 796a 27bd d32f 013e
00000080: 41c2 cdbb 61e5 59bd 428c 8f3d 7f58 22bd
00000090: 66eb ea3d 2b81 c73d d764 f43d f7f0 0e3e
000000a0: 5910 edbd 5c24 1f3e 5b65 ab3d af50 893d
000000b0: 5584 c43d ae71 4f3d ad55 113d ae95 9abd
000000c0: 3568 1c3e 1015 183e b0d0 053e 9fa0 c13d
000000d0: 424a 3ebd 8724 833e f4d1 05b9 b360 623d
000000e0: b242 2b3e f69b 403d 3706 e43d 2fe0 74bd
000000f0: aa5d 41bd d644 8d3d c2f7 153d 2e78 883e
00000100: 4c35 01bd 0b7d 34be f066 f5bd 699d d4bd
00000110: 5646 a73b f822 a13d 81aa 1ebe 4d46 103e
00000120: 2dcc 713d fe32 3ebd 232b 703d 1aed bdbd
00000130: db85 57bd 0f03 c93c f0ad 84bd 99d2 46bc
00000140: ffee dabd 1d41 3cbc 923c 8e3c 2fbd 16be
00000150: 623d 4abe 4f99 3bbe 0583 c43c 326d 97bd
00000160: 9e81 82bd d922 a7bc 62ce 9abd 0415 5f3d
00000170: 00af 763d 6206 933d e553 033d 1b41 2fbe
00000180: 7f9b a63b 7a45 5bbe da36 0d3e e578 8c3d
00000190: 1ed6 6fbd eae1 28be 1103 5ebd aba0 a0bd
000001a0: c221 22bd 2f41 f1bd cc94 1f3e a107 1d3d
000001b0: 9c6f 233c 6921 c6bd b74a 0f3d 8ea5 243d
000001c0: f3fa 01be 1384 073e b7c3 c8bc 3a7c 083d
000001d0: 2ede b6bd 6a99 fabd 626f 203d 55c3 e4bd
000001e0: 873f 2f3d e680 f83c 086c bdbd 97bb e6bb
000001f0: 0096 ec34 ae81 50bd 7779 3e3d 93b6 1fbe
00000200: 5b47 b2bb c0c7 cfbd 3e46 c9bd f416 e9bc
00000210: bf73 133e 305a 10bd d5cb 5e3d 0793 03ba
00000220: 6004 103d 38dd 4e3d 6508 03bd bb9a 813d
00000230: 39f3 c5bb a69b 053d 73fd dcbd 5b16 a4bc
00000240: e479 ebbc a0ed a7bd ebc6 943b 1952 38bc
00000250: d30e 03bc d329 263d 967d c7bd 4454 6fbd
00000260: ae0d cabd 8c81 6ebd 5365 fb3c 20a8 8d3d
00000270: 6d64 05be 3bef 063e d5c6 d7bd e89e 90bc
00000280: f785 22bd b15c 433d ee0e 42bd 7159 08be
00000290: f329 c63b 6e76 c23d 4500 b0bd a1f3 80bd
000002a0: c598 d3bd 4037 9f3c 21ad afbd 44c9 22bc
000002b0: d013 a3bc e4a8 e93d fda6 f9bc 3ab3 b43d
000002c0: ae8f 213d a1e4 a1bd 2350 463d 70ef 6fbd
000002d0: 8d39 f0bd a8cf 05be c443 82bc 507e 31bd
000002e0: 04bf 0abb ede3 e5bd 27ac 88bc 6d89 8dba
000002f0: 92f4 f7bd 9284 8cbd 0364 a2bd ef1e b3bb
00000300: e530 ea3d 187d 73bd ab23 7b3d 8082 7d3c
00000310: f577 bf3e 01ea 123e 41ff 143e 5ca5 073e
00000320: f9fb a33d 19f1 063c 01ef 663d 254d 793e
00000330: fe88 283e f42f a3bd 19e3 4dbd c6c9 743e
00000340: 0f58 083b cb69 b03d 3b36 623d babe 733e
00000350: f7ea bb3e e4eb 04bd eea3 453e 03a3 1a3d
00000360: 8eb3 703d f27b c93d 47fe 0b3d 643b a03a
00000370: ad1c f6bd f262 843d 7aab a73c 04cc 943d
00000380: e03c a8bd 4a3c 5a3b 38e3 0fbd d023 be3d
00000390: 2fc0 6c3e 1660 103e 4c00 99bd edb6 c03d
000003a0: 231a f8bd 3772 cd3d 111d a9bd 5dc7 50bd
000003b0: 390b 013e 76c8 68bd c47c 4e3d 0644 df3d
000003c0: cc30 97bc 91bf 283d 80dc 5dbc 6ac1 043e
000003d0: 2d83 d13d d7b5 de3c c1cf cb38 c4fa 82bd
000003e0: 1f14 5b3d 72b0 3f3d 162f 1c3e 8fce 023e
000003f0: 31ed 1fbe f33b ba3d f980 a33d f0ab 933e
0.11437835 0.081835054 -0.1235338 -0.11138657 0.33862615 0.11820534 0.10679694 0.12783143
-0.10494218 -0.06258843 0.024465837 0.1605126 0.33326828 -0.024920493 -0.122007184 0.1658959
0.024401082 -0.11816742 0.020312797 0.1617016 0.44189644 0.076417595 0.216434 -0.07092386
0.012694331 0.030704025 -0.1443105 -0.074672095 -0.1723299 0.14005694 -0.040873025 0.126159
-0.0062792604 -0.05319727 0.07009174 -0.039635178 0.1147068 0.09741434 0.11933296 0.13959108
-0.11575384 0.15541214 0.083689414 0.06704842 0.09595553 0.050645523 0.035482097 -0.075480804
0.15274127 0.14851785 0.13067889 0.09454464 -0.046457537 0.25613806 -0.00012762082 0.055268
0.16724661 0.047023736 0.11133998 -0.05978411 -0.047208466 0.06897895 0.036613233 0.2665419
-0.03154497 -0.17625825 -0.119825244 -0.10381586 0.0051048202 0.07867998 -0.1549473 0.14089318
0.059032608 -0.04643535 0.05863489 -0.09273739 -0.05261789 0.024537591 -0.064784884 -0.012135171
-0.10690116 -0.011490134 0.017362867 -0.14720605 -0.19749978 -0.18320201 0.023988256 -0.07393874
-0.06372379 -0.020402359 -0.07558896 0.0544634 0.060225487 0.07178952 0.03206243 -0.1711468
0.0050844545 -0.21413222 0.13790455 0.06858996 -0.058553807 -0.1649243 -0.054202143 -0.07843145
-0.039582975 -0.11780011 0.15584105 0.038337354 0.00997534 -0.09674341 0.034983363 0.040196948
-0.12693386 0.13233976 -0.024507387 0.033321597 -0.08929096 -0.12236293 0.039168723 -0.11170069
0.042785194 0.030334901 -0.09249121 -0.0070414054 4.4067565e-07 -0.050904922 0.046502557 -0.1559699
-0.005440635 -0.10145521 -0.09827851 -0.028453328 0.14399622 -0.03524226 0.054393608 -0.0005019162
0.035160422 0.05050394 -0.031990428 0.063283406 -0.0060409573 0.03261914 -0.10790529 -0.020030191
-0.028744645 -0.0819962 0.0045403144 -0.011250042 -0.00799914 0.04056723 -0.097407505 -0.05842997
-0.098658904 -0.058229014 0.030687964 0.06916833 -0.1302659 0.13177197 -0.10535971 -0.017653897
-0.03967854 0.04769582 -0.04737752 -0.13315369 0.006047481 0.09495245 -0.085938014 -0.062964685
-0.10331873 0.019435525 -0.085779436 -0.009935681 -0.019906908 0.114091665 -0.030475134 0.08823247
0.039443664 -0.07904936 0.048416268 -0.058577955 -0.11729727 -0.13067496 -0.015901454 -0.04333335
-0.0021170983 -0.11225114 -0.016683651 -0.0010798402 -0.12107195 -0.06861223 -0.07929232 -0.005466334
0.11435107 -0.05944547 0.061313313 0.015473008 0.37396207 0.14347078 0.14550497 0.13246673
0.08007044 0.008236193 0.056380276 0.24345835 0.16458508 -0.07968131 -0.050265405 0.23905095
0.002080444 0.086139284 0.0552275 0.23803225 0.367027 -0.032451525 0.19300815 0.037753116
0.058764987 0.09838094 0.034178045 0.0012224731 -0.12017188 0.06464185 0.020467509 0.072654754
-0.08214736 0.0033300095 -0.035128802 0.092841744 0.23120187 0.14099154 -0.0747076 0.0940989
-0.1211436 0.100315504 -0.08257497 -0.050971378 0.12601937 -0.0568318 0.050411955 0.10901646
-0.018455885 0.041198317 -0.013541341 0.12964407 0.10230098 0.027186317 9.7184915e-05 -0.06395486
0.053485986 0.04679913 0.15252337 0.12774108 -0.15617825 0.09093466 0.07983584 0.28842115

lstm.bias_hh_l0 f4 [256]
00000000: d115 493e 3957 bb3d 9e55 94bb 8a60 173d
00000010: 44d7 4a3e 5ca2 a1bc 19a1 983e cf2d 143e
00000020: d15f 51bc fc30 5d3d cc6d 1f3e 2dc8 e13d
00000030: 5a48 873e 90dd c0bb dac5 083d 7c94 563e
00000040: 7d29 f8bd 25b1 893c 8cc6 1abd 39fd 5e3e
00000050: b0e6 943e 42ca 55bc d794 6b3e e763 9b3d
00000060: 981b bdbd eefc 413e 9807 14be 2bcd c93d
00000070: 0a3f 3fbe b8bb 163e b673 c13d eb92 d43d
00000080: 5ccf b7bd 337a 43bd 70db bb3d 2ea7 183e
00000090: f130 9d3e 64af ac3c fae4 f23c bd98 1f3e
000000a0: f53e 28bc 2847 fe3d cefb bfbc 9f67 a83d
000000b0: 042f aebd e803 a8bd 08e4 81bd 5828 f6bd
000000c0: 07aa 263e 6c4b 373d e013 7c3d 6af4 e4bc
000000d0: 877d 9cbd 85c3 4d3e b117 d43d 2559 b3bc
000000e0: 1b07 f33d 57a2 93bd ef66 5bbd fe57 9a3d
000000f0: 38e3 a5bd 243d c43d 56d4 2abd 4ead 953e
00000100: f8f3 82bd 53dd 15be 46ce 88bd b808 053e
00000110: 7471 d03c b108 04bd 5fb9 43be 34b1 df3d
00000120: 7628 633c 6dc8 cc3d 31fa cabd 4572 debc
00000130: e48e 15be 3953 b83d edf3 d8bc 1773 233d
00000140: 6179 763d 8f88 e03c 127f a33d 3560 70bd
00000150: c40a d6bc 2e81 013c 05cd cbbc f15a 5e3d
00000160: 6592 b1bc a666 cebd d20c 063e 986b 6ebb
00000170: d133 86bd d41b eabd be9f abbb 71d7 35be
00000180: 733e a33c 9fee 49be fe7c aa3d 6ab8 acbc
00000190: 3a85 ebbd 3bfb 93bd 6cf0 10bd 6f62 7bbd
000001a0: 113b 873d 4f02 b2bd 5d2f 8dbb 6acf b03c
000001b0: 8553 8a3d 623f bcbc 16c9 c43d 1237 593d
000001c0: 00ad 99bc d43b 203e 85a3 923d f407 33be
000001d0: 6090 9e3d 5978 1abe 320b 32bd 0b7a cd3d
000001e0: a4f7 a33d 3046 ea3d f2f3 12be 46c8 cfba
000001f0: 9381 ebbd acfb c5bc b96c 35be 20f7 09be
00000200: 86a0 02bd d25e 34bc c3a4 84bd fe90 823c
00000210: 4a04 9cbd 543e 393c 883e 0fbe a4e3 c7bd
00000220: a2f8 113d d22e 7fbd 6b04 5f3c 7ebc 59bc
00000230: ab65 693d 6231 c2bd f0af a5bc 36ce 883d
00000240: 1112 943d d609 9a3c 41b9 c03d 134b e53d
00000250: 1726 12bd 8c7d 50bd f431 60bd aaa1 1e3e
00000260: b207 883c 203d c53c 6eb4 9c3d 7cc1 7c3d
00000270: 7201 d3bd 4ac9 963d 15b8 c73c 24ee e4bd
00000280: f3b8 5cbd 230f b9bd f66c 96bd 3b49 89bd
00000290: 1d1b f6bc 1629 68bd 42dd 3a3d 04cf eebd
000002a0: b54d 86bc 16d8 883d f452 11be dedc db3b
000002b0: 40f0 803d ecff 88bd 7057 c23d c5e2 3fbd
000002c0: 7c36 c53c 6039 a0bd 3178 2a3d b007 1bbd
000002d0: bff2 83bd 4f20 21be 521b df3d 364c ab3d
000002e0: 2790 1fbd 1fc8 883d 9090 0dbe 5dee a4bd
000002f0: 4225 a3bd 3b8d 153d 3b87 c63c 0fe7 f53c
00000300: c014 ec3d 157f 0bbe 667d 02bd ce78 24bd
00000310: 12e0 a53e bd88 2abd 697a 793e 2bb2 503d
00000320: 1b5b 0bbe 06d3 bcbd 03a9 363e 1741 af3d
00000330: caf1 673e 68d8 993d 2ad0 e2bd e49d b63d
00000340: cbf6 8abc 5c86 56bd ec78 9c3d 622c 763e
00000350: 083a e63e 8ab5 fc3a 665d 813e 53db b83d
00000360: 2cd1 f7bc 37ef 153e 6924 a83d 7ca0 673d
00000370: df20 d5bd 2199 a93c 037a 3d3c 6c07 3d3e
00000380: 4913 4bbd f7ff 27bd 7a4d ae3c d2f8 3ebd
00000390: 0f8b 943e 9a2c 4d3e dcf3 3ebd 2c12 033d
000003a0: 17e0 dcbd 8650 ed3c 8730 df3d 850c a93d
000003b0: 4da1 323d 6f22 27bc 66af 063e 73dd b13d
000003c0: 9f23 793d 386f 5ebd 1396 923d 1e8b c13d
000003d0: 1957 d03d 6642 2e3e 648f e4bc 32f4 c9bd
000003e0: 9a88 253e d940 07bd da4a 83bb 5499 19bd
000003f0: a30f c5bd 8bb4 da3d b7ac 403c d3ea b03e
0.19637229 0.09147496 -0.004526808 0.0369573 0.1980868 -0.01973074 0.29810408 0.144706
-0.012779192 0.054001793 0.15569228 0.110245086 0.26422387 -0.0058857873 0.03339181 0.2095508
-0.12117288 0.016808102 -0.037787005 0.21776284 0.2908225 -0.01304871 0.23005997 0.07587414
-0.09233779 0.18944141 -0.14456022 0.09853586 -0.18676391 0.14720047 0.09445898 0.10379585
-0.089750975 -0.04772396 0.09172714 0.14907524 0.30701402 0.021079727 0.0296502 0.15585609
-0.010268916 0.12415916 -0.0234355 0.08222889 -0.08505061 -0.0820387 -0.06342322 -0.12019414
0.16275798 0.044749662 0.06154239 -0.027948577 -0.0764113 0.20094116 0.10356081 -0.021893093
0.1186659 -0.07208698 -0.053564962 0.075363144 -0.08099979 0.09581974 -0.041706406 0.29233783
-0.063941896 -0.1463521 -0.066799685 0.12991607 0.025444724 -0.03223485 -0.19113682 0.10922471
0.013864627 0.09999166 -0.099110015 -0.027154097 -0.1460529 0.090002485 -0.0264835 0.03990468
0.06017435 0.027408866 0.07983221 -0.0586855 -0.02612818 0.007904334 -0.024878034 0.054285947
-0.021676252 -0.100781724 0.13090828 -0.003638005 -0.06552852 -0.11431089 -0.0052375486 -0.17757966
0.019927239 -0.19719933 0.083246216 -0.02108403 -0.1150002 -0.07225653 -0.035385534 -0.06137317
0.06603063 -0.086918466 -0.0043086247 0.021583278 0.06754211 -0.022979442 0.096086666 0.053031035
-0.01875925 0.15647823 0.07160095 -0.17483503 0.07742381 -0.15084971 -0.043467708 0.100330435
0.08006218 0.114391685 -0.1435087 -0.0015852533 -0.11499324 -0.024167858 -0.17717256 -0.13473177
-0.03189137 -0.011008935 -0.06476738 0.015938278 -0.076180056 0.011306364 -0.13988698 -0.09760216
0.035637505 -0.06230051 0.013611893 -0.013289569 0.056981724 -0.09482075 -0.020225495 0.066799566
0.072300084 0.018803518 0.094103344 0.1119596 -0.035680857 -0.05090098 -0.05473514 0.15491357
0.016605232 0.024076998 0.07651602 0.06170796 -0.1030301 0.073626116 0.02437977 -0.11178234
-0.05388732 -0.0903609 -0.073450014 -0.06703421 -0.030042225 -0.056679808 0.045621164 -0.11660579
-0.016394475 0.0668184 -0.141918 0.006709679 0.06295824 -0.06689438 0.09489334 -0.046847124
0.024073832 -0.078234434 0.04161853 -0.03784913 -0.064427845 -0.15734981 0.10893883 0.083641455
-0.038955834 0.06678795 -0.13824677 -0.08053277 -0.07966091 0.03651164 0.024234405 0.030017404
0.11527395 -0.13622697 -0.03185787 -0.04015427 0.32397515 -0.04163431 0.24363102 0.050951164
-0.13608973 -0.09219937 0.1783791 0.08557337 0.22650829 0.07511979 -0.110748604 0.08916834
-0.016963383 -0.05237423 0.076402515 0.24040368 0.4496615 0.0019280177 0.2526657 0.09026208
-0.030251108 0.14642034 0.0821007 0.056549534 -0.1040666 0.0207029 0.011564734 0.18459862
-0.04957894 -0.04101559 0.021277178 -0.046624012 0.29012343 0.20036545 -0.04661928 0.031999752
-0.10784929 0.02896906 0.10897928 0.08254341 0.04361086 -0.010201081 0.13152847 0.08684816
0.060824987 -0.054305285 0.07157531 0.094503626 0.101728626 0.17017516 -0.027900405 -0.0986103
0.1616539 -0.033020828 -0.0040067257 -0.03749974 -0.09622123 0.10678967 0.011759928 0.34554157

lstm.weight_ih_l1 f4 [256, 64]
00000000: 78ed 17bd 9f99 ce3b ca5f e53d 8371 773e
00000010: 94aa 8c3c d8c3 a23d f7e2 b2bd 86b7 73bc
00000020: dd5c 19be 177b b73b a848 c73d 3739 2b3e
00000030: 005e 91bd f065 84bd 5786 cebd db11 2fbe
00000040: 3d36 94bd e2fb af3d 8775 d7bb c70f efbd
00000050: 64f4 d3bd 3dd3 8fbd 5ebf 643d 8c87 073c
00000060: 56ce f13d efac 223e 1443 babd d5ab eebc
00000070: 0165 ca3d d983 c0bd fd24 463e ddd0 f93d
00000080: 3a37 2a3e fdfd 3bbd c7f0 9dbc 879d c8bb
00000090: fad4 ffbc 4afa a9bd bfe8 bebd fd1a cbbd
000000a0: 0569 393e ae5f eabd a4cd 8b3d 45a1 62be
000000b0: 9805 9fbd f4d6 45be b971 f33d 9121 303d
000000c0: 0087 18be 01b6 4a3d f977 f9bd 6dce 78bd
000000d0: e44f ec3c 7b7f 0cbd 4c00 1bbe 8ac5 1c3e
000000e0: f353 02bd 4dde 3ebd e7f3 943d e84c e83c
000000f0: f83e a33d 3e97 ea3d be87 18be c5ca 853d
00000100: 3c9a c8bd c774 ccbc 0796 533d 955e 073e
00000110: 230f 53be e628 f0bd 38eb 06bd fbb9 d6bd
00000120: 7814 e1bd 5c30 303e 64a5 00be 37be 4cbe
00000130: c0e0 88be a75b 40be a7e6 5f3c 84b6 b23d
00000140: 1fc1 163e 1f8e e9bb c62e 76be a75c 1fbd
00000150: f08b 923d f62f 9bbd 4acf 0e3e 875b 38be
00000160: 9898 e03c 19ca 08be 7ff1 143e 29b1 5f3e
00000170: 6e30 173d 97a7 4ebe 060e ba3b 7470 87bd
00000180: e192 0a3d 0771 193d f5a1 313e db78 0f3e
00000190: 499e 3f3e 27db 56be 96e6 a6bd 0f19 05bd
000001a0: 510f 4ebd d64b 60bd c23b 03bd 3d2d 68bb
000001b0: 38ff d13b 53aa f3bd 5e39 30bd b2dd 223d
000001c0: f841 50bd 1c48 0c3e 4b9e f03d f5cf 453e
000001d0: 8dd0 96bc b720 243e 19ba 94bb 776b babd
000001e0: 5a83 bc3d 15fa 313e 74f6 1b3e 64ed 323e
000001f0: 5ba3 1dbd 95b3 c03d f5ad 833c 90c5 86be
00000200: 6135 b3bb e274 1bbd 0e06 393d f4ed 213e
00000210: 1b49 38bc 21e5 a83d d363 413d 726d b2bd
00000220: a0c8 57bd d00e 9ebc 1bcf ff3c 6e18 c6bd
00000230: 6e25 02be 25a3 133d 76a7 8f3c 35a8 73bd
00000240: 09f3 2e3c c48a 683d 40c2 803d abbe c6bc
00000250: 9211 d53d bc6d 70bd a261 0fbd f644 d4bd
00000260: f5ce 0d3d 4c74 003e d4d9 debb 0c59 ccbd
00000270: f06f fb3d f22d 8abd bc65 8a3c 26b4 8e3d
00000280: 777b d43d 753a 963c c95d d33d da32 193d
00000290: 3930 68bd 1125 3dbd d58f 3fbe c5f8 33bd
000002a0: 675b 563d 66ba 233d aca4 3dbb 7571 23be
000002b0: 2bcd 093d 1f1d a5bd daf9 47be 8ad7 b8bd
000002c0: 2655 4ebd 8d42 c2bd 3459 33be 28b3 4f3e
000002d0: 2977 243d daf5 be3d d4bd b6bc 5c0f 49bd
000002e0: 5d29 bdbd 3789 45bd 038a 773d c815 d0bd
000002f0: 53b9 893d 0594 c63d 49fa e9bd c7a0 63bd
00000300: eaa7 d7bc b2c6 18bd 5d13 3e3e f01f 1bbe
00000310: 36cc 3f3c 8f9e 113c 02a5 783d d260 2dbe
00000320: 19d2 993d 027f 183d 34dd 3fbd 9288 243e
00000330: 1230 dd3d ec81 0b3e 16f2 8fbd 61fe 53bb
00000340: c850 adbd 4968 58bc 8636 b83d dfa9 e73d
00000350: d014 ce3d db75 123d 65cf ebbb 372f df3d
00000360: 244e b73d a1a9 a03d fd85 5abd 742b 823c
00000370: 04b0 29be e3fb 9abd 25b3 c2bb 5b1d 563d
00000380: fe0d 93bd 8c26 d73d 0c39 8f3c 04d2 d6bd
00000390: de17 7d3d 349f 503d b1d7 193d 6049 223e
000003a0: b96b 09bd c094 2bbe 2956 993d c18b e13c
000003b0: 0ba5 cdbb 9219 9c3d ee33 ccbc be93 a4bd
000003c0: 7866 0c3e 663f e03d 63a4 0ebe 78b8 3cbd
000003d0: 3c1a c03c 0240 41be 75c5 c8bd 698d 1bbd
000003e0: a103 16be ce90 163d 8d1b 2ebe 064c 613c
000003f0: e965 cd3d 4bb6 2f3d 5669 13bd 4509 043d
-0.037091702 0.006304934 0.11199911 0.24164395 0.017171182 0.079475105 -0.08734696 -0.014875298
-0.14976831 0.0055993902 0.09730655 0.16721044 -0.07098007 -0.064647555 -0.10084217 -0.17096655
-0.07236908 0.08592965 -0.0065752896 -0.11672931 -0.10349348 -0.070227124 0.055846564 0.008272063
0.118069336 0.15886281 -0.090948254 -0.02913467 0.09882546 -0.09400148 0.19350047 0.12198041
0.1662263 -0.04589652 -0.01927985 -0.0061222943 -0.031229485 -0.08299692 -0.093217365 -0.09917257
0.18106468 -0.11444031 0.06826332 -0.22131832 -0.07764739 -0.1932028 0.11886925 0.04300076
-0.14895248 0.04948998 -0.12181086 -0.060743738 0.028846689 -0.034301262 -0.15136832 0.1530973
-0.03181834 -0.04659872 0.07273083 0.028356984 0.07970995 0.114546284 -0.14895532 0.06532816
-0.09795043 -0.024958028 0.05165675 0.13219674 -0.20611243 -0.11726551 -0.032939166 -0.10484692
-0.10990232 0.17205948 -0.12563092 -0.19994436 -0.2673397 -0.18784963 0.013665832 0.08726218
0.14722107 -0.007127538 -0.2404128 -0.03890672 0.07155597 -0.07577507 0.13946262 -0.18003665
0.027416512 -0.13358344 0.14545248 0.21844925 0.03691142 -0.20181118 0.0056779413 -0.066132456
0.03383148 0.037461307 0.17346938 0.14010946 0.18712725 -0.20982037 -0.081494495 -0.0324946
-0.050307576 -0.054759823 -0.03203941 -0.0035427355 0.0064085983 -0.11897721 -0.04302346 0.039762206
-0.050844163 0.13699383 0.11748942 0.1931761 -0.018409992 0.16028105 -0.004538786 -0.091025285
0.09204741 0.17380555 0.15230733 0.1747337 -0.038485866 0.094092526 0.01607416 -0.26322603
-0.0054690097 -0.037953265 0.04517179 0.15813428 -0.011247898 0.08246828 0.04721434 -0.08712281
-0.052681565 -0.019294173 0.031226685 -0.09672628 -0.12709591 0.03604426 0.017535906 -0.059486587
0.010678061 0.056772962 0.0628705 -0.02426084 0.10403742 -0.0586984 -0.03500522 -0.10364716
0.034621198 0.12544364 -0.0068008695 -0.09977922 0.1227721 -0.067470446 0.016894214 0.06967954
0.103751116 0.018338421 0.103206225 0.03740201 -0.056686614 -0.046177927 -0.18707211 -0.043938417
0.05233326 0.039972685 -0.0028937263 -0.15961249 0.03364293 -0.08062195 -0.19528905 -0.09025486
-0.050374173 -0.0948535 -0.17514497 0.20283186 0.040152702 0.09324236 -0.022307314 -0.049086913
-0.09236405 -0.04822656 0.060434353 -0.101604044 0.06724801 0.09696201 -0.11424691 -0.05557325
-0.026325185 -0.037298866 0.18562074 -0.15148902 0.0117064025 0.008887901 0.06070424 -0.16931465
0.07510776 0.0372305 -0.046841815 0.16067722 0.10800184 0.1362378 -0.07028596 -0.0032347667
-0.084626734 -0.013208457 0.089947745 0.11311697 0.100625634 0.035756927 -0.007196354 0.108976774
0.08950451 0.07844854 -0.053350437 0.01588986 -0.16571051 -0.07567575 -0.005941766 0.05227409
-0.07180403 0.10505399 0.017483257 -0.10489276 0.06179034 0.050933078 0.037559215 0.15848303
-0.033549998 -0.16755962 0.07487137 0.02753246 -0.006275778 0.07622065 -0.024927106 -0.08035992
0.13710964 0.10949592 -0.13929896 -0.04607436 0.02345001 -0.18872073 -0.09803287 -0.037976656
-0.14649822 0.03675919 -0.17002697 0.013751036 0.100292034 0.042898457 -0.035989128 0.032235403

lstm.weight_hh_l1 f4 [256, 64]
00000000: d980 793c f786 18bc d294 b43c 7756 e93c
00000010: 0eb1 bebd 719a f73d 2ae4 05bd b816 a6bd
00000020: 6515 973d b83a a43d 0194 173e 0fa6 91bd
00000030: 734e cbbd f40e 883d 0395 61be 74df acbc
00000040: de52 fa3c 21fb b5bc a8eb fcbd ac71 013e
00000050: c1ad 393e 8901 483e c0ec 13be 66c5 a1bd
00000060: 2c9b 2bbe c1db f3bc 4eb6 d73d 6618 0abd
00000070: ce3f e1bd 22a8 f7bc 2c17 1d3e 2433 9d3d
00000080: be94 8e3b a742 b6bd 6b26 123e 1e56 ea3d
00000090: 0854 e8bd 935d b9bd b995 97bd 290b d0bb
000000a0: 6130 f53c ec0d bb3d ccf9 6dbc 3534 9ebb
000000b0: 8c54 833e 3947 863d 131d 64bd 8962 563d
000000c0: c8db 64bd 855d 14bc cb74 04be c392 073e
000000d0: 43e0 0f3d 58b3 be3c 40d8 f8bd 8243 4dbd
000000e0: 96ca 343d 2fd8 c13d c03d 4b3d 57e6 a4bc
000000f0: 3796 b6bb 5c86 fbbd 5769 403d ca37 71bd
00000100: b095 39bd bb36 c5bc 3eba 0b3d 4ab3 173d
00000110: 4865 2abd 7971 41bc 3d13 0fbd a621 c33d
00000120: a139 603d aeda f7bd e790 ea3d 0130 fc3c
00000130: d071 28bd fb66 50be cadb 51bc cd50 18be
00000140: 2138 87bd 3c5b 293d 624d 1bbe 8a43 a8bd
00000150: 9dae d2bd 90c0 fc3b 0060 4f3d d619 ea3c
00000160: a0d0 40bd c8bf caba 3a47 213d b654 07be
00000170: 04be a43c 72bf 39bd 404a a7bd 2d10 6f3d
00000180: bb48 903c e766 74bc 9fa4 8a3d 7b63 37bd
00000190: ed81 b2bd 2fd7 36be 4aa3 c43c f5c6 723d
000001a0: 220a 99be db67 febd 852c 0c3e 96b1 1f3e
000001b0: 2c76 0a3e 437e f23d b4fe 623c d081 353d
000001c0: 93a7 4ebe fb08 3ebc 3950 643c ccce 15be
000001d0: 7fb6 a0bd b60c 143e 0876 06be 6e95 83bd
000001e0: a123 3dbd e712 3cbe cccd da3c 556c 8f3d
000001f0: 4932 0abe f5b0 c73c 4d5f 3e3d e689 a0bd
00000200: 63ca 93bc 76e2 4c3d 0601 a73b c13c d9bd
00000210: 5415 a43c 0a8b 113d cb9a 553d 2367 d23d
00000220: 3d4b 6d3d f39f 82bd fb11 2cbb 446e 41be
00000230: b0bc a7bd 451f 653d 273d e93d b69a bf3d
00000240: 63c8 d63d a49f 6cbd 9911 873c 7a7a 723d
00000250: 29ba a33d 1329 813d cd7c e83a 859d cb3d
00000260: 54c3 0bbd b50d cd3d 4737 ebbd 4c22 623c
00000270: 918f 2dbe fd70 003c 1d6f e0bd 4942 a83d
00000280: 7a58 a73b 8f83 66bd 1da6 5c3c b925 0c3d
00000290: 2b13 a03d d71b 0b3e 689e a93c 86d1 bd3d
000002a0: f7de 953d 809c 91bd 2894 20bc 5497 67bc
000002b0: d439 b53d 12b0 f2bc 35ad ec3d cccc 233e
000002c0: d93d 37bd eecd bbbd a924 253d 2b6e 5a3d
000002d0: 1963 a4bd 5c8a 403d 666b 023d 7b7f 933c
000002e0: a9b3 763d 8710 363d 20c1 e73d ede2 1dbe
000002f0: 2294 9bbd 76ab ee3d 8647 3d3d b755 0bbe
00000300: 5ce9 dabd ce09 4a3d cd9f 99bd b649 c2bc
00000310: 9b67 7bbc 2921 553e a8ae 22bc cd79 63bd
00000320: 9cd9 bd3c 7c14 50bd d57d af3b 73d6 2d3d
00000330: 8e90 163e ff85 b03d 234f 45bd c819 a43c
00000340: 8990 1abe 965a b4bd d4db fc3d 8b26 f83d
00000350: fc83 923d bb8f d23d 8d04 1ebd 11ff dabc
00000360: 857d abbc 8745 333d 5557 783d 3a87 babd
00000370: 7d26 753c 88a0 1b3e df74 1b3e c570 c6bd
00000380: 28d3 3bbe 8cc1 593d f36b b5bd e7a7 e5bc
00000390: 8482 c23d 0eef 37bd 9480 bfbd 42bb 113d
000003a0: ae3c 313e e9cc 373c e8ad 55bd df14 17be
000003b0: c527 7abd 646d 6bbd 8a32 3fbd 123d 15be
000003c0: 6ce6 51bd b042 f7bd 311a b0bd 1845 2c3e
000003d0: ab3c 3a3e 3652 9dbd 9c42 3ebd a0e2 8fbd
000003e0: 2130 0bbe 7930 6f3d 046e 04be 6b01 f33d
000003f0: ac55 e53d d330 c0bd 1ad5 e9bc 4945 7ebd
0.015228474 -0.009309522 0.02204362 0.028483612 -0.09311114 0.12090004 -0.032688297 -0.08109802
0.073771276 0.08019012 0.14802553 -0.07111751 -0.099270724 0.06643477 -0.220295 -0.021102645
0.030557092 -0.022214474 -0.12349635 0.12641019 0.18132688 0.19531836 -0.14445782 -0.07898979
-0.16758412 -0.029767873 0.10532819 -0.033714674 -0.10998498 -0.03023154 0.1534087 0.0767577
0.0043512275 -0.08899432 0.14272468 0.11442207 -0.11344153 -0.09051051 -0.07401604 -0.0063489866
0.029930295 0.09133515 -0.014524888 -0.004828001 0.25650442 0.065565534 -0.05569179 0.052340064
-0.055873662 -0.0090555 -0.12935178 0.13239579 0.035125982 0.023278877 -0.121506214 -0.05011321
0.044138514 0.09465062 0.049619436 -0.020129366 -0.005572106 -0.122814864 0.04697546 -0.058891095
-0.04530877 -0.02407395 0.03411316 0.037036218 -0.041600496 -0.011806839 -0.034930456 0.09527902
0.05474246 -0.12102257 0.11453419 0.030784609 -0.041124165 -0.20351784 -0.012808749 -0.14874573
-0.066025026 0.041346774 -0.15166238 -0.08216007 -0.10287211 0.007713385 0.050628662 0.028576773
-0.04707396 -0.0015468532 0.039374568 -0.13215908 0.020110138 -0.045348592 -0.08168459 0.058365036
0.017612806 -0.014917112 0.0676968 -0.044772606 -0.087161876 -0.17855524 0.024003644 0.05927177
-0.29890543 -0.124221526 0.13688858 0.15595087 0.13521641 0.11840489 0.013854671 0.044313252
-0.20181112 -0.011598821 0.013935142 -0.14629668 -0.07847308 0.14457974 -0.13130963 -0.06424986
-0.046176556 -0.18366586 0.02670946 0.070030846 -0.13495745 0.024376372 0.046477605 -0.07838802
-0.018040841 0.050020657 0.0050965576 -0.10607291 0.020029701 0.03553299 0.052149575 0.10273578
0.05793308 -0.06378164 -0.0026255834 -0.18889719 -0.08190286 0.055938024 0.11388617 0.09355681
0.104874395 -0.057769433 0.016487883 0.059198834 0.079944916 0.063066624 0.0017737389 0.09942154
-0.034121826 0.1001238 -0.11485153 0.013802122 -0.16949297 0.0078394385 -0.10958693 0.08215768
0.005106983 -0.056277808 0.013467339 0.034215663 0.07816156 0.13584839 0.020705417 0.09268479
0.07317918 -0.07109928 -0.009800948 -0.0141352005 0.088489205 -0.029624972 0.11556474 0.15996093
-0.044736717 -0.09170137 0.040318165 0.05332772 -0.08026714 0.04700695 0.031840704 0.018005123
0.06022993 0.044449355 0.113161325 -0.15418597 -0.075966135 0.11653797 0.04621079 -0.13606916
-0.10689041 0.049325757 -0.07501183 -0.023716789 -0.015344526 0.20813431 -0.009929337 -0.05553608
0.023175053 -0.050800785 0.0053555765 0.042440843 0.1470358 0.08619308 -0.048171174 0.020031825
-0.15094198 -0.088063404 0.123466164 0.121167265 0.0715408 0.10281321 -0.03857856 -0.026732953
-0.020933876 0.04376748 0.06063016 -0.09107824 0.01496279 0.15197957 0.15181302 -0.09689478
-0.18342268 0.053163096 -0.0885848 -0.028034164 0.0949755 -0.044905715 -0.09350696 0.035578974
0.17308304 0.011218288 -0.052167803 -0.14754055 -0.061073083 -0.05747737 -0.046679057 -0.14574078
-0.051245138 -0.120732665 -0.085987456 0.16823232 0.18187205 -0.07681696 -0.046450242 -0.07025647
-0.13592578 0.058395837 -0.12932593 0.11865505 0.11197981 -0.093843125 -0.028543998 -0.062077794

lstm.bias_ih_l1 f4 [256]
00000000: 4f16 ac3d 1807 f73d 0cb6 74bd f694 f93d
00000010: 3d01 eb3d 6278 d53a ba1e 603d d309 003e
00000020: ab6e c8bd 9fdd 543d 6ccc d33d 3a29 0e3d
00000030: a070 78bd 011a ffbc aa79 2cbd 690f 8a3d
00000040: 0940 053e efb0 e63d 2859 983d d045 7d3c
00000050: 3be0 b73d 82d2 a93d e3c4 fd3c 5fec b63d
00000060: b982 873d 9408 003e d541 5d3e 7e76 2e3a
00000070: a489 f93d 9d4f 2c3e f9b1 903b 4df5 5d3b
00000080: e119 2abd 6f14 a7bb fcd0 51bb e205 0a3e
00000090: 1b26 803d e408 af3d 6b02 a53d cba2 75bd
000000a0: a317 063e 3234 0b3d 45ec 4f3c ae65 673e
000000b0: fef4 dabc ea2b a7bd d4f2 02be 6991 3b3e
000000c0: 5e84 c7bd e45a e3bd b17e 22bc 21cd 5bbd
000000d0: 01b4 7cbd 1eb3 c83d 032a 90bd 1020 523e
000000e0: 33a9 0ebe 5c5f e53c 5ceb 43bc 9521 3f3d
000000f0: 8772 8ebc cb89 bebd 8cd2 a53d f0f4 9b3d
00000100: f8e1 febd ee56 92bd 181b 773c 078f 59bd
00000110: 463f c03a 821e 08bd efa5 fa3c e38e 12bd
00000120: 0769 9d3c f0b1 f4bd f576 a23c 185a 273d
00000130: 5472 ef3d b8af 15be 3092 3c3d 477a 3abe
00000140: 3633 e8bd 9511 a63d 2179 a8bd b725 3fbe
00000150: 2119 0dbe f8ed dfbd 71cf e6bc 8252 25be
00000160: 9fbf d93d 00e4 023b fe54 afbc 149a da3d
00000170: f281 7abb f24e f8bd 90e3 99b9 9682 1abe
00000180: be4a 983c 454b 33bd 503d f0bd 4e0b 81bd
00000190: 2bec 1c3d f91b 8a3d ad18 363c 3bc7 b43c
000001a0: 93cf 3e3d b9d0 73bd 337f 37be 0b79 2a3d
000001b0: 5e2d 8b3d 4d8d 9abc f8d1 4b3d b048 17bb
000001c0: 30f5 21be 1d35 90bd db20 60bc c6cf 29bc
000001d0: 8bcc c9bd 1f32 813d 0586 fd3c f2e8 ff3c
000001e0: 6d65 a9bd bfa5 8fbd 5c61 3bbd 2be4 b3ba
000001f0: f888 523d ac57 a53b 50da 4e3d 09df 0ebe
00000200: 926d a03c 925c 373d e199 6dbd a6c8 443d
00000210: 9626 6e3d 5838 80bd 0f95 dfbc b25a c0bd
00000220: 68ce 3bbd 3200 9c3c 3723 e0bd 5ff7 113d
00000230: 5c08 a13d 1b3c 5ebd 715c ae3c 5d61 8dbd
00000240: 8531 98bd 90d0 c53d 0d5e 983d 550d 64bd
00000250: 3eac 1bbd 1bee 8bbd b73c a93d fd43 453d
00000260: 7ab4 c7bd d36d 713d c3e3 c7bc 0d07 93bd
00000270: d7c0 983d f86b 9fbc 3a62 4ebb 1080 03bd
00000280: 4b0d 6d3d e9bc 823d 245a 0bbe e8aa d83d
00000290: 0f98 bc3b 0b98 993c 9065 b2bd ef0f aabd
000002a0: aa24 833b e073 c3bc 957f 9b3d 28a9 1d3d
000002b0: 2adc c3bd 0bea 4a3d b3a8 79bc dfa2 2e3d
000002c0: 1009 cdbd e79c 9e3c 8758 7abd a24c 273b
000002d0: 3e29 5dbc cc2c 11bc 45bc e43d b0ad e73c
000002e0: 0f89 a5bd ae8d 843d f9ad e2bd 2119 a3bc
000002f0: 0499 5e3d ad7e cf3c 3746 aabc 97b3 423d
00000300: 6917 a4bd 4998 7a3d bb3c 0cbe c8b2 f1bd
00000310: 2e39 c13d 7ef5 a4bd 1c60 49bd c0cb 493d
00000320: 7b2c acbc e971 31bc 5d31 ddbd e5dd 353d
00000330: bed4 bbbd 79c2 f33c 73a3 7cbc ad74 013e
00000340: e006 72bd b6b9 113b 089a 42bd 91ec f2bc
00000350: 50f5 253c 42b1 2e3e d48a 63bd 2228 283e
00000360: 5a40 f03d f96d a2bd 5c80 513e 9e15 a83d
00000370: c836 133d 89b7 043d bd30 8abd aa3d 2abd
00000380: bdfd ef3d b1fa 4abe 69a1 8bbc a743 bc3d
00000390: b960 93bd 5a6e 3a3d 61ab 0fbe e6ea 70bd
000003a0: 6b4c dd3d d5b7 333d d258 f73c df2e 1d3c
000003b0: 081b ebbd 471a b63d 479c e0bd eaae 703c
000003c0: b298 8a3d a23e fcbd 1a23 5b3d 0c36 d9bc
000003d0: fce3 ca3d cdc6 583d 236e 4bbd ce46 5a3e
000003e0: cec9 753d e657 09bd 2598 00be 3913 a93b
000003f0: 2a87 e9ba 6f00 503d ecfc 29bd 5358 743a
0.084026925 0.120619 -0.059743926 0.12186615 0.114748456 0.0016286487 0.054716803 0.12503748
-0.09786733 0.051969167 0.10341725 0.034707285 -0.060654283 -0.03114033 -0.042108215 0.067412205
0.13012709 0.11264216 0.0743888 0.015458539 0.089783154 0.08292104 0.030977672 0.08931803
0.0661673 0.12503272 0.21607144 0.000665523 0.12184456 0.16827245 0.0044157472 0.0033868134
-0.041528586 -0.0050988714 -0.0032015434 0.13478807 0.06257268 0.085466176 0.08057102 -0.059969705
0.13094954 0.033985324 0.012690608 0.22597381 -0.02672815 -0.08162673 -0.12787944 0.18317188
-0.09742044 -0.111013204 -0.009917901 -0.053662423 -0.061695103 0.09799789 -0.07039263 0.20520043
-0.13931732 0.027999572 -0.0119579695 0.046662886 -0.017388595 -0.09303626 0.08096799 0.076150775
-0.12445444 -0.07145487 0.015082143 -0.053114917 0.0014667294 -0.03323222 0.030596701 -0.0357808
0.01921512 -0.119480014 0.019832114 0.040857404 0.11691728 -0.14617813 0.046037853 -0.18210708
-0.11337893 0.08108822 -0.082262285 -0.18666731 -0.13779117 -0.10934061 -0.028175088 -0.16144755
0.10632252 0.0019972324 -0.021402832 0.10673919 -0.0038224426 -0.121244326 -0.0002935198 -0.15088877
0.018590327 -0.043772954 -0.117304444 -0.06300984 0.038311165 0.067436166 0.011114282 0.022067657
0.046584677 -0.059525225 -0.17919616 0.04161934 0.067957625 -0.018866206 0.04976079 -0.0023084097
-0.15816188 -0.070413806 -0.013679708 -0.010364478 -0.098534666 0.06308388 0.030947695 0.031239007
-0.082712986 -0.070140354 -0.045747146 -0.0013724616 0.051400155 0.0050458517 0.050501168 -0.13952269
0.019583497 0.044766016 -0.05800808 0.048042916 0.058142267 -0.06260747 -0.027292756 -0.09392299
-0.04585114 0.019043062 -0.10944217 0.035636302 0.078629225 -0.05425654 0.021284314 -0.06903336
-0.0743132 0.09658921 0.07439814 -0.055676777 -0.03800606 -0.068325244 0.082635336 0.04816054
-0.0975122 0.058942627 -0.024400597 -0.07179079 0.07458656 -0.019460663 -0.0031491653 -0.03210455
0.057874005 0.06383688 -0.13608605 0.10579473 0.0057554315 0.018749258 -0.08710778 -0.0830382
0.0040021734 -0.023858964 0.07592694 0.038491398 -0.09563477 0.049539607 -0.015237975 0.042635795
-0.10011494 0.019361926 -0.061119583 0.0025527854 -0.013498602 -0.008860778 0.11168722 0.028281063
-0.080827825 0.06472336 -0.11068339 -0.019909443 0.054345146 0.025328958 -0.020785434 0.04753455
-0.08012278 0.061180387 -0.13695042 -0.11801678 0.09434734 -0.080546364 -0.049163923 0.049266577
-0.021017304 -0.010830381 -0.10800431 0.04440107 -0.09171437 0.029755818 -0.015419829 0.12642165
-0.059088588 0.0022235936 -0.047510177 -0.02965382 0.010129288 0.17059806 -0.05555232 0.1642156
0.11731024 -0.07931132 0.20459121 0.08207248 0.035940915 0.032401595 -0.06747577 -0.041562714
0.117183186 -0.19822194 -0.01704474 0.09192591 -0.07196183 0.045515396 -0.1403022 -0.058817767
0.10805591 0.043876488 0.03019372 0.0095936945 -0.11479765 0.08891731 -0.109673075 0.01469014
0.067674056 -0.12316634 0.053500272 -0.02651503 0.09906766 0.052923966 -0.04966558 0.21316072
0.06000691 -0.033531092 -0.12558039 0.005159762 -0.0017816771 0.050781664 -0.04150097 0.00093210227

lstm.bias_hh_l1 f4 [256]
00000000: d45a a03c 7339 ee3c 4d0e 10bd c440 92bd
00000010: f5d7 ea3d 0f79 b53c 699f ee3d 4982 c8bc
00000020: 1c05 d0bc b3ff afbd deb5 9b3d a56c a43c
00000030: 6172 ab3d 829d d13b 4a1a 973c 747f e43d
00000040: 27d7 0d3e 516a 90bd 2654 763d cca1 df3c
00000050: 26ed cab9 a254 7a3e 0c9f d5bd df14 c23c
00000060: 39ef d6bd 30db f1bc 1b51 853c f1e6 cd3b
00000070: 5536 76bc c129 96bc 02dd 9abc 4b09 90bd
00000080: ad7c 103d 73d8 a8bd c008 dcbd 25ca 183e
00000090: fbf1 2cbe 9e78 3d3e d90c 933d 5cb4 a93d
000000a0: e64c 743e bad1 08be c232 ab3d 2a69 0c3d
000000b0: 19a7 01be 4dfb ff3d 550e c2bb 75f9 813d
000000c0: ed8b a7bd 5b18 b93c 6456 113d da5b e6bd
000000d0: 8d5d 6bbd 46f5 ccbd d291 293d e29b 5c3e
000000e0: 7250 4bbd 037f a73c 60df ca3d 16eb 053d
000000f0: 1dd1 ef3d eb26 84bc 4a34 ebbd 0108 3b3d
00000100: 3384 ce3c 5015 353d a691 cbbd fe8b 603d
00000110: 099f ac3c 385e 9cbc 07c1 55bd 145c 073d
00000120: ebbe 5bbd 03c2 d43c bbe0 ecbd a3e7 0fbe
00000130: 79ee 323e e78d d8bd a381 ba3c 4f80 febd
00000140: c9f6 3bbd d786 2f3e 3365 253d 7b3c 5bbe
00000150: b4a8 88ba fa3a f7bd 0bc3 023d c2a5 22be
00000160: a584 10be 03c6 bc3d 2a86 8fbd 56ec d4bd
00000170: ce3a 0cbe 810e b93d 7dcc febc 0dc4 26bd
00000180: 797e af3c 76c6 02be ce3b 6fbc 8cb8 d93d
00000190: 0a81 a8bd 8636 4d3d 1355 acbd 37a4 d9bd
000001a0: ff0e 0bbe 876f d63d d8b9 3dbd 9b69 2ebd
000001b0: b970 78bd b101 c2bc c313 25be b5d8 99bc
000001c0: 1595 c43b ff75 c0bd 1b86 233d a318 31be
000001d0: a3f5 2dbe e38f 93bb 0493 bb3c 0b76 503d
000001e0: 2689 2bbe 3dc8 a73d 4fc1 a43c 8ef0 c2bd
000001f0: 40cb 4dbd 6a8e d0bb 2e12 633d 4962 14be
00000200: 2607 0f3c 2d45 b1bd 2cb6 8cbb bcae 723d
00000210: e31a 7f3c 4a59 423d 4a25 d03d 248d d53d
00000220: 8e2a 02bb a0e1 f1bc a74e a63d 6170 833d
00000230: 6f71 9dbc e782 973d 2a32 413d 1e9e d5bc
00000240: f872 a0bd 40f2 d33c 0fdb fabd 0908 e13c
00000250: 981d 21bd de42 91bb 3e27 19bd 6d33 183d
00000260: 54f0 0e3a b3e2 6bbd 2f60 5bbd ad0a c9bd
00000270: f14f b53d 7013 a5bc 1b98 11bd 61a2 3f3d
00000280: 7b38 ce3d 551c 1ebd e2de 6fbd 9241 e8bd
00000290: c345 2abc c20b b43d 473d 5fbd 6ea8 923d
000002a0: 02dc 1abb f684 733d 311b 943d 1408 a73d
000002b0: 09e8 74bd 1e77 83bd 8f33 7f3d e473 a23c
000002c0: f807 e93c ce9c 8d3d d223 d83d bab2 a33d
000002d0: ceb6 8a3d 488c 8f3d 870e d0bd e44a a23d
000002e0: 0a0e 4fbd 7a9e da3d 4c83 73bd 1992 aebd
000002f0: 962e e0bd c31f dc3d 3948 613d 4335 de3d
00000300: 08b1 e0bd 8b8a 133e cc55 34bc e6db 263d
00000310: 209f db3d 26b5 a03d 9ce6 803d 967c 113e
00000320: 8a96 e63c 3192 cdbd 883f 88bd d8a8 05be
00000330: 252e 14bd c9f7 ac3c 9d94 4ebc 61fb 883d
00000340: b1f7 1d3d 6688 d9bd f014 8cbd 76c2 c23c
00000350: 0b59 343d 9ec6 8e3e d1aa 973d a4ad 183e
00000360: 529a 9abd a9b8 3d3d 7ccf 3b3e 6c4f 893b
00000370: c9fc 503d ec58 e4bc 11b7 f63b b31a 8abc
00000380: c5a9 99bd 29fd 57be b282 2cbc c677 1dbc
00000390: 9bed 08be 4aef 1b3e b233 81bd 6c1b 0bbd
000003a0: cc3d 113e 0c56 e1bd 9efc 06be 9841 a13d
000003b0: 6c97 a63d fa0f dbba e2a3 04be dca0 2dbc
000003c0: c466 a93d 1abb 133d 6cb9 5ebd 1fca ccbc
000003d0: 82cf 2cbd ab77 a8bd bc16 ddbd ec32 333e
000003e0: c790 b6bc 98f6 bd3d 9073 fc3c ae27 f23d
000003f0: 2ef6 5a3d dc7f 17be e0bd 4d3d 171d 563b
0.01957456 0.029080128 -0.03516989 -0.07141259 0.11466972 0.022152452 0.11651499 -0.024476187
-0.025393061 -0.08593693 0.07603048 0.020071337 0.083714254 0.00639695 0.018445153 0.11157122
0.13851605 -0.07051528 0.060138844 0.02729883 -0.00038705132 0.24446347 -0.104307264 0.023691593
-0.10494847 -0.029523462 0.016274026 0.006283634 -0.015027602 -0.018330457 -0.018904213 -0.070330225
0.03527515 -0.082444094 -0.107438564 0.14920862 -0.16889183 0.18503043 0.07180185 0.08286354
0.2385746 -0.13361254 0.08359291 0.03427998 -0.12661399 0.12499104 -0.0059221187 0.06346408
-0.081809856 0.022594621 0.03548278 -0.11247988 -0.057462264 -0.1000772 0.04139883 0.2154384
-0.049637266 0.020446306 0.09905887 0.0326949 0.11709807 -0.016131839 -0.11484583 0.04566193
0.025209522 0.04420978 -0.099398896 0.054821007 0.021071928 -0.019087896 -0.05218604 0.033046797
-0.05364887 0.025971418 -0.115663014 -0.14053206 0.17473783 -0.10573941 0.022766894 -0.12426817
-0.04588965 0.17141281 0.040379714 -0.2140979 -0.0010426254 -0.12071796 0.03192429 -0.15883544
-0.141131 0.09217455 -0.07008012 -0.1039664 -0.13694307 0.090359695 -0.031103367 -0.040714312
0.021422612 -0.1277102 -0.014601661 0.10630903 -0.08227737 0.050100826 -0.08414664 -0.106270246
-0.1357994 0.10470491 -0.046319813 -0.042581182 -0.060654376 -0.023682447 -0.1612082 -0.018780092
0.0059992173 -0.09397506 0.039922815 -0.17294554 -0.16988234 -0.0045032366 0.022897251 0.050893825
-0.16751537 0.08192489 0.020111708 -0.095185384 -0.050242662 -0.0063646333 0.05543726 -0.14490618
0.008729732 -0.08655772 -0.0042941775 0.05924867 0.015570375 0.047448434 0.10163362 0.10427311
-0.001986179 -0.029526532 0.081204705 0.06417919 -0.019219128 0.073980145 0.04716698 -0.026076373
-0.078344285 0.02587235 -0.12248813 0.027469652 -0.039334863 -0.00443302 -0.03739094 0.03715842
0.0005452682 -0.057589244 -0.053558525 -0.09816489 0.08853138 -0.02015087 -0.03554545 0.046785716
0.100693665 -0.03860124 -0.058562167 -0.113406315 -0.010392609 0.08791305 -0.054501798 0.07161032
-0.002362967 0.059452973 0.07231749 0.08155838 -0.0597916 -0.06419204 0.06230503 0.019830652
0.028446183 0.06914674 0.10553707 0.07993074 0.067731485 0.070091784 -0.10159021 0.079244405
-0.050550498 0.10674758 -0.059451386 -0.0852396 -0.109463856 0.107482456 0.055000518 0.108500026
-0.10971266 0.14408319 -0.011006784 0.040737055 0.1072371 0.07847051 0.06293985 0.14207682
0.028147954 -0.100376494 -0.066527426 -0.1305269 -0.03617682 0.021114247 -0.012608674 0.06688572
0.038566295 -0.10621719 -0.06839931 0.023774367 0.04403023 0.27885908 0.074056275 0.14909989
-0.075489655 0.046318684 0.18340868 0.004190376 0.051022325 -0.027874433 0.0075291474 -0.016858434
-0.07503084 -0.21092667 -0.010529207 -0.009611076 -0.1337189 0.15228 -0.06308688 -0.0339617
0.1418373 -0.1100274 -0.13182303 0.07873839 0.0813435 -0.0016713135 -0.12953141 -0.010597434
0.08271554 0.036067106 -0.05437605 -0.024998723 -0.042190082 -0.0822595 -0.10795352 0.17499894
-0.022285832 0.0927555 0.030816823 0.118239745 0.05345743 -0.14794868 0.050229907 0.0032671147
