api/data/models/ASML.AS_lite.pt (torch, 218389 bytes, 10 tensors)

lstm.weight_ih_l0 f4 [256, 12]
00000000: d65a 09bc 57b4 b13d bc1c b9bd 694b 463d
00000010: ec46 0bbd 90bd 14bd a262 5bbe 8430 e23c
00000020: 2412 f23c 63cf d63d 1c65 f1bd 4247 7c3d
00000030: d493 773d 1e88 a73d 63ac 203e a676 1f3e
00000040: 9795 8d3d 2f36 283c 3a6f 1dbd 02b6 b83d
00000050: 367e 953e 3755 103e 2f28 c53d 1f14 203e
00000060: 46cc 703d 78b7 37bd b09b d7bd 4b04 22be
00000070: aa46 8abd 14a7 703c bedb 343d 02f4 cc3d
00000080: 6350 83bd af70 253e f0d1 27be a768 b5bd
00000090: 38e3 24be 74f5 7dbc 16a0 1abd e4c0 12be
000000a0: 4d6d 25be 2267 0e3d 9188 15bd 5f15 30be
000000b0: b608 743d b5fe ea3c 26dc d2bc 8c8c 18be
000000c0: 387e b33d cc9c 55bd 0174 513c 8518 33b9
000000d0: 8f68 1b3e 6719 11be 9fc4 1fbe 6e3a 2abe
000000e0: 1754 1b3e fef2 353e af39 92bd cb94 c03d
000000f0: c1e8 e6bc 3f74 88bd 768b fe3d ed31 423d
00000100: fb3b 3abe 9d11 ab3d 6a4b 7ebd 1b55 193d
00000110: c086 333c 7786 b5bd 5cea 80bd 73bc c13d
00000120: 5ae4 263d c4f5 6fbc f4a0 673c 8c08 6ebd
00000130: 6701 c73d 0ccc cabb 453b db3d c0b1 473c
00000140: 20b4 91bd 0d0a fbbd 5b00 ce3d b36f 253d
00000150: 4518 b0bd 2e84 dbba 7549 9d3c 3f90 153e
00000160: 7bb2 81bd d252 14be babc f3bd a47d 163e
00000170: 61fe 243d 2f25 81bd 62ad 053e 38fa fa3b
00000180: 21ca 14be bf3c ebbd b534 1bbe 1537 39be
00000190: 7cff f43b 2543 d33d 5f9a 193d c3cf 90bd
000001a0: ea28 81bb 0f9a e1bd fd20 f03b 2c74 38be
000001b0: 5bc3 f33d 5375 d8bc 3fb0 713d 9244 713c
000001c0: d83a bebc 00bd 3c3e 7cd9 ac3d 94f9 eb3d
000001d0: f3b8 bfbd 03d4 c5bd 5da9 6c3c df67 183d
000001e0: d3c7 e9bd 065d 9abd 04dd dfbd 6f76 29be
000001f0: 4859 953d bcfb e93b 0cd2 d4bd aa0a 8fbd
00000200: d48b d73d 3c35 463e 7caa 963d 1703 923b
00000210: cff0 0a3e 3464 f13c baa2 33bd f5c3 43bd
00000220: 2599 1cbe dac3 7bbc 26ab 99bd 5456 1b3b
00000230: f16b 18be 1542 10be 7f51 813d b730 273d
00000240: 2365 81bd 5602 c1bc e739 143d c5ad 55bd
00000250: b4ec d83d 6c86 9a3d db1b d4bd 3f6c 4c3d
00000260: 4b9b e8bc cc5b 24be f39a d0bc f166 853d
00000270: 00cb 13bd bc7a 843d 9d60 663d bcac 293c
00000280: 5bb3 ed3d 301a 8cbd 6481 54be 37f1 bfbd
00000290: 55d8 733e 9e78 3b3d fff7 e73b 9ba9 cebd
000002a0: 864d 9dbc 7c4a 76bd a3ce 29bc 154f b33d
000002b0: d225 49bd 7a07 c5bd d122 ea3d 5766 843e
000002c0: 046b b43c 866d 8a3d d5fc f93d 3a22 d9bd
000002d0: 00a4 62bd f9b7 c93d 7684 3c3d 45c2 973d
000002e0: 0c0e 6c3a cd1b bebd 7839 07be c6bc 99bd
000002f0: c26f 003e f144 a43c 3e1b 113e e380 0a3d
00000300: d3c9 a2bd 8a95 ae3c 0584 c4bd 2755 4ebd
00000310: 3a45 093d 84ab f5bc 7b52 bc3d fbea 4fbb
00000320: 366a 0e3c 324b 643e 8b8c 5bbe 3034 03bd
00000330: 2e24 05bd e68c 213e 1388 2abc 75d3 e33d
00000340: aca7 d6be e926 023d 5180 e5bc 08db 4cbd
00000350: 07b2 a03c 76ec 9fbd 743f 1c3e ebab 3d3e
00000360: 5e68 e6bd be69 b6bd 9b9d 633d 98ce 4abd
00000370: 891d 393e 5c7f db3d ece5 bb3d c240 943e
00000380: cae1 cabb e134 b8bd a17f caba fa82 783d
00000390: ca9d 9cbd b205 463d 994d aabd 03c6 333d
000003a0: d91a cdbd 5cd9 c9bd 0440 52be 78b7 fe3d
000003b0: 1556 ab3d 4883 6cbd 721c bcbd e5b2 a6bd
000003c0: 33c9 263e fa66 d53d 6738 ac3b af01 a23d
000003d0: 91d3 b13d f8b6 72bd 376c 1bbe 1dcb 05be
000003e0: 3138 9a3d ebbc 2e3d 593d 1c3e bc12 cd3d
000003f0: 5c8a c53d eafd fe3d 03a9 023e 04a8 fb3c
-0.008383473 0.08676975 -0.09038684 0.04841176 -0.034003183 -0.036313593 -0.21424344 0.027611025
0.029549666 0.104887746 -0.11786863 0.061591394 0.060443714 0.08180259 0.1569076 0.15572605
0.069132976 0.010266825 -0.038436152 0.0901909 0.29197854 0.14095007 0.09626805 0.15632676
0.05878856 -0.044852704 -0.10527742 -0.1582195 -0.06751759 0.014688272 0.044154875 0.10007478
-0.06411817 0.16156267 -0.16388679 -0.088578515 -0.16102302 -0.015500415 -0.037750326 -0.14331394
-0.16154976 0.034766324 -0.036507193 -0.17195652 0.05957862 0.028685907 -0.02573974 -0.14897364
0.08764309 -0.052151486 0.012784005 -0.00017079905 0.15176605 -0.14169846 -0.15602349 -0.16623852
0.15168796 0.17768475 -0.071399085 0.0940338 -0.028187158 -0.06662797 0.12428944 0.047410894
-0.18186943 0.08352969 -0.06208364 0.03743468 0.01095742 -0.08863538 -0.062947005 0.09459772
0.040745117 -0.014645997 0.014137495 -0.05811362 0.09717064 -0.006188875 0.10704664 0.012188375
-0.07114434 -0.122577764 0.100586616 0.040389728 -0.08598379 -0.0016747767 0.019200066 0.14605807
-0.063328706 -0.14484718 -0.11901231 0.14696366 0.040281657 -0.0630592 0.13054422 0.007659223
-0.14530231 -0.11486196 -0.15156825 -0.18087418 0.007476745 0.10315541 0.037500735 -0.070708774
-0.003941645 -0.110157125 0.0073281513 -0.18013066 0.119024955 -0.026423132 0.059005972 0.014725821
-0.023221418 0.18431473 0.08439919 0.115222126 -0.09361448 -0.09659579 0.014444676 0.037208434
-0.114150666 -0.07537274 -0.10930827 -0.16549085 0.0729242 0.007140605 -0.10391626 -0.06984456
0.10524717 0.19356245 0.07356736 0.0044559347 0.13568424 0.029466726 -0.04385636 -0.0477943
-0.15292795 -0.015366519 -0.07503347 0.0023702579 -0.14884926 -0.14087708 0.06314372 0.040817942
-0.063181184 -0.023560684 0.036188032 -0.052167673 0.105920225 0.0754517 -0.103568755 0.04990792
-0.028394362 -0.16050643 -0.02546451 0.06513775 -0.036082268 0.06468722 0.05624448 0.0103561245
0.11606475 -0.06840932 -0.20752484 -0.0937218 0.23812993 0.045769326 0.007079124 -0.100909434
-0.019202005 -0.060129628 -0.010364207 0.08755318 -0.049108334 -0.09620567 0.11432422 0.2585933
0.022023685 0.06759171 0.12206427 -0.10602231 -0.055332184 0.09849543 0.046024762 0.07410101
0.00090047787 -0.09282646 -0.13205516 -0.07506709 0.12542632 0.020052405 0.14170548 0.033814322
-0.07948651 0.02131154 -0.09595493 -0.050374176 0.033513285 -0.029989012 0.091954194 -0.0031725753
0.008692315 0.2229431 -0.21440332 -0.03203219 -0.032505207 0.15776405 -0.010408419 0.111243166
-0.41924798 0.03177539 -0.028015288 -0.050013572 0.01961614 -0.07808773 0.1525858 0.18522613
-0.11250375 -0.089068875 0.055570226 -0.04951343 0.18077673 0.10717651 0.091747135 0.28955656
-0.006191467 -0.08994461 -0.0015449413 0.060671784 -0.076472834 0.048345275 -0.08315582 0.04389001
-0.100148864 -0.09855911 -0.20532233 0.12437338 0.08366028 -0.057742387 -0.09185113 -0.0813959
0.16287689 0.10420032 0.005255747 0.07910477 0.08682931 -0.059256524 -0.15178 -0.13065763
0.07530249 0.042660635 0.15257777 0.10013339 0.096455306 0.12450774 0.12759785 0.030719765

lstm.weight_hh_l0 f4 [256, 64]
00000000: f0e5 313e d636 d5bd a7c6 d63d a47c 9e3d
00000010: dc7d 90be b17e 393d 73d8 293d 8d62 e23a
00000020: 2c46 033e e45f 81bd e890 99be 0e80 163d
00000030: 4905 62bd 9d4c 183e ba5e ce3d 00ef b0be
00000040: f230 35be eafe 5cbe 9b05 2abe 665c 4c3e
00000050: 163c 3cbe ab7b d8bd bc86 1dbe 1d00 b1be
00000060: 2982 72be 6f26 0cbc 08cc 8abe e95f 8e3e
00000070: 4aa3 b9bd 1fc3 c43d cba2 0abd 9ee6 a33e
00000080: f0f2 1bbe 44a4 5c3e cdb4 6ebe 9503 d43d
00000090: 732e 75be 33ef a3bd 7500 8e3e 0b4d 7cbe
000000a0: c1a6 37ba 986b 3f3e 3643 11be 8a17 903d
000000b0: 236f ebbd a91a 253e 9912 de3d ae94 80be
000000c0: 019e 31be 8fdc 38be ac24 f53d 5e57 11bd
000000d0: 45f6 ce3d c3d5 a4bd c49f 453d 77f8 a1bd
000000e0: 633a 61be ed5e 74be 5276 853d e50e 2f3e
000000f0: 1552 3b3e f789 b6bd 38e8 183e b46c f9bc
00000100: 3c9b 163e 5c97 753d 5d49 49be 54d9 ad3c
00000110: 4758 3ebe af8d 0f3d f0e2 bcbc 085e 04bd
00000120: 650d ed3d 6c0b e53d ce79 a4bd 266a a83d
00000130: 218f dbbd fd29 0e3e 0262 e23c fe3b bdbd
00000140: 5197 a0bc 2ae4 edbd 717f afbc 73b8 7d3c
00000150: 710e 05be da00 753d 282f 38bc 99cc d4bd
00000160: a1a3 bf3c 1848 50bd 3b54 3abe 3525 e83d
00000170: da66 e63d 3da4 84bc c958 7b3e 6c6a b13d
00000180: e23c 28bd 423e 4b3e b449 dbbc 50fb 3a3d
00000190: 7775 c3bd 6911 4f3d 9712 9fbc 90a3 16bd
000001a0: 9f31 41ba 31f3 883c 039b d5bd 1776 3f3d
000001b0: d5ad 78bd b879 8dbc 2b65 ad3d 70cd 9f3d
000001c0: 6191 dcbd 0e8a 1dbe a2bd 1a3c 30e7 a0bc
000001d0: 9a0f a03c 4c40 b83c 9e56 2dbe fcb4 913d
000001e0: 025c dabd e209 16bc 3bf8 b7bd 7c68 1e3d
000001f0: fde8 31be df7a aabd df14 8e3d 2785 cb3d
00000200: 54ae 913d 8ea8 7e3d 07c1 85bd ba8c 55be
00000210: 4a13 24be 49b3 273e 5ea1 893d 3cd7 513d
00000220: e402 90bc c543 99bd ab6e 053e 910b d83d
00000230: 64bc 12bd 9ad7 d3bc 706a 3a3e db1e 933d
00000240: 21e2 3dbd 8ec5 683c 6f79 a23b 6d3e ad3d
00000250: bcc6 333d d9d2 70bd 10a5 40be 599a 80bd
00000260: 4a26 b43d ae71 173d 5f7f 8bbd 3bb3 bcbd
00000270: f9a2 7abd 0186 e13b c033 2dbd 1f1b 883d
00000280: 48d6 ddbd d363 463c 668c 29bd 65fc 24bc
00000290: 74b5 58bd 34fd 203d 2091 c33d 849d 0ebd
000002a0: 3939 51be e7a9 4b3c fb84 0dbe 01c0 303e
000002b0: bed8 10bd 2612 803d e79c 5ebe d888 be3c
000002c0: 4db5 2cbd a470 71bd 504a 433e 1153 e7bd
000002d0: 8b04 1f3d cb94 1c3d 8486 88bd 6eaa dbbd
000002e0: 9eb9 e1bd 7f7a 20be 5e5e 39be e364 3c3d
000002f0: 8aca 173e 1ee8 8abe dc91 803e 2516 00be
00000300: 4f7e 1c3e ecb1 123c b36c 2e3d 351d 12be
00000310: 7c37 90bc 19dd 433b 4acd 273e 1058 c03d
00000320: 0a11 9abc 5f28 f7bb b0a2 c33d ed75 c93c
00000330: a7b6 253d e876 04be 0c1f 513e 1ac6 a93c
00000340: 34aa 4e3d 1609 ffbd 8b0a af3d b6d5 3b3e
00000350: 51bc 0a3d 9b4a 3a3b c867 643b 7051 7dbe
00000360: a50e de3d ec40 4dbd 350a eebc 1010 133e
00000370: 15a6 e2bd 4527 f93d 96a6 353e d079 173e
00000380: c449 57be d196 d83b eb52 ffbd b1d4 02bc
00000390: af64 6b3d 6b6e e7bd c25f 6e3d 71ba f5bd
000003a0: c465 873c 6f33 57be ab01 f4bd 5612 193e
000003b0: ca3b eabd a3ea 67bd b6d4 d9bd c67e 91bd
000003c0: 2d0e aabc a47d 4abe 17b9 de3b 8bf4 0bbe
000003d0: cb7a a13d 7298 d83b 535b 56bc d6f1 3bbd
000003e0: c5a2 32bd 713a 82bc 03c8 f3bd 90a5 9bbd
000003f0: 1987 d63d f9d7 2bbe c23e 423e 0df1 293e
0.1737287 -0.1041085 0.10487109 0.07738617 -0.28221023 0.045286838 0.041466188 0.0017271802
0.12819737 -0.06317118 -0.29993367 0.036743216 -0.05518082 0.14872976 0.100766614 -0.34557343
-0.17694452 -0.21581617 -0.16603701 0.19957122 -0.18382296 -0.10570463 -0.15383428 -0.345704
-0.23682465 -0.008554085 -0.27108788 0.2780755 -0.09064348 0.09607529 -0.033846658 0.32011884
-0.15229392 0.21547037 -0.23311158 0.10352246 -0.239435 -0.08004608 0.27734724 -0.24638765
-0.0007005744 0.18693388 -0.14185795 0.0703574 -0.11495807 0.16123451 0.10843391 -0.25113434
-0.1734543 -0.18052886 0.11969885 -0.03548371 0.10105566 -0.08048584 0.048248067 -0.07908719
-0.21994929 -0.23864336 0.065167084 0.17095526 0.1829303 -0.089130335 0.14932334 -0.030447342
0.14707655 0.0599588 -0.19656892 0.021221794 -0.18588363 0.03504723 -0.023057431 -0.032316238
0.115748204 0.11183819 -0.08031045 0.08223371 -0.10720659 0.13883205 0.027634624 -0.09239958
-0.019603403 -0.116157845 -0.021423073 0.015485871 -0.1299379 0.059815265 -0.011241712 -0.103905864
0.023393454 -0.050850004 -0.18196194 0.11335222 0.11250086 -0.016191596 0.24545588 0.086628765
-0.041073687 0.19847968 -0.026768543 0.045649827 -0.09543889 0.050553713 -0.019418044 -0.03677708
-0.000736976 0.016717525 -0.10429957 0.04674348 -0.060712654 -0.017269954 0.08466562 0.07802856
-0.10769916 -0.15384695 0.009444626 -0.019641489 0.01953869 0.022491597 -0.16927573 0.07114598
-0.1066208 -0.00915763 -0.08982893 0.038673863 -0.17374034 -0.08324217 0.069375746 0.09937506
0.071133286 0.062172465 -0.06530958 -0.20854464 -0.16022983 0.16376986 0.067202315 0.051230654
-0.017579503 -0.07483629 0.13030498 0.10549081 -0.035824195 -0.025859643 0.18204665 0.071836196
-0.04635823 0.014207257 0.0049583237 0.084591724 0.0438907 -0.05879483 -0.18812966 -0.062794395
0.087963656 0.036973648 -0.068114035 -0.09213873 -0.06119058 0.0068824296 -0.04228568 0.06645798
-0.108318865 0.012108761 -0.04139366 -0.010069941 -0.052907422 0.039303973 0.09549165 -0.034818187
-0.20431985 0.012430645 -0.1382026 0.17260744 -0.03536295 0.062534615 -0.21739541 0.023258612
-0.04216509 -0.058945313 0.19071317 -0.112951405 0.038822692 0.038227838 -0.06666282 -0.10725866
-0.11021732 -0.15671729 -0.18102404 0.04599465 0.14823356 -0.27130216 0.25111282 -0.12508447
0.15282558 0.008953553 0.042584132 -0.14268954 -0.017604582 0.0029886423 0.16386905 0.093917966
-0.018806953 -0.0075426544 0.095525146 0.024592364 0.040457394 -0.12935984 0.20422 0.020724345
0.050455287 -0.12452905 0.08546933 0.18343243 0.033871 0.0028425816 0.0034851898 -0.24738097
0.10842637 -0.050110742 -0.029057601 0.14361596 -0.11066834 0.12165693 0.17739329 0.14792562
-0.21024233 0.0066097756 -0.12466987 -0.00798528 0.057469066 -0.113003574 0.05819679 -0.119984515
0.016528018 -0.21015714 -0.11914381 0.14948401 -0.11437185 -0.05662025 -0.106362745 -0.07104258
-0.020758713 -0.1977449 0.006796967 -0.13667504 0.07884749 0.00660997 -0.013083297 -0.04588493
-0.04361226 -0.015897008 -0.119033836 -0.07599938 0.104749866 -0.16781606 0.18969253 0.1659586

lstm.bias_ih_l0 f4 [256]
00000000: 93d0 de3e b868 d53c c5c7 9ebc 5156 083e
00000010: 6387 d0bd 1cd7 8d3d 24ab b03c 7108 a0bc
00000020: 30d0 123e 3806 b33c d3e0 523e 9487 54bc
00000030: b115 6f3c 995a e33d a8d8 8f3d ab88 013d
00000040: c923 203e 2edb 803b d8eb 9bbd 130f c9bc
00000050: 017e 62bd d61b 253e 0449 a73d 8554 383e
00000060: 6abd 8c3d 81ee 093d 33ae c43e c522 073e
00000070: aaf6 debd 4959 273d 2537 2abd b4e5 793e
00000080: 1b71 3a3d 4cbd 1a3d b382 febd 02b6 9fbd
00000090: 43f8 ca3d cbfe 56bd 683e 30bc 4299 753b
000000a0: fe00 5d3e 0deb e23d cc27 2bbd dc41 27bd
000000b0: ef74 993b 17ad 2a3e 443b d43d 2cfa 8dbd
000000c0: 0bd2 e2bc 0330 253d a86c 633c 8b2b debd
000000d0: ffa2 07bd 3209 d33d 92c0 2f3e 3607 14be
000000e0: 83d7 a73c 4cfc 183e a855 88bd c6b1 513d
000000f0: c442 7bbb 19e4 d13d 9414 873d fdff 35bd
00000100: 9da4 31be b62c d3bd a441 873b 9e05 263e
00000110: 7528 94bd 7139 ff3d 1d9c f5bd 851f 4cbd
00000120: 1bb0 113d 8299 643d 6aad c3bc 4a3c 803d
00000130: 993a 8c3d ab26 0bbd 68f9 7c3d 8d30 ba3d
00000140: 8f14 01be dfb2 6ebd 9663 773d f646 cc3c
00000150: 013e e2bd 5666 0bbe 8a89 cb3d 567e bfbd
00000160: 7578 17bd 00c7 35bd b35c 27be 99d0 e43d
00000170: 1916 bd3d ba56 5fbd d57c 09be 325b 0fbe
00000180: 28fe 02bd 8ee4 fcbd 5a23 9cbd b677 e7bd
00000190: 4f54 943a 491a 1b3e 4079 2dbd bc88 0e3e
000001a0: 6479 abbb 5a72 9fbd 8b32 3dbc f2b1 06be
000001b0: f98c 9a3c d349 7d3d 0fc0 b03d bdc6 0fbb
000001c0: 63eb 23bd 0446 a33d 7b0d 5c3d 893f c6bd
000001d0: a27a 43bd 43b8 ecbc 4cd5 76bd b965 33bd
000001e0: 3d06 bebc 3b96 003b 9e41 b2bb 4dcf d1bd
000001f0: 782b 153d ed1e da3c 9e63 f53b 5e5d 1abe
00000200: eb01 d23c 52d2 04be 4a75 6fbd 947b 733d
00000210: 63fd 43bd 2cf0 e5bc 44fa a5bc a7f1 a4bd
00000220: 4bd2 3a3b 919c 28bd cf6c c8bd 8631 5ebd
00000230: b2a7 9cbc 79b0 39bd 0bf2 fdbd e693 e13c
00000240: 6c21 a93d 6b51 4fbd 0787 b6bd 7555 8f3d
00000250: 35ab d4bd 9295 bfbd b732 9dbd 13b5 92bd
00000260: 13cc dabd 8d5f d0bd e03b 81bd 9577 a5bd
00000270: a753 adbd 9e30 0cbd 0df6 563c 2a6e cc3c
00000280: 27d6 96bd 66a0 2dbd 02b8 833c a03d 643d
00000290: 7506 87bd a64f d83d e735 0dbd 446c eebc
000002a0: e9cd 5cbd d3cf 503d 6c3a ebbd f4c7 f63c
000002b0: 6d1b 8dbd ea74 493d 005d 6ebd 0337 00bb
000002c0: a9b2 c6bd 3cda 6a3d 7795 0abd e05d a43c
000002d0: cc3a 3fbd de68 afbd 42ec e73d 2a4e d7bd
000002e0: 0a38 0b3d aeab c0bd 73e8 ad3d 9f84 0fbe
000002f0: 7c4f 8b3c 430b a8bd 2dd7 b33b e3a1 afbc
00000300: 337e 363e 912d 9f3d 524e b73c 577a 983d
00000310: cedd 26bc 50fe fe3b c89e d6bd 8523 0e3b
00000320: 6041 bd3c 10b5 debd f5b3 e73c 6b93 50bc
00000330: 99e6 4dbc a083 b93c b842 0a3d 7a87 4cbc
00000340: 9380 373e ac25 1e3e d1c3 583d 5520 393d
00000350: 427d c5bd 9765 323e c6f4 783d 82ed 20bc
00000360: a150 f73d 79ef ad3d 810c f33e 25a9 c93d
00000370: d595 f0bd d284 3e3c 9cf2 b43c 1c6e ba3e
00000380: 79bb d3bc ce6b 0e3e 05d8 f13c e386 203e
00000390: f9ca 4f3e ca64 743d dcff a33c b9ab 243d
000003a0: 0bd5 163d 153a b6bd 9a93 b93d 574c e5bd
000003b0: 4010 75bc 2be3 113c f22a 243e 305c 1a3a
000003c0: b58f c03c 8649 d23b 92e6 043e 8eab d63d
000003d0: 1aa4 823d 1009 663c 7e41 603e b3ff 86bc
000003e0: f73d 483b b99d 393d 86cf 5cbd b2ad 543d
000003f0: 8d16 b13c e51a b53d f89a 8e3e 96df 9b3d
0.43518505 0.02605091 -0.019382367 0.13314177 -0.10182073 0.069257945 0.021565981 -0.019535275
0.1433723 0.021853551 0.20593576 -0.0129717775 0.014592574 0.111012645 0.07023746 0.031624477
0.15638651 0.0039323783 -0.07613343 -0.02454332 -0.055295948 0.161239 0.081682235 0.18000992
0.06872065 0.03367472 0.38414153 0.13196857 -0.10886891 0.040856633 -0.041556496 0.24404031
0.045518022 0.037778184 -0.12427273 -0.07798387 0.099106334 -0.052489083 -0.010757066 0.0037475382
0.2158241 0.11079989 -0.041786 -0.040834293 0.004683129 0.16667591 0.103628665 -0.06932482
-0.027688047 0.04032899 0.013880886 -0.10848149 -0.03311443 0.10304488 0.17163303 -0.14455876
0.020488506 0.14939994 -0.06656963 0.05119493 -0.0038339356 0.10248584 0.06595722 -0.044433583
-0.17347951 -0.10311262 0.004127698 0.1621308 -0.07234279 0.12462128 -0.11992667 -0.049834747
0.035568338 0.05581046 -0.023886401 0.06261499 0.06847114 -0.033972424 0.06176129 0.090912916
-0.12605499 -0.058276054 0.060397707 0.02493618 -0.110469826 -0.13613257 0.09938343 -0.093502685
-0.03698011 -0.044379234 -0.16343956 0.11172599 0.092327304 -0.05452607 -0.13426526 -0.13999632
-0.031980664 -0.12348281 -0.0762393 -0.1130213 0.001131663 0.15146746 -0.04235196 0.13919348
-0.0052329767 -0.07785483 -0.011547695 -0.13153818 0.01886605 0.061837982 0.08630382 -0.0021938526
-0.040019404 0.07972339 0.053723793 -0.09680087 -0.047724374 -0.028896457 -0.06026201 -0.043798182
-0.023196334 0.0019620794 -0.005439951 -0.102446176 0.03641841 0.026626075 0.007488682 -0.1507468
0.02563568 -0.12970856 -0.058461465 0.059444025 -0.04784907 -0.028068624 -0.020260938 -0.08053904
0.0028506692 -0.04116494 -0.097863786 -0.054246448 -0.019122932 -0.045334313 -0.12399682 0.027536344
0.08258328 -0.050614756 -0.08912473 0.069987215 -0.10384218 -0.093547 -0.07675689 -0.071634434
-0.10683455 -0.10174475 -0.063102484 -0.08079449 -0.08463221 -0.034226052 0.0131201865 0.024954874
-0.07365065 -0.042389296 0.016078953 0.055722833 -0.065930285 0.10562067 -0.034475233 -0.02910436
-0.05390731 0.050979447 -0.114857525 0.030124642 -0.06889997 0.049183764 -0.05819416 -0.001956404
-0.097020455 0.05733703 -0.033833947 0.020064294 -0.046686932 -0.08564924 0.113243595 -0.105129555
0.03398899 -0.09407745 0.08491602 -0.14015435 0.017005675 -0.08205273 0.0054882974 -0.021439498
0.17821579 0.07772363 0.022376213 0.074452095 -0.010184718 0.0077817813 -0.10479504 0.0021688652
0.023102462 -0.10874379 0.028284052 -0.01273046 -0.012567186 0.022645772 0.033755034 -0.012483472
0.17920141 0.15444058 0.05292112 0.04519685 -0.09643032 0.17421566 0.06078031 -0.009822251
0.120759256 0.084929414 0.47470477 0.09846715 -0.11747328 0.0116283465 0.022088341 0.36412132
-0.02584623 0.13908312 0.029521951 0.15676455 0.20292272 0.059666432 0.020019464 0.04020283
0.036824267 -0.08897797 0.09061356 -0.11196201 -0.014957488 0.008904259 0.16032007 0.0005888371
0.023506025 0.006417456 0.1297858 0.1048194 0.06378956 0.014040247 0.21899983 -0.016479349
0.0030554512 0.04531643 -0.053908847 0.05192346 0.021617198 0.0884302 0.27852607 0.07611005

lstm.bias_hh_l0 f4 [256]
00000000: fd0f 6b3e 7903 56bd b010 b13d 139d 753d
00000010: 2520 b63d c4f0 943d 3740 1dbd 8f2e fdbd
00000020: 2c13 93bd a107 4c3c f040 d03c 4d3f b4bd
00000030: af2e 22bd faa3 9bbb f8cc ec3d a7be 233c
00000040: 4a8e 753c 948d ab3c 27b6 3d3d a54d c43c
00000050: e1cf 1f3c 9c5a 42bd da9d 703c 751c 253e
00000060: dbfb 9b3c 8a9a 923b 15c4 e03e cfd5 2b3e
00000070: b102 f33d 3d7b ff3d 9513 9a3c 3ee0 ab3e
00000080: f3be 763d 04d2 283e 3570 acbd 7a82 233e
00000090: 9b6e f63d 64b1 e73d 6bc6 143d 2f97 b43d
000000a0: 4d84 d43d 43ae f23d 82dc 0f3e 40f0 8ebc
000000b0: f7b7 14bd 9285 873d f60e 143e a0fa 09bd
000000c0: 3527 52bd 4a13 7d3c 549d 0ebd 11f0 58bd
000000d0: 66c7 e7bc cae7 f23c 87bf 7b3d 5573 213c
000000e0: 531a aabd aeb5 433e 5486 ba3d e172 4a3d
000000f0: ec5b 1a3d d627 7bbd 17c3 df3d d712 7f3d
00000100: e54d 25be 12b7 2dbd 2b12 88bc 652f 5abd
00000110: e51a bcbd f0c1 683d e0b1 313c 6644 8bbc
00000120: 9504 9c3d 481d b33d 0537 6abc c7cd f83a
00000130: 9491 f6bc f0c0 ce3d 9e69 d63b a369 c4bd
00000140: 8291 833d 5c85 d4bc c9a7 cd3d bd74 1dbd
00000150: ad7b 89bc 5045 e3bd c63f d7bc bd99 f53b
00000160: a639 303c 5940 373d 3a27 1abe fa79 0bbd
00000170: abf4 5c3d 505a f3bd 39b0 0fbe 6b9a ebbd
00000180: e9b3 d63d 3047 3dbd e10c a83d 72e0 dc3c
00000190: a1fc 19bd ae3b 9c3d e910 23bd de89 9cbd
000001a0: ac15 4fbb 6e90 65bd 5b56 593c 2a07 173d
000001b0: d25c 2d3d 6ecf 2ebe dada 113d e0d0 00be
000001c0: 17e9 543d 3056 83bd d2bb d1bd 6740 113c
000001d0: 107f 8d3d b356 963d d651 233e 4645 8dbd
000001e0: 6c72 aabd 85fb 72bd c2b9 ef3b 7948 f23c
000001f0: 4003 203d 6d20 e5bd 79f7 84bc 5b5f b0bc
00000200: 9144 d73d 1611 90bd 7def c93d dfc1 8f3d
00000210: 5c78 be3d 62b9 1e3d 8df0 253d 4265 633d
00000220: 96d7 e1bd dc29 03be 95ff bc3d 6e87 da3d
00000230: 94e3 83bc 2e7a bdbd 55a1 d93c 1e61 31bd
00000240: c02f 18be 34de b6bd 6f36 6e3d 61fd 07be
00000250: 8f46 413d a061 b63d e293 883d a905 bbbd
00000260: b4df 283d 9950 1ebe 95ad 06be e372 d23d
00000270: 6ce6 96bd 46ec 90bd c6f4 ea3d 8ac9 e2bc
00000280: ced4 3d3d d1ab dcba 3756 c43c 713f 76bd
00000290: 5fad fbbd 866d 60bc 40c6 ee3d e71f adbd
000002a0: 0371 b4bd 6ce5 bc3c 0149 7a3d c717 b6bc
000002b0: 4cb4 be3d e5b5 973c 8cc7 3fbd 37b5 a7bd
000002c0: b5d3 9c3c 1704 033e 2bf6 3d3d 71f1 60bd
000002d0: 8e87 fc3d 1e0a acbc 73fd e73c 2ccc 23bd
000002e0: 69b2 e2bd e4dd 6abd 5b80 e2bd 70fd 133d
000002f0: 96b9 ba3c db3f d63d d061 46bd f154 063c
00000300: 843a c13e 41be f3bd 95b0 a03d 544e 163c
00000310: 7683 f4bc 85b6 ee3d 1b99 30bd 406d c5bd
00000320: a529 c73d ea69 6c3d b044 693d 7347 b83d
00000330: 303b 6dbd 83be a23d 6344 143e 0201 c9bd
00000340: 5356 093e 4117 a23d f63c 203e d61e bf3d
00000350: 8a65 993d 24ef 1e3d 0d19 1d3e 37b0 db3a
00000360: 7891 7f3d d971 283d f854 c43e c571 a83d
00000370: bb88 c9bd 1952 023e 9aba ccbd 7e11 a63e
00000380: dd66 173e 39fe a4bc e77b a2bd 1d84 7e3c
00000390: 340d a93d b7d2 083e 42b1 083d 948c fc3c
000003a0: 4909 723e 8f2c b3bd 8919 66bd ec27 80bc
000003b0: 2edf 6a3d 477a 0dbd 7eb8 a93c 2662 4bbb
000003c0: d568 c13d 653f 0e3e 8b37 773d 5f91 2ebd
000003d0: fb00 cebd 9f7e 2e3d 1eb8 d73d 2948 bbbd
000003e0: 0b3a 063d baeb 4b3e 992e 9d3d 2708 90bd
000003f0: 3a06 df3d 97be d93d d087 833e 6dc3 083d
0.22955318 -0.052249406 0.08645761 0.05996425 0.0889285 0.07272485 -0.03839132 -0.12362396
-0.07181391 0.012452991 0.02542159 -0.08801136 -0.039595302 -0.004749772 0.11562532 0.0099941855
0.014987538 0.020941533 0.046316292 0.023962805 0.009754152 -0.047449693 0.014686072 0.16124137
0.019040992 0.004473989 0.438996 0.1678078 0.11865748 0.12474678 0.018808166 0.3356952
0.060240697 0.16486365 -0.08419839 0.15967742 0.12032815 0.113131315 0.03632204 0.088178985
0.10376797 0.11849644 0.14048961 -0.017448545 -0.036308255 0.066172734 0.14458832 -0.03368628
-0.051306922 0.015446493 -0.03481801 -0.05296332 -0.028293323 0.029651541 0.06146195 0.009854157
-0.08305802 0.19112274 0.09107652 0.049425963 0.03768532 -0.061317287 0.10925882 0.062273826
-0.16142996 -0.042410918 -0.016610226 -0.053267855 -0.09184817 0.05682558 0.010845631 -0.017000388
0.076180615 0.08745819 -0.014295344 0.0018982225 -0.030098714 0.10095394 0.0065433523 -0.09590461
0.06424238 -0.025942497 0.10041768 -0.03844141 -0.016782606 -0.11097205 -0.026275527 0.0074951337
0.010755932 0.0447391 -0.15054026 -0.034051873 0.05394427 -0.1188246 -0.14032067 -0.11504062
0.10483534 -0.046210468 0.082055815 0.026962493 -0.03759444 0.076285705 -0.03981105 -0.076434836
-0.003159861 -0.056045942 0.013265218 0.036872067 0.04232485 -0.17071316 0.035609104 -0.1257968
0.051980104 -0.06412923 -0.10240902 0.008865452 0.06909001 0.07340755 0.15949187 -0.068979785
-0.083226055 -0.0593219 0.007315845 0.029575573 0.0390656 -0.11187825 -0.016231285 -0.021529844
0.10511125 -0.07034509 0.09860132 0.070194 0.093003005 0.038751014 0.04051261 0.05551649
-0.11027448 -0.12808937 0.09228436 0.106703624 -0.016099729 -0.092518196 0.026566187 -0.04330551
-0.14861965 -0.08929101 0.05815738 -0.1328025 0.04718643 0.08905339 0.066688314 -0.09131939
0.041228965 -0.15460433 -0.13152154 0.10275819 -0.07368168 -0.070763156 0.11472468 -0.027683992
0.046345524 -0.0016835873 0.023966892 -0.060119096 -0.12288927 -0.013697987 0.11658907 -0.084533505
-0.08810618 0.023058616 0.06110478 -0.022228135 0.09311733 0.018519351 -0.046821162 -0.08188861
0.019143919 0.12794529 0.046377342 -0.054917756 0.123305425 -0.021000918 0.028319096 -0.039989635
-0.11069185 -0.057340518 -0.11059638 0.03613037 0.022793572 0.10461398 -0.048433125 0.008198963
0.37739956 -0.119015224 0.0784618 0.009173948 -0.029847842 0.116559066 -0.043114763 -0.096399784
0.0972474 0.057718195 0.05695027 0.08998003 -0.057917774 0.079464935 0.14479212 -0.09814645
0.13411836 0.079145916 0.15648255 0.09332053 0.0749007 0.03880228 0.15341587 0.001676089
0.06239459 0.0411242 0.38346076 0.08224825 -0.098405324 0.1272663 -0.09996529 0.3243522
0.14785333 -0.020140754 -0.07933789 0.015534428 0.082544714 0.13361631 0.03337217 0.030828752
0.23636355 -0.08748733 -0.056176696 -0.015644036 0.057341747 -0.03454044 0.020717856 -0.0031033843
0.09443823 0.1389137 0.060355704 -0.042619105 -0.10058781 0.042601224 0.105331644 -0.09144623
0.032770198 0.19914141 0.076749034 -0.07032805 0.108898595 0.10632055 0.25689554 0.033389498

lstm.weight_ih_l1 f4 [256, 64]
00000000: 568e 243e 1a21 d9bc aaff 8bbd a4f9 19bd
00000010: 1c57 e23c 8c77 1e3d be88 ccbd a7a1 7e3d
00000020: fc18 83bd 50c3 f73d 2878 53be bb92 65bd
00000030: e906 98bd dfd0 f33c 55e3 b53d b067 813c
00000040: 460e 06be da40 07be 4b29 533e 4c3b d0bd
00000050: b1ec 3cbe 5b9a 543e 213b de3c 98b6 3abd
00000060: 54ea 84bd 441c c03d b39a a93d d269 883d
00000070: 1956 213d 68b8 263e 721a 863c 422f b7bc
00000080: f8cb afbc e58e 843e 5983 dabb 620d fabd
00000090: f0a7 b73d fee3 95bd b22f 0e3e b566 0bbe
000000a0: 3243 59bd 9c44 0b3e 754f 9fbd d4f3 3c3d
000000b0: f8dc 99bd 3685 e7bd 539c 683d a8a0 133c
000000c0: 94d6 86be a58f d7bc d97f 1fbd 25e7 bdbd
000000d0: ae3e 55be 0011 053e da00 dabc 537c dcbd
000000e0: a4af afbd 3dd5 3dbd 9219 83bd d16a c7bc
000000f0: 2456 2c3e b27c 10be 8138 92bc d7f9 4f3e
00000100: 8148 b43d 6bcc a2bc c49e f93d 301b 2b3d
00000110: 5620 93bd d271 d13d b222 413d cec5 59be
00000120: fe97 1abe b81e 7dbd 2b3a 973d 2bbf e5bd
00000130: 6190 70be be05 3e3e 07de 56bb 46cc 9cbd
00000140: 239a dcbd c142 fcbd fafb 963d 5e1d 20bd
00000150: 975f d9bd f693 05be 37d8 5b3d ec05 bfbc
00000160: a96e d03d 0396 64be 342e 4ebe dfd1 50bd
00000170: 4e66 9b3d f670 d1b9 4d33 adbd c7f5 abbd
00000180: 68ee d73a f598 b4bc 49cd c73d e59f 3dbd
00000190: 0bd2 a13d 4227 103e 8506 c8bd 35ab 15bc
000001a0: 6e4b 023d 72cd 40be 3594 b23d 06ca 1d3d
000001b0: 8c5e 2bbe ed1f 19bb b6c4 68bd 7fba 173e
000001c0: 3cba e1bb 6a2f 54be 3883 073e 9374 82bd
000001d0: 2fc2 85bd ba5e ac3d c3f6 89bd fa40 a5bd
000001e0: d544 e43d 3b40 e5bd 7efb 7cbd 3a08 543d
000001f0: 654d b23d f7b0 64bd 6fd2 4b3e 735b fcbc
00000200: 74cb 0abe b135 48bd d009 8e3d 1298 61bb
00000210: 9883 10bd f74e 10bd 5ade c4bd 9299 3b3c
00000220: b5c8 6fbe 409f 9e3d cf97 e13d d65b 9bbd
00000230: 65aa d5bd 28ce b23d 5d7c e73d 60e0 233e
00000240: 327c fa3d 26c4 1a3d b371 49be 95d2 6fbc
00000250: dc05 093e 225d 23be 79e3 0ebe 5d91 de3c
00000260: 2277 d03c 9aa6 f8bc 7d87 ae3d 37f1 3a3c
00000270: 7dd6 d3bc 5ccb 9ebd 83cb 4d3d 8767 35be
00000280: 48bc b13c 3be8 2ebd 3d1d bf3d 4a8b bebd
00000290: e88d 32bd 4a15 5b3e 1a46 0ebe 9cbc b9bc
000002a0: cd2b 343d 0759 173d c7ce 4c3d dbd2 413c
000002b0: 881b e93a 0736 60bd 1cb0 d3bd 5d6a e0bd
000002c0: 5db6 283e eaa2 09bd c291 78bd 4ee2 9bbd
000002d0: 02db 103e efe5 be3d 104c bb3b 24bf cabd
000002e0: ecd5 73bd 7c84 af3d 5fc8 00be ce91 8a3b
000002f0: 1893 81bd e73d 673d 70ac 693c 4ab4 ae3c
00000300: aea0 9fbe 245e 943d 89a6 933d 3533 953c
00000310: 9576 a3bd 420e 9abd bed5 a7bd cbac abbd
00000320: 2e1c 1f3d 08b8 5bbd 3490 19bc 8230 e1bd
00000330: e694 783d f434 e8bd 9e0e fbbb a511 083d
00000340: 776d 243d a22e d93d 319b 823b 9ef3 7cbe
00000350: 410f 153d e601 853a aade 17be ad85 4c3e
00000360: 67e5 463e e484 da3d 901d 423e cbbc 6cbc
00000370: 6038 8e3c 0051 22be ba8a 51bd 092c c2be
00000380: b994 653d 9486 d63c 9284 75be 013f e33c
00000390: 692d 913c 8d87 4c3d 1846 f1bc 780b a7bb
000003a0: 92a9 9b3e df5c 203d d32d 5abd 4ae0 fe3d
000003b0: 333f 2b3e 4d36 3fbe ab04 bebd 781d 46bd
000003c0: f240 c3bc 582b 0f3e d554 efbc e15d 673e
000003d0: 364f 28be 31ad 343e 9bff 92bd 11cc 05be
000003e0: e33c ba3d 9e4d 923e 4918 d43c d275 933d
000003f0: 8305 b83c 6e36 8d3d aa6a f3bd 344f a73d
0.16069922 -0.026505042 -0.068358734 -0.03759159 0.027629428 0.038688228 -0.09987019 0.062165882
-0.0640125 0.120978 -0.20651305 -0.056048136 -0.07423193 0.029762683 0.08881251 0.015796512
-0.13091382 -0.13208333 0.20621221 -0.1016756 -0.18449666 0.20762007 0.027127804 -0.04558429
-0.06490007 0.09380391 0.0828146 0.066608086 0.03938875 0.16281283 0.016370032 -0.022361401
-0.021459565 0.2589027 -0.00666849 -0.12209584 0.089675784 -0.07318877 0.13885382 -0.13613398
-0.053042598 0.13600391 -0.07778827 0.04613097 -0.075128496 -0.11304705 0.056789707 0.009010471
-0.26335585 -0.026313612 -0.038940284 -0.09272603 -0.20824692 0.12994766 -0.026611734 -0.107659005
-0.08578423 -0.046345938 -0.064013615 -0.024342926 0.16829735 -0.14110067 -0.017849209 0.2031015
0.088028915 -0.019872865 0.12188485 0.041773975 -0.07183902 0.102267876 0.04715223 -0.21266863
-0.15097043 -0.061796874 0.073841415 -0.11218103 -0.23492576 0.18556878 -0.0032786147 -0.076561496
-0.10771587 -0.1231742 0.073722795 -0.039090507 -0.106139354 -0.13044724 0.053672995 -0.023318253
0.10177357 -0.2232285 -0.20134813 -0.0509814 0.075878724 -0.0003994775 -0.084570505 -0.08396488
0.0016474249 -0.022045592 0.09755952 -0.046295065 0.07901391 0.14077476 -0.097668685 -0.009135057
0.031810217 -0.18828371 0.087196745 0.038522743 -0.16735286 -0.0023364977 -0.056828223 0.14817236
-0.006888656 -0.20721212 0.1323365 -0.06369891 -0.06531178 0.08416505 -0.06736519 -0.08069034
0.11145941 -0.111938916 -0.06176328 0.051765658 0.08706168 -0.05583283 0.19904493 -0.030805325
-0.13554174 -0.04887933 0.06935465 -0.0034422916 -0.035281748 -0.035231557 -0.09612723 0.011450188
-0.23416407 0.07745218 0.11015283 -0.07585876 -0.10432891 0.087307274 0.11303017 0.16003561
0.122307196 0.037784718 -0.19672279 -0.014637609 0.13381141 -0.15953496 -0.13953961 0.027168924
0.025447432 -0.03035288 0.08521936 0.011410049 -0.025859112 -0.077536315 0.050242912 -0.17715274
0.021696225 -0.04270194 0.09331749 -0.09303911 -0.043592364 0.2139484 -0.13893929 -0.022672944
0.043987084 0.036950137 0.050001886 0.011830057 0.0017784694 -0.054739024 -0.103363246 -0.10957787
0.16475816 -0.033602633 -0.06068588 -0.076115236 0.14146045 0.093212 0.0057158545 -0.098997384
-0.059530184 0.08570191 -0.12576436 0.004228807 -0.06326884 0.05645552 0.014262304 0.021326203
-0.31177276 0.072445184 0.072094984 0.018212894 -0.07981602 -0.07522251 -0.08195065 -0.08382567
0.038845234 -0.053642303 -0.00937276 -0.1099558 0.060688876 -0.11338225 -0.0076616546 0.033219952
0.040143456 0.10604598 0.0039857854 -0.24702308 0.0363915 0.001014766 -0.14831033 0.19972868
0.19423448 0.10669878 0.1895659 -0.014449309 0.017360866 -0.15851212 -0.05115769 -0.3792422
0.056050036 0.026187219 -0.23976353 0.027740004 0.017721849 0.04993396 -0.029452369 -0.0050978027
0.3040281 0.03915107 -0.053266358 0.124451235 0.16723327 -0.18673058 -0.09278234 -0.048367947
-0.02383468 0.13981378 -0.029215256 0.22594406 -0.16436467 0.17644192 -0.07177659 -0.13066126
0.090936445 0.28574842 0.025890486 0.07200207 0.022463566 0.06895147 -0.11885579 0.08169404

lstm.weight_hh_l1 f4 [256, 64]
00000000: 798b 033e b8a1 5c3b c6c7 a1bc fbd6 bdbd
00000010: 2f4f d83d e7c8 a9bd 1b20 44bc 034b 513d
00000020: ed56 a43d aa8d ff3c c61c 3f3c 7f3f cbbc
00000030: 54d4 35bc 9d86 65bd 9d11 4bbc 551c 103e
00000040: 7826 a53d 61fd 29bd 6509 463d 02fb 6639
00000050: 3178 303d 0b7f 973d 5011 033e 70df 743d
00000060: 5328 4e3e 9934 c6bc 5f0d 3bbc a423 343e
00000070: 5bf2 843d 5d60 4d3d 9430 c03c d849 8abd
00000080: 8c59 30ba c57b a73d 6af6 24bc ac69 f1bc
00000090: 89c3 0a3d 9c37 8f3d 6623 553e 67bd 233e
000000a0: 4325 2cbe be46 bfbd 6dad 023e 7783 a23d
000000b0: a96b 8bbc c3ea d1bd 27ce 813d c327 f13c
000000c0: 20c0 fabd 99ce 80bc 044a 283e d528 71bd
000000d0: 5bdb f23d 8bae 12bc b210 71bd ca5b 0dbe
000000e0: bfde 313c 9aa5 45bd 1cc0 acbd 43d6 183d
000000f0: 093c 1c3d dcab 8c3d ba02 3f3d e0e4 b2bc
00000100: 3034 4bbd 1b61 a9bd bf37 23be 4865 a2bd
00000110: 5080 98bd 8f51 ebbd e110 edbc f645 343d
00000120: f83c 4bbd beae 843d 30d8 36bd 4694 05bd
00000130: e8bd 3ebe efd8 bbbb fe31 813d b9e7 343d
00000140: bb71 36bc d423 803d d892 3f3d a6d9 323d
00000150: bb0b f3bc 343e 553d 32b5 133e dc6e 64ba
00000160: d4b1 bfbd c7da 423d 2f50 eb3d 99c2 323e
00000170: bc60 403d 5e90 923c a5da a33d 7876 a8bd
00000180: 5ec2 18bd 8fc7 683c b452 71bd 4535 963b
00000190: 8b5c 9e3d 0107 d53b 51d9 a5bd 15ad 203d
000001a0: edd2 efbd 7b9f 16be 1a7b 29bd a761 a8bc
000001b0: dc24 40be e4c4 883d 26dd a2bc 8634 633d
000001c0: 3a78 483e 72ff ddbc c59e 6bbd 4e87 85bd
000001d0: 99a0 f53d e18f 083e 7fe3 ee3d d8ab 2bbb
000001e0: c164 323d b06c debc 7e23 d9bd 4227 37be
000001f0: e631 273d dd5d a1bc 174d 593c 97eb d5bc
00000200: 4706 1b3d fcab f0bd ec01 c73d c5fa d7bd
00000210: 60a0 c2bc a752 44be 95a3 91bd f57b 3f3e
00000220: 3b67 b93c 3194 a23d d66a c83c cd78 87bd
00000230: 2737 a0bd 0101 d73c db90 92bd e96b 4cbd
00000240: caf9 473d 6401 223d 7c58 8cbd 49c6 693e
00000250: ef78 94bd 30d0 763d f8c2 48bd 6317 3fbe
00000260: b2ae f8bc d800 1cbe 7b6f 75bd 37b9 81bc
00000270: 1ff9 1b3d c847 8fbc 506d a13d 3d30 053e
00000280: e1ba e5bc d5bb 953d 32e1 053d 9864 ea3d
00000290: fc3d 1f3e 095e 093e cd77 113e 449b 09be
000002a0: b9cc 433e ddc6 45be e49e 44bc 8029 88bd
000002b0: a4e1 02be 43a1 84bd a030 9e3c a4da db3b
000002c0: de05 d73d afa0 c33a bebe ae3d f640 5fbe
000002d0: 3a7b 15bc 0d3b 47bc d41f 5f3d a835 143e
000002e0: 6f52 65bd bcc3 cbbb 0fd3 523b 6b18 c9bc
000002f0: 09b8 01be c6a1 273d 7337 02be e563 03bc
00000300: b819 d0bd bd62 84bd 2a78 4bbd 1203 cf3d
00000310: 3d37 8cbc 5eff da3a 8413 3ebd 5a8f 58bd
00000320: 7815 4ebe c7e2 183d 4e54 7bbd d389 073e
00000330: e664 cbbd 8b14 c43c bd3f 0ebe 0867 8f3d
00000340: 483c a43c 2635 f73c 02b5 bebd 41b3 f73d
00000350: 5eae 92bd 82f5 383e 92bc 16bd 060a bd3d
00000360: b2bc 98bd e25a b03c 4673 243e 7510 fcbd
00000370: 4f73 a4bd 9079 bb3d df63 23bc c185 3a3e
00000380: 3e79 253e 3b57 c13d edfe bcbd b23d 093e
00000390: db02 9b3d d69e 7e3e b21d 92bd 301a 50be
000003a0: 94a5 183e 8870 aeba 47eb dcbc 125e 163e
000003b0: a317 3abe 1e58 ed3c a952 a93d 938a 033e
000003c0: d82f 20be 26c8 263c 7efc 04bd 891b 06bd
000003d0: 8d0d 443d 9dbd 06be 5c8a 663d b056 9b3d
000003e0: 9991 9dbd d612 2cbd 7ac3 8abd 5990 d33d
000003f0: 6189 8f3d b3db c2bd c637 01bc ff0a fbbd
0.12846173 0.0033665728 -0.01974858 -0.0926952 0.10561978 -0.08290272 -0.011970545 0.051096927
0.08024392 0.03119548 0.011664575 -0.02481055 -0.011097986 -0.05603658 -0.012394336 0.14073308
0.08063978 -0.041501407 0.048348803 0.00022028017 0.043083373 0.073972784 0.12799573 0.0597834
0.2013257 -0.024195002 -0.011416762 0.17591721 0.06491538 0.050140727 0.023460664 -0.06752366
-0.0006727211 0.08177904 -0.010068515 -0.029469334 0.033877883 0.069930285 0.20814285 0.1599022
-0.16811089 -0.09339665 0.12761469 0.07935231 -0.01701911 -0.10249855 0.063381486 0.029437905
-0.12243676 -0.015723513 0.16434485 -0.05887683 0.11858245 -0.008952747 -0.058853813 -0.13804546
0.010856329 -0.048253633 -0.084350795 0.03731371 0.03814319 0.06868717 0.04663346 -0.021837652
-0.049610317 -0.082704745 -0.15939234 -0.07929474 -0.07446349 -0.114901654 -0.028938713 0.044012032
-0.04961869 0.06478642 -0.044639766 -0.032612108 -0.18627131 -0.0057326476 0.063083634 0.0441663
-0.011135514 0.06256834 0.0467709 0.043664597 -0.02966868 0.052061275 0.1442459 -0.0008714029
-0.0936009 0.047571924 0.11489903 0.17457046 0.046967253 0.017891105 0.080006875 -0.08225721
-0.037294738 0.014207735 -0.058916762 0.004583987 0.07732495 0.006501079 -0.080980904 0.039227564
-0.11710153 -0.14709274 -0.041377164 -0.020554377 -0.1876406 0.06678179 -0.019880842 0.055470012
0.19577113 -0.027099345 -0.05752446 -0.06519948 0.11993522 0.13336135 0.11664485 -0.0026194956
0.043553118 -0.027151436 -0.10602473 -0.1788607 0.04081907 -0.019698078 0.013263009 -0.026113315
0.037847783 -0.117515534 0.097171634 -0.10545877 -0.023758113 -0.19172154 -0.07111279 0.1869963
0.022632232 0.079384215 0.024465006 -0.06614838 -0.078230195 0.026245596 -0.07156535 -0.0499076
0.0488222 0.039552107 -0.068528146 0.22829546 -0.07249629 0.060257137 -0.04901406 -0.18661265
-0.030356739 -0.15234697 -0.05992077 -0.015835388 0.038079377 -0.017490283 0.07882178 0.13006683
-0.028043212 0.07311217 0.032685466 0.11444968 0.15550989 0.13414778 0.14205857 -0.13438135
0.19121064 -0.19314142 -0.012000773 -0.066485405 -0.12781388 -0.06476071 0.019310296 0.0067094136
0.10499166 0.0014925207 0.08532475 -0.21802124 -0.009123618 -0.012160075 0.054473713 0.14473593
-0.055986818 -0.0062184017 0.0032169258 -0.024547776 -0.1266786 0.040925764 -0.12716465 -0.008019422
-0.101611555 -0.06464145 -0.049675144 0.101080075 -0.017116183 0.0016708185 -0.04640533 -0.052871086
-0.20125377 0.037325647 -0.061359696 0.1323617 -0.09931354 0.023935577 -0.13891502 0.070020735
0.020048276 0.03017671 -0.09311868 0.12094737 -0.07162164 0.18062404 -0.03680093 0.092304274
-0.07457866 0.021527711 0.16059598 -0.123078264 -0.08029806 0.091540456 -0.009972542 0.18215086
0.16159531 0.09440466 -0.09228311 0.13402441 0.07568904 0.24865279 -0.0713457 -0.2032249
0.14906913 -0.0013308683 -0.026967658 0.14684322 -0.18173079 0.028972682 0.08267719 0.1284583
-0.15643251 0.010179555 -0.032467358 -0.032741103 0.047864486 -0.13158269 0.056284294 0.07584894
-0.07693786 -0.04201015 -0.067755654 0.103302665 0.07008625 -0.095145606 -0.007886833 -0.12257957

lstm.bias_ih_l1 f4 [256]
00000000: 8ec9 35bd 58bd f7bd 3299 cc3d 3d1a 96bc
00000010: 0d6a 683c a4d9 2e3e 1eb1 013e 6984 673d
00000020: 6665 71bd c9ea 133e 10b8 0c3e 25dd 143e
00000030: 1cd5 7f3d 0dcc b3bc d293 41be 640a 07be
00000040: 97de aabd f2ac 8b3d eddd 603d 573b 413d
00000050: f615 6d3d 071e 953d dd17 093e 989f a73d
00000060: 9625 253d 3209 0a3e 5fd5 cd3d 73b5 31bc
00000070: 70b4 c83d 9910 0d3e 5edf 973d 25ef c73e
00000080: 7495 14bd 8d8f 853d 09d0 963d 7e68 d5bc
00000090: af02 993d 3d1b d93b 29d0 133e 6db5 e2bb
000000a0: 41bd 083d 7684 3d3c b3f7 b3bd fd9f f73d
000000b0: 2d59 173e 95fc d5bc 7059 543e 4790 ee3d
000000c0: 21b9 983d cc71 b73d b895 863c d455 7b3c
000000d0: 9bf8 0c3e 1d58 803c 0173 1e3d 449c 3f3d
000000e0: ae7c ccbd b3d2 c93d e74b 34bd 5db9 1c3d
000000f0: ef54 c1bd 93d3 c53d 916c 5fbc 7f2b 43bd
00000100: 0ebd 85bd 2931 913c 55f6 c0bc 4711 5fbd
00000110: cc5e e9bd c330 913c b691 863d 52e2 b6bd
00000120: f3f5 9abd ff35 ddbd 6685 57bd 4c2b 36bd
00000130: 4467 383c 6f5a cabc 096b 823d af26 efbd
00000140: 5508 babd ee0e 7d3d 6dfb 9fbb 19c6 473c
00000150: 89ba 52bd 3ab9 823d 69c0 263d a5e2 c13b
00000160: e16d a9bd 25dd 0bbe ea6a debd 1755 943c
00000170: 8fc0 aa3c 0ebe 74bd 7dbd a93d 309b 2c3d
00000180: 29fd e73b 0eb3 a0bb 0761 63bd 8735 64bd
00000190: baf6 08be 91e0 e0bc 497c 9fbd f5da 3bbe
000001a0: 6e13 a63a 5ce2 e13c 6631 fb3b 4599 a9bc
000001b0: a3a5 04bd fffc f83b 6fc1 9abd c37a a9bb
000001c0: b1c6 ddbd bef7 183e d919 4d3d b1ab 02be
000001d0: 3c93 bcbd 6f51 023d 639e eabd 5ec6 debd
000001e0: f104 903d ade8 d6bd f088 1dbd f0bb 8b38
000001f0: 8895 133e e456 cfbd ebe5 b5bd 822a 47bb
00000200: 33fa b23c ef58 a7bd 11cc d5bc c4b2 f83c
00000210: 3efb 4a3d 67af db3d b51d 473c c807 d1bd
00000220: 6906 18bc ea6b b7bd 1ba0 e53d ffeb 3b3c
00000230: 089f a1bc 45f1 8a3d 0601 093d a19f 3a3d
00000240: 1a13 b0bd 5463 803c 38f1 6abc 547e 323d
00000250: f29b dbbd 508e 313c 2989 fd3c b038 c53d
00000260: cad8 01bd 54c3 463d f7e0 e03d e849 c1bd
00000270: 343a d7bb 0317 7d3c 7e49 9e3d 6a3a 9e3d
00000280: 7468 8e3d 2764 eb3d 6b0d 95bc fa93 e0bc
00000290: 3ba6 dcbc e4d9 d7bb 3773 79bd 3189 66bd
000002a0: 3d33 323d e709 fc3c 9ef6 6fbb dd5a cabc
000002b0: 4944 a1bd 3eb1 423d 1c32 833d 8785 883d
000002c0: 7d34 103e 6cd7 c73d b3fb 9f3d 8ee2 d83c
000002d0: 08be d3bd fc83 193c 460d ac3d 8bc4 9e3d
000002e0: 33eb 053d 1ac8 57bc f167 9b3d 328b 383d
000002f0: 3bd6 70bd f348 c13b dd68 dd3c 0208 58bd
00000300: 3e09 9dbd 7609 6c3d 6cb0 ccbd 972f 803c
00000310: 3acf 4dbd 70bc 283e 1c25 0ebd cd36 81bd
00000320: 0add 853c a9fa 8ebd 8c0f e43d 42f2 893d
00000330: 1e5a 30be 7b8d b5bc 9387 a2bd 6e86 77bc
00000340: 6631 cdbd 81f4 57bd 7e29 e03d 8813 063e
00000350: 9aa3 c63b 47c0 cf3d c971 123e 469f 753d
00000360: 44be 043d 181d e83c 467e b73d 1ac1 1e3d
00000370: d145 5b3d 0b3d 073e 5b46 4abd 4cfc 1b3e
00000380: 2b1b 3e3e b24a 333d 4d7c 35bd 1e99 a1bd
00000390: e579 b93d 00cf 13bb 56ab 283e 5852 d1bd
000003a0: eddf e73c 49c3 773d ee75 903d 4fd8 f73d
000003b0: ce56 823e 22e8 433e bea9 ac3e f52c 203e
000003c0: b5a2 2e3d a446 ab3c e702 923c cdf9 923d
000003d0: c571 663d 6a50 30be fee4 903d f4f6 b23d
000003e0: e537 91bd f31a 873c 2f0e 62bc 7794 9f3d
000003f0: cbce 03be d7da ea3b 5d7f d33a 8e2b 6c3c
-0.04438167 -0.12096661 0.09990157 -0.018323058 0.014185441 0.17075211 0.12665221 0.05652276
-0.05893459 0.14445032 0.1374209 0.14537485 0.062459096 -0.021947885 -0.18904045 -0.13187557
-0.08343237 0.06820096 0.054899145 0.04717573 0.05788227 0.07281118 0.1338801 0.08184737
0.040319048 0.1348007 0.10050463 -0.0108464835 0.09800041 0.13775863 0.07415651 0.3904964
-0.036275342 0.06521521 0.07363898 -0.026050802 0.07471215 0.0066255615 0.14434876 -0.0069186003
0.03338361 0.011567226 -0.08787479 0.12091062 0.14780112 -0.026121417 0.20737243 0.116486125
0.074571855 0.08957252 0.016428813 0.015340287 0.1376671 0.015667016 0.038683895 0.046779886
-0.09984718 0.09854641 -0.0440177 0.038262714 -0.09440028 0.09659495 -0.013636724 -0.047648903
-0.065302 0.017723637 -0.02355496 -0.054459836 -0.11395034 0.017723447 0.06570761 -0.08929886
-0.07566442 -0.108013146 -0.052617453 -0.044474885 0.011255089 -0.024701325 0.063680716 -0.116773
-0.090836205 0.061781816 -0.004882267 0.012193226 -0.051447425 0.063829854 0.04071084 0.0059169107
-0.08272911 -0.13658579 -0.10860236 0.01810698 0.020843772 -0.059751563 0.08288095 0.042140186
0.0070797396 -0.0049041575 -0.055512454 -0.05571511 -0.13375369 -0.027450832 -0.077873774 -0.18345244
0.0012670585 0.027573757 0.007665801 -0.020702967 -0.032384526 0.007598519 -0.07556426 -0.005172105
-0.10828913 0.14938256 0.05007348 -0.12760808 -0.0920777 0.031815942 -0.11455991 -0.10877679
0.070321925 -0.10493598 -0.038460672 6.6630426e-05 0.1441251 -0.10123995 -0.08881744 -0.0030390327
0.02184782 -0.081712596 -0.026098283 0.03035868 0.04955601 0.10726815 0.012153079 -0.10206562
-0.009278872 -0.0895613 0.11212178 0.01146984 -0.019729152 0.067843 0.03344824 0.04556239
-0.08597393 0.015672363 -0.014339738 0.043577507 -0.107231036 0.010837153 0.030949192 0.09629953
-0.031700887 0.048526123 0.10980409 -0.094379246 -0.0065682177 0.015447381 0.07728861 0.07725985
0.069535166 0.11493712 -0.018194875 -0.02741431 -0.026934734 -0.006587254 -0.060900893 -0.05628318
0.043505896 0.03076644 -0.00366155 -0.02470153 -0.078743525 0.047532313 0.06406042 0.06666093
0.14082523 0.09757885 0.0781168 0.026475217 -0.1033898 0.009369846 0.08400969 0.07752331
0.032695007 -0.0131702665 0.075881846 0.045054622 -0.058798056 0.005898589 0.027027542 -0.05274201
-0.076677784 0.05762621 -0.09994587 0.015647693 -0.050246455 0.16478133 -0.03470336 -0.063092805
0.016340751 -0.069814034 0.11135778 0.0673566 -0.17221877 -0.02216219 -0.07936015 -0.015107734
-0.10019188 -0.05272341 0.10945414 0.13093388 0.0060619833 0.10144096 0.14301218 0.059966348
0.032408014 0.028334185 0.089596316 0.038758375 0.05353338 0.1320688 -0.049383502 0.15232962
0.18565051 0.043772407 -0.044307996 -0.07890533 0.09056453 -0.0022553802 0.1647161 -0.10220784
0.028305018 0.060488973 0.07053743 0.121018045 0.25456852 0.1913152 0.33723253 0.1564215
0.04263564 0.020907708 0.01782365 0.07176552 0.056260843 -0.17218176 0.07074927 0.08738509
-0.07090739 0.016492343 -0.013797327 0.07791989 -0.12871854 0.007167201 0.001613598 0.014414681

lstm.bias_hh_l1 f4 [256]
00000000: 4cff ec3d 39b1 4c3d f0e5 bc3d c196 053e
00000010: 09a8 a03c 5359 ab3d 34d7 b23b 0017 fa3d
00000020: 5456 ff3d 6e3c 103e c689 a63d 6d97 b33d
00000030: f11a e3bd 91d3 6abd b085 97bc c077 08be
00000040: 3c39 9e3d 7bb2 d13c d3b9 293d b2ef ed3d
00000050: 0e86 93bd dea1 f63c b01a 7b3c 529f 943d
00000060: b685 2a3a e045 cd3d bfe9 debd 2373 a13d
00000070: e8a3 293d 5282 3e3d f4e2 253d 4170 2a3e
00000080: 32d3 ad3c 8b84 3cbb 8152 173d 7329 203e
00000090: 6bb0 f63d 908c 8a3c 5cef 013e 931d d7bb
000000a0: 6381 99bd d8d7 003d da0e 8cbd 895c 053e
000000b0: d813 033e 4df1 023e 4234 763e 7831 453e
000000c0: f8a8 1d3e 6a74 87bd d36d 8bbc 622f b9bc
000000d0: 6ccb 89bd 574e 8bbd 28a8 a5bd a532 c83d
000000e0: 347c bb3c 4f5f 53bd 7895 013e e7e1 873c
000000f0: 0b0f a23d 2db1 dbbd f6dd 94bd 67ef e33a
00000100: 2725 253d 9a60 13be 9f66 623d c1b5 debc
00000110: e35e e7bc e68f cb3d 38a5 a8bd 2ed5 373d
00000120: 3583 4b3d 350b d3bd a432 663d 480a 0bbe
00000130: 707d c3bd 4d0b 0b3d 2575 18be 104f 3bbd
00000140: de2f 09bd 404d 203d 09e4 6abd 700a 8dbd
00000150: cf44 0cbd bb7a cfbd 804d 06be 9d2a 53bd
00000160: 7cf1 7f3c 3744 d13d 9b29 1b3d e542 96bd
00000170: 5a8e be3b 81f1 81bd 45e0 15be 3f47 f3bc
00000180: db65 d0bd 40d9 21be d1cb 79bd 6244 07bd
00000190: 3f87 9abc 68c4 8cbd 9b59 1cbe 9f5f eabd
000001a0: 794d 4d3d 00b8 11be 715a abbd a4d3 48be
000001b0: 0686 b33c cea6 f6bd fe6d 833c 0371 773c
000001c0: 7daa 253c c032 a63d 552e a13d 170a 0abc
000001d0: 2ce9 213d e8fd 86bd b0cc 0f3d ab97 d83c
000001e0: a79c 00be 22d0 85bd ccb7 8b3d e06c 053d
000001f0: a38a 0d3d 6476 87bb e636 12be 81a7 c43d
00000200: aa68 7fbd 1592 af3d f70f c03d 5a90 8d3d
00000210: 4862 bdbc 18e8 eb3c 9467 b3bd b1e4 073e
00000220: 3c19 36bd a431 bc3d 705a 6ebd b2bf ac3c
00000230: c025 693b 680c a6bb e23c 72bd 1ddd 643d
00000240: 84f3 ebbc 0f28 c5bc 557e 193d 71ec da3d
00000250: 5fd2 3cbd 870f 493d cb38 d4bd b086 c43d
00000260: c29f c9bd b053 c9bc 0f26 1e3d fee2 7cbd
00000270: f963 8bbd 3d16 b1bd aefd 363d 6223 07be
00000280: b376 2f3d 958d b43d 46db 3f3b 186a 2c3b
00000290: 1cb5 0c3d a079 abbd 9059 31bd 3af6 723d
000002a0: 2860 f1bc 6eef 8a3d 35be d1bd 8323 f33d
000002b0: b99f c73b aa46 26bb 7e95 7abd 356b 32bd
000002c0: 05c1 d7bd b71e 65bd 6f6d debd cd34 bebd
000002d0: addd f1bc 2081 e8bd bc47 dbbc f028 fbbc
000002e0: 55f3 323d 4bd3 cdbd 9c89 823d 67c6 a8bb
000002f0: 4cb1 96bd 7462 533d b62a 0d3d 6058 1a3d
00000300: 7ac1 e3bc 3ca7 393d 9176 be3d 208a 2cbc
00000310: 5f0b 893d 0dd3 503d 28cb cf3d f019 c3bb
00000320: d9d5 c9bd 1746 a53c 2a23 543e 9606 a33d
00000330: 7bad c9bd 30ed 34bd 1315 4bbe cecf 26ba
00000340: 44d3 bc3d e6ca 17bd 902e 1ebd 6a69 c13c
00000350: 69f1 ee3d 4246 43bd 98e2 bd3c ab25 8b3d
00000360: 2585 05bd 47eb 243e aa06 f43c c323 123e
00000370: 996c 9b3d 0cb2 cb3d 6737 b4bd fa33 6a3e
00000380: 5c4c cfbc a8c9 2b3d 7cbb 8cbd c7ba 4cbd
00000390: 5c36 70bb 1ca3 edbd a4c8 073e 48c9 10bd
000003a0: 64eb c53d 73a3 383d 9e86 4dbc ff02 8a3d
000003b0: 56d2 903e 803c 8e3c 388b 8f3e 348d 5a3e
000003c0: ca04 933d 4d07 5f3d 211a 06bd 6046 c8bd
000003d0: 6099 ddbc 32bf 25be 16c3 683d ceb3 e0bd
000003e0: 2026 febd e256 903d 87a5 1f3e 9b20 043e
000003f0: 09b9 60bd ca65 e53c 2da3 143d ad0a da3d
0.115721315 0.0499737 0.092235446 0.1304579 0.019611375 0.083666466 0.005457783 0.12211418
0.12467638 0.14085552 0.08131747 0.087691166 -0.11089123 -0.05733067 -0.018496364 -0.13326931
0.0772576 0.025597801 0.04143698 0.11617984 -0.07203303 0.030106481 0.015326187 0.072569504
0.000650491 0.10023093 -0.10884427 0.07883289 0.04141608 0.046511002 0.040499642 0.16644384
0.02121887 -0.0028765525 0.036943916 0.15640812 0.12045368 0.016912729 0.12688965 -0.006564805
-0.07495382 0.031455845 -0.0683877 0.1302358 0.12800539 0.12787361 0.24043372 0.19257152
0.15396488 -0.06614001 -0.017020142 -0.022605602 -0.06728253 -0.068020515 -0.08088714 0.09775285
0.022886373 -0.051604565 0.12654674 0.01658721 0.079130255 -0.10727153 -0.07268898 0.0017390073
0.040318634 -0.1439232 0.05527365 -0.027186276 -0.028243488 0.09939556 -0.08234638 0.04488104
0.049685676 -0.10304872 0.05620064 -0.1357814 -0.0954541 0.033946324 -0.14888437 -0.045729697
-0.033492915 0.03913617 -0.057346378 -0.068867564 -0.03424531 -0.10130831 -0.13115501 -0.05155431
0.015621539 0.10218089 0.037881475 -0.07336978 0.0058153095 -0.06344891 -0.14636333 -0.029697059
-0.101756774 -0.1580553 -0.06098539 -0.0330242 -0.018863318 -0.06873399 -0.15268557 -0.114440195
0.05012271 -0.14230347 -0.0836686 -0.19611984 0.021914493 -0.12043534 0.01604366 0.015102628
0.010111448 0.081151485 0.07870165 -0.008425257 0.03952901 -0.065913975 0.035107315 0.026439508
-0.12559758 -0.06533839 0.06822166 0.032574534 0.034556042 -0.0041339863 -0.14278755 0.09602261
-0.062355675 0.08572785 0.09378045 0.069122985 -0.023118153 0.028797194 -0.0875999 0.13270833
-0.04445766 0.09189156 -0.058191717 0.021087501 0.003557548 -0.005067397 -0.059140094 0.055874933
-0.02880264 -0.024066953 0.037473995 0.10689629 -0.046099063 0.049087074 -0.10362395 0.09596002
-0.098449245 -0.024576038 0.038610514 -0.061739914 -0.06806178 -0.0864682 0.04467552 -0.13197091
0.04283781 0.08816067 0.0029274984 0.0026308354 0.034352407 -0.083728075 -0.043298304 0.05931685
-0.029464796 0.06783949 -0.10241357 0.11872008 0.0060920385 -0.002537171 -0.061177723 -0.04355927
-0.105348624 -0.055937495 -0.108607166 -0.09287415 -0.029524649 -0.11352754 -0.026767604 -0.030659169
0.04368909 -0.100500666 0.06373903 -0.0051506045 -0.073580354 0.051607564 0.03446456 0.037681937
-0.027802218 0.045325503 0.092999585 -0.010530978 0.06691622 0.050982524 0.10146171 -0.0059540197
-0.09855241 0.020175023 0.20716539 0.079602405 -0.09847542 -0.044171512 -0.19832258 -0.0006363363
0.09219983 -0.037058733 -0.038618624 0.023609836 0.11667139 -0.047674425 0.023179337 0.06794294
-0.03259768 0.16105376 0.029788334 0.14271455 0.07589073 0.09946069 -0.0879963 0.2287139
-0.025304966 0.04194036 -0.06871697 -0.049982812 -0.0036653494 -0.11603376 0.13260132 -0.035348207
0.09664038 0.045077752 -0.012544302 0.06738853 0.28285474 0.017362833 0.28035903 0.21342927
0.07178648 0.054450322 -0.032739762 -0.09779048 -0.027050674 -0.16186216 0.056826673 -0.10971795
-0.124096155 0.070478216 0.15590487 0.12903063 -0.054863963 0.028002638 0.03628843 0.106465675
